model/test1.pth/test1.pth7.pth (torch, 2728 bytes, 4 tensors)

linear1.weight f4 [16, 7]
000000 b5 1a d8 be 21 06 b6 3d 3e 5b 63 3d f9 41 9f be
       -0.42207876 0.08887888 0.055506937 -0.3110502
000010 5a f3 12 be 07 0b 2f 3e 8a 62 82 bb 46 dc a5 be
       -0.14350644 0.1709405 -0.003979032 -0.32394618
000020 ba b3 d1 be 56 98 97 3e 59 58 1d 3e d8 b7 81 be
       -0.40957433 0.2960841 0.15365733 -0.25335574
000030 12 d0 b6 be 65 56 4d 3d 68 16 a1 be 48 75 eb 3d
       -0.3570562 0.05013122 -0.31462407 0.11496979
000040 b5 06 44 be 4e 60 d3 be 6e 48 3c 3e 19 a6 6a bd
       -0.19143184 -0.41284412 0.18387005 -0.05728731
000050 ec ab 45 bd 74 e3 0c bd e6 98 06 be 20 de 66 3f
       -0.04825966 -0.034396604 -0.13144264 0.90182686
000060 80 9e 05 3e fe 6a ca 3d 2b 46 52 bd 05 51 54 bf
       0.13048744 0.098836884 -0.05133645 -0.82936126
000070 d1 d3 f9 bc 8d e6 f4 bd 19 6a 38 bf 56 7c c2 be
       -0.03049651 -0.119580366 -0.7203689 -0.37985486
000080 e6 bf d4 3d 26 c3 b3 3d e1 1d 1f bf 15 d1 40 bc
       0.10388164 0.08777456 -0.62154967 -0.011768599
000090 fd 27 b1 be d9 44 ce be fe cb b9 3d 3f c3 ea bd
       -0.3460082 -0.40286902 0.090721115 -0.114630215
0000a0 be 43 0c bf 49 d1 6d be 4e ab b4 3d 6f d1 d0 be
       -0.54790866 -0.23224367 0.08821736 -0.40784785
0000b0 6f cf d9 be 87 ce 04 3c df 7a ba bd 5a 40 9e be
       -0.42541072 0.008105881 -0.09105467 -0.3090847
0000c0 43 e7 d5 be 91 52 80 bf fa 90 9d bd e0 72 94 be
       -0.41778 -1.0025197 -0.07693668 -0.28993893
0000d0 f8 15 c2 be ab c0 6a be 06 09 4f 3e b2 74 a7 3e
       -0.37907386 -0.2292506 0.20218286 0.3270622
0000e0 41 fc 81 bd 35 53 e6 3e 2e 03 0e bf 52 b1 76 3d
       -0.06346942 0.44985357 -0.554736 0.0602277
0000f0 1b 25 c1 3d 1f 1e d4 bc 6f e9 e1 3e 61 c2 cc bd
       0.094309054 -0.02589327 0.44123408 -0.09998012
000100 15 a9 3d bf 65 7b c1 be e8 d7 50 3c 51 d5 d5 bd
       -0.74086124 -0.37789455 0.012746789 -0.104410775
000110 ba f8 da 3d 30 0a ab 3f 18 65 d1 3d 72 fb a8 be
       0.10691972 1.3362484 0.1022436 -0.33004338
000120 58 d2 74 bd ec 9e b6 bd 2c 12 82 bd d8 ba 45 bd
       -0.059770912 -0.08917031 -0.06351122 -0.04827389
000130 6f 67 68 be 80 d6 b4 be a9 46 0a be 50 87 88 be
       -0.22695707 -0.353199 -0.13503517 -0.26665735
000140 15 48 6e be 03 cd a6 be 55 a1 72 3d f9 27 1d 3e
       -0.23269685 -0.32578287 0.05923589 0.1534728
000150 69 9e ba 3c 5d bc c1 bd 4b b5 f7 3c 3d f7 80 bf
       0.022780614 -0.094597556 0.030237814 -1.0075451
000160 cd 25 5c be 96 8c f3 bd 37 38 40 be 5b aa 23 bf
       -0.21498795 -0.11892049 -0.18771444 -0.63931817
000170 74 c6 dd bc 31 d5 27 bf 27 cf a7 be de c5 35 3e
       -0.027072169 -0.6555968 -0.32775232 0.17751262
000180 cc 1b c7 be ab c3 d6 3e 48 40 8f be bb f6 68 be
       -0.38888395 0.41946158 -0.2797873 -0.2275037
000190 d0 df 3c bf 8a 9b c7 3c c1 8e aa be 68 f4 e0 3e
       -0.7377901 0.024366159 -0.33312038 0.43936467
0001a0 4b 2b 82 3f b0 c9 91 be cc 69 10 be b9 3e 77 3c
       1.0169462 -0.28474188 -0.14102858 0.015090638
0001b0 60 2a 58 3c be 2f bd 3d be 19 39 be b9 d7 83 be
       0.013193697 0.09237622 -0.18076226 -0.2575052

linear1.bias f4 [16]
000000 4e 7e 82 bd 25 8c 26 be d0 bf d8 be 97 dc 11 be
       -0.06371747 -0.16264398 -0.4233384 -0.14244305
000010 6d c8 27 be c8 25 fb be c8 fd e7 bb c6 3a 60 3e
       -0.1638505 -0.49052262 -0.0070798136 0.2189742
000020 bf 5c 4b 3f 30 e0 e6 be 99 ba 8b be e6 de d9 be
       0.79438394 -0.45092916 -0.272908 -0.4255287
000030 49 c7 96 3d 97 cd 0f 3e 94 2b dd bc d9 a7 e3 be
       0.073622294 0.1404327 -0.026998319 -0.44463995

linear2.weight f4 [2, 16]
000000 19 b1 e4 bd 61 42 bf 3c 5b 63 4d be 49 3a 8a be
       -0.11166591 0.023347082 -0.20057432 -0.26997593
000010 bf 7b 6a be b3 3e ff bc 25 2c d3 3c 6b d7 25 3f
       -0.22898768 -0.031157827 0.025777886 0.64781827
000020 dc 7c aa 3e e2 90 9f be 80 47 3f be e4 4b 2f bc
       0.33298385 -0.31165224 -0.18679619 -0.010699246
000030 04 8b f8 3b cd 5d 32 3f 27 6d 2f be 4e 75 e6 3c
       0.0075849313 0.6967438 -0.17131482 0.028132107
000040 b3 34 af bd 55 44 03 bd 5c ac 18 3d d7 1c a3 be
       -0.085549735 -0.03204759 0.03727375 -0.3185794
000050 3f bb 4b be 49 fc 66 3d b5 ba 85 3c 2c 31 43 3f
       -0.19895647 0.05639294 0.01632438 0.76246905
000060 9c ed aa 3e 08 60 7b be 04 46 c6 bd c4 15 77 3e
       0.33384407 -0.24548352 -0.09681323 0.24129397
000070 a6 1c 8d bc 39 fb 1f 3f d6 03 5a be c1 b5 88 bc
       -0.017225575 0.6249271 -0.21290526 -0.01668823

linear2.bias f4 [2]
000000 e4 9c e8 3f 91 00 53 3f
       1.8172879 0.8242274
