model/test1.pth/test1.pth8.pth (torch, 2728 bytes, 4 tensors)

linear1.weight f4 [16, 7]
000000 b5 1a d8 be 21 06 b6 3d 3e 5b 63 3d f9 41 9f be
       -0.42207876 0.08887888 0.055506937 -0.3110502
000010 5a f3 12 be 07 0b 2f 3e 8a 62 82 bb 46 dc a5 be
       -0.14350644 0.1709405 -0.003979032 -0.32394618
000020 ba b3 d1 be 56 98 97 3e 59 58 1d 3e d8 b7 81 be
       -0.40957433 0.2960841 0.15365733 -0.25335574
000030 12 d0 b6 be 65 56 4d 3d 68 16 a1 be 48 75 eb 3d
       -0.3570562 0.05013122 -0.31462407 0.11496979
000040 b5 06 44 be 4e 60 d3 be 6e 48 3c 3e 19 a6 6a bd
       -0.19143184 -0.41284412 0.18387005 -0.05728731
000050 ec ab 45 bd f2 20 77 bc ca 78 a2 bd d4 c1 64 3f
       -0.04825966 -0.015083538 -0.07933195 0.8935826
000060 59 59 d0 3d 7b ea 1f 3e a2 23 23 bd ba 11 60 bf
       0.10173292 0.15616791 -0.039828904 -0.8752705
000070 d1 d3 f9 bc 8d e6 f4 bd 19 6a 38 bf 56 7c c2 be
       -0.03049651 -0.119580366 -0.7203689 -0.37985486
000080 e6 bf d4 3d 26 c3 b3 3d e1 1d 1f bf 15 d1 40 bc
       0.10388164 0.08777456 -0.62154967 -0.011768599
000090 fd 27 b1 be d9 44 ce be fe cb b9 3d 3f c3 ea bd
       -0.3460082 -0.40286902 0.090721115 -0.114630215
0000a0 be 43 0c bf 49 d1 6d be 4e ab b4 3d 6f d1 d0 be
       -0.54790866 -0.23224367 0.08821736 -0.40784785
0000b0 6f cf d9 be 87 ce 04 3c df 7a ba bd 5a 40 9e be
       -0.42541072 0.008105881 -0.09105467 -0.3090847
0000c0 43 e7 d5 be c8 7b 8c bf a5 c2 10 be 7c c5 b5 be
       -0.41778 -1.0975275 -0.14136751 -0.3550223
0000d0 0c 90 e7 be 8f 0c 96 be c7 4e 0e 3e 47 e6 86 3e
       -0.45227087 -0.29306456 0.13897239 0.26347563
0000e0 bb b6 b2 bc 9f 4d fb 3e 56 3d 09 bf 7e cc fd 3c
       -0.021815648 0.49082658 -0.53609216 0.030981299
0000f0 51 5e 30 3e 9c 4c 72 3d e7 40 a6 3e b9 d3 9a bd
       0.17223479 0.05915509 0.32471392 -0.07559914
000100 d1 b7 2e bf 26 1a cb be f8 dd 0c bc f7 8a 65 bd
       -0.6824923 -0.39668387 -0.008597843 -0.05604073
000110 ad e6 c7 3d a3 78 af 3f 18 65 d1 3d 72 fb a8 be
       0.09760795 1.370869 0.1022436 -0.33004338
000120 58 d2 74 bd ec 9e b6 bd 2c 12 82 bd d8 ba 45 bd
       -0.059770912 -0.08917031 -0.06351122 -0.04827389
000130 6f 67 68 be 80 d6 b4 be a9 46 0a be 50 87 88 be
       -0.22695707 -0.353199 -0.13503517 -0.26665735
000140 15 48 6e be 03 cd a6 be 55 a1 72 3d f9 27 1d 3e
       -0.23269685 -0.32578287 0.05923589 0.1534728
000150 69 9e ba 3c 5d bc c1 bd 4b b5 f7 3c 3d f7 80 bf
       0.022780614 -0.094597556 0.030237814 -1.0075451
000160 cd 25 5c be 96 8c f3 bd 37 38 40 be 9d eb 4d bf
       -0.21498795 -0.11892049 -0.18771444 -0.8043764
000170 6c 05 e7 bc ae 3f 2a bf 7d 72 ca be b1 1b 4a 3e
       -0.028200828 -0.6650342 -0.39540473 0.19737126
000180 fc 9a b7 be fe 4e c3 3e 91 38 c8 be 26 e6 52 be
       -0.3586043 0.38146204 -0.39105657 -0.20595607
000190 4e 55 3d bf 2b fb d3 3d e7 69 b2 be 59 71 c2 3e
       -0.7395829 0.10350641 -0.34846422 0.37977102
0001a0 96 e0 7b 3f b0 c9 91 be cc 69 10 be b9 3e 77 3c
       0.98389566 -0.28474188 -0.14102858 0.015090638
0001b0 60 2a 58 3c be 2f bd 3d be 19 39 be b9 d7 83 be
       0.013193697 0.09237622 -0.18076226 -0.2575052

linear1.bias f4 [16]
000000 4e 7e 82 bd 25 8c 26 be d0 bf d8 be 56 69 85 bd
       -0.06371747 -0.16264398 -0.4233384 -0.06514232
000010 6d c8 27 be c8 25 fb be c8 fd e7 bb b2 e7 1e 3e
       -0.1638505 -0.49052262 -0.0070798136 0.15518072
000020 dc f2 5e 3f f8 d5 ba be 99 ba 8b be e6 de d9 be
       0.87089324 -0.3649137 -0.272908 -0.4255287
000030 49 c7 96 3d b7 8b 15 3e 09 76 c2 bb d9 a7 e3 be
       0.073622294 0.14604078 -0.005934481 -0.44463995

linear2.weight f4 [2, 16]
000000 19 b1 e4 bd 61 42 bf 3c 5b 63 4d be c9 8f bc be
       -0.11166591 0.023347082 -0.20057432 -0.3682845
000010 bf 7b 6a be b3 3e ff bc 25 2c d3 3c cb 77 2a 3f
       -0.22898768 -0.031157827 0.025777886 0.6658904
000020 4a 03 aa 3e 0e bc 8f be 80 47 3f be e4 4b 2f bc
       0.33205634 -0.28073162 -0.18679619 -0.010699246
000030 04 8b f8 3b 16 09 34 3f 47 42 13 be 4e 75 e6 3c
       0.0075849313 0.70326364 -0.14380752 0.028132107
000040 b3 34 af bd 55 44 03 bd 5c ac 18 3d 3b 85 c6 be
       -0.085549735 -0.03204759 0.03727375 -0.38773522
000050 3f bb 4b be 49 fc 66 3d b5 ba 85 3c 04 39 44 3f
       -0.19895647 0.05639294 0.01632438 0.766495
000060 b4 60 a7 3e 75 a5 6d be 04 46 c6 bd c4 15 77 3e
       0.32690966 -0.23207648 -0.09681323 0.24129397
000070 a6 1c 8d bc 9d 72 3f 3f 01 8a 3a be c1 b5 88 bc
       -0.017225575 0.7478426 -0.18216707 -0.01668823

linear2.bias f4 [2]
000000 e7 75 f4 3f 78 85 6f 3f
       1.9098481 0.9356303
