model/test1.pth/test1.pth6.pth (torch, 2728 bytes, 4 tensors)

linear1.weight f4 [16, 7]
0	0xbed81ab5	-0.42207876
1	0x3db60621	0.08887888
2	0x3d635b3e	0.055506937
3	0xbe9f41f9	-0.3110502
4	0xbe12f35a	-0.14350644
5	0x3e2f0b07	0.1709405
6	0xbb82628a	-0.003979032
7	0xbea5dc46	-0.32394618
8	0xbed1b3ba	-0.40957433
9	0x3e979856	0.2960841
10	0x3e1d5859	0.15365733
11	0xbe81b7d8	-0.25335574
12	0xbeb6d012	-0.3570562
13	0x3d4d5665	0.05013122
14	0xbea11668	-0.31462407
15	0x3deb7548	0.11496979
16	0xbe4406b5	-0.19143184
17	0xbed3604e	-0.41284412
18	0x3e3c486e	0.18387005
19	0xbd6aa619	-0.05728731
20	0xbd45abec	-0.04825966
21	0xbd8213e0	-0.06351447
22	0xbdcb103a	-0.09915204
23	0x3f6ef8eb	0.9334857
24	0x3deefea9	0.11669666
25	0x3e05097d	0.129919
26	0xbc7e126a	-0.01550732
27	0xbf5b1797	-0.8558287
28	0xbcf9d3d1	-0.03049651
29	0xbdf4e68d	-0.119580366
30	0xbf386a19	-0.7203689
31	0xbec27c56	-0.37985486
32	0x3dd4bfe6	0.10388164
33	0x3db3c326	0.08777456
34	0xbf1f1de1	-0.62154967
35	0xbc40d115	-0.011768599
36	0xbeb127fd	-0.3460082
37	0xbece44d9	-0.40286902
38	0x3db9cbfe	0.090721115
39	0xbdeac33f	-0.114630215
40	0xbf0c43be	-0.54790866
41	0xbe6dd149	-0.23224367
42	0x3df5b9bb	0.11998316
43	0xbec08dd7	-0.37608215
44	0xbeea1307	-0.45717642
45	0x3d235086	0.039871715
46	0xbd72d8e4	-0.059288874
47	0xbe8dfcc2	-0.277319
48	0xbec5a3ab	-0.3860143
49	0xbf7c91fd	-0.9866026
50	0xbdc68429	-0.09693176
51	0xbe9ea3f8	-0.30984473
52	0xbec47a4c	-0.38374555
53	0xbe817dfc	-0.2529143
54	0x3e3f0f4b	0.18658178
55	0x3e96db90	0.29464388
56	0xbd9609f9	-0.07326121
57	0x3ec5ebf5	0.38656583
58	0xbf0c2fe6	-0.5476059
59	0xbc56cd3a	-0.013110453
60	0x3d32be0b	0.04363827
61	0x3cc48f99	0.023994254
62	0x3f157e84	0.5839617
63	0xbd8d2534	-0.068918616
64	0xbf3a1a67	-0.72696537
65	0xbe98b0f4	-0.29822505
66	0xbb8ccf81	-0.0042971973
67	0xbe062503	-0.13100056
68	0x3d82e5e0	0.063915014
69	0x3fa5b848	1.2946863
70	0x3dd16518	0.1022436
71	0xbea8fb72	-0.33004338
72	0xbd74d258	-0.059770912
73	0xbdb69eec	-0.08917031
74	0xbd82122c	-0.06351122
75	0xbd45bad8	-0.04827389
76	0xbe68676f	-0.22695707
77	0xbeb4d680	-0.353199
78	0xbe0a46a9	-0.13503517
79	0xbe888750	-0.26665735
80	0xbe6e4815	-0.23269685
81	0xbea6cd03	-0.32578287
82	0x3d72a155	0.05923589
83	0x3e1d27f9	0.1534728
84	0x3cba9e69	0.022780614
85	0xbdc1bc5d	-0.094597556
86	0x3cf7b54b	0.030237814
87	0xbf80f73d	-1.0075451
88	0xbe5c25cd	-0.21498795
89	0xbdf38c96	-0.11892049
90	0xbe403837	-0.18771444
91	0xbf2aa0dc	-0.666517
92	0xbc1c5766	-0.009542322
93	0xbf2eb00d	-0.6823738
94	0xbe8c8e26	-0.274522
95	0x3e588266	0.21143493
96	0xbeb6b8f3	-0.3568798
97	0x3edb9708	0.42888665
98	0xbe9e9829	-0.30975464
99	0xbe64a4e4	-0.22328526
100	0xbf2fadac	-0.6862438
101	0x3cdbd3f4	0.026834466
102	0xbec06389	-0.3757594
103	0x3ec233eb	0.37930235
104	0x3f7def74	0.991935
105	0xbe91c9b0	-0.28474188
106	0xbe1069cc	-0.14102858
107	0x3c773eb9	0.015090638
108	0x3c582a60	0.013193697
109	0x3dbd2fbe	0.09237622
110	0xbe3919be	-0.18076226
111	0xbe83d7b9	-0.2575052

linear1.bias f4 [16]
0	0xbd827e4e	-0.06371747
1	0xbe268c25	-0.16264398
2	0xbed8bfd0	-0.4233384
3	0xbdd45e2c	-0.10369524
4	0xbe27c86d	-0.1638505
5	0xbefb25c8	-0.49052262
6	0x3cca3a35	0.024685958
7	0x3e48fbdd	0.19627328
8	0x3f293fdd	0.6611307
9	0xbeee8c26	-0.465913
10	0xbe8bba99	-0.272908
11	0xbed9dee6	-0.4255287
12	0x3d96c749	0.073622294
13	0x3e3d3b61	0.18479683
14	0xbd547d3f	-0.051877256
15	0xbee3a7d9	-0.44463995

linear2.weight f4 [2, 16]
0	0xbde4b119	-0.11166591
1	0x3cbf4261	0.023347082
2	0xbe4d635b	-0.20057432
3	0xbea60cea	-0.32431728
4	0xbe6a7bbf	-0.22898768
5	0xbcff3eb3	-0.031157827
6	0x3cd32c25	0.025777886
7	0x3f03a6b7	0.5142626
8	0x3eb0919c	0.3448609
9	0xbea2a485	-0.31766143
10	0xbe3f4780	-0.18679619
11	0xbc2f4be4	-0.010699246
12	0x3bf88b04	0.0075849313
13	0x3f1b12c3	0.60575503
14	0xbe520af6	-0.20511994
15	0x3ce6754e	0.028132107
16	0xbdaf34b3	-0.085549735
17	0xbd034455	-0.03204759
18	0x3d18ac5c	0.03727375
19	0xbea4f9c8	-0.32221818
20	0xbe4bbb3f	-0.19895647
21	0x3d66fc49	0.05639294
22	0x3d44fa3a	0.048090197
23	0x3f3e63f9	0.74371296
24	0x3eb230be	0.34802812
25	0xbe8b1ea5	-0.27171817
26	0xbdc64604	-0.09681323
27	0x3e7715c4	0.24129397
28	0xbc8d1ca6	-0.017225575
29	0x3f19bcb5	0.6005357
30	0xbe6cc048	-0.23120224
31	0xbc88b5c1	-0.01668823

linear2.bias f4 [2]
0	0x3fcf9123	1.6216167
1	0x3f416e62	0.75559056
