model/1000+fornothing.pth (torch, 13120 bytes, 4 tensors)

linear1.weight f4 [256, 8]
0.24016169 -0.14532042 -0.30629683 0.27610126 -0.120193616 0.0021590039 -0.21507265 -0.20051077
-0.03580978 0.09942029 -0.00021388833 0.014911967 -0.14031059 -0.04014121 0.3149028 0.4215641
0.13810237 0.2773323 0.3066259 0.23774888 0.0023752484 0.23798662 -0.29017478 0.4174893
0.19117427 -0.05991542 0.050046746 0.0081383595 0.16747822 0.20729306 0.008008514 0.23250386
0.14283009 0.20048201 -0.21495618 -0.10356521 -0.079843774 -0.06768029 0.021622969 -0.30937058
-0.23583947 -0.050443944 0.13256827 -0.33376527 -0.24348232 0.30846035 -0.3741979 0.30317482
-0.021424968 -0.026123008 0.24198747 0.17618324 -0.22790946 -0.044952735 0.22749166 -0.2056639
-0.21484996 0.01390931 -0.28181958 -0.26746368 -0.26642996 -0.24179095 -0.10118505 -0.28415614
0.24653833 0.14080593 0.2558407 -0.3056874 0.16278149 0.1603332 -0.26595575 -0.35327148
-0.22304937 -0.049653947 -0.00976187 0.3400235 -0.2787246 -0.14511818 -0.06451449 -0.29844365
-0.291235 -0.025740117 0.28604358 0.26718697 -0.2532094 -0.00083840336 0.21248549 -0.23920147
-0.02977035 0.18433732 -0.3322589 -0.07171804 0.30166438 -0.0632875 -0.33204854 -0.34986004
-0.06813414 -0.15543208 0.21371464 -0.28466725 0.018763551 0.261983 0.26702932 0.047195043
0.28352565 -0.29607642 0.21468504 -0.30130363 -0.15467505 0.20381154 -0.1271813 -0.16545299
-0.24681254 0.29947528 0.24915329 -0.041728172 -0.30217308 0.042261828 -0.014005569 -0.0031301908
-0.022240425 -0.03015357 -0.36763301 -0.11040242 -0.2239867 0.025519956 0.22530027 0.02649447
-0.16981798 -0.29338187 0.063987315 -0.346578 0.14015475 0.027243834 0.014308858 -0.04631057
-0.2655566 -0.061761577 0.044552088 -0.42358604 0.16739953 -0.18468882 -0.06791066 -0.32196626
-0.21362115 -0.23232591 -0.030452564 0.16750051 0.19096257 -0.16993158 -0.06304601 0.16201758
0.20639923 0.17666386 -0.15005428 0.005545915 0.06645275 0.08094779 -0.045584746 -0.17588046
0.043458592 -0.15973519 0.054397155 0.17235778 0.08806905 0.25777492 -0.14892326 0.29243156
0.1125425 -0.068965815 0.06701351 -0.20431553 0.10782401 -0.24251392 -0.09562002 0.24293514
0.28610584 -0.07437434 -0.007919357 0.28835198 -0.19388224 -0.11089946 -0.2565726 0.0086503
0.3479728 0.2911625 -0.2308486 0.25694498 -0.1287992 -0.03512437 -0.17730193 -0.5445486
-0.1941568 -0.2081643 0.16879787 0.05607502 0.17598212 -0.38674664 0.18950346 -0.10218826
-0.058640383 -0.19969699 -0.025362987 0.22210048 0.2043088 -0.122645855 0.13314223 0.17396471
0.35652992 -0.114737816 -0.1116076 -0.16571319 -0.2976667 -0.111037076 0.1762937 -0.2539683
0.21296735 0.020436807 -0.19291775 0.26829034 0.124583416 -0.37644225 -0.16454363 0.4175501
0.13977803 0.17140438 0.006573662 -0.13308161 -0.14715697 0.0688128 0.0045550237 -0.25595176
0.29848093 0.20882995 0.05287099 -0.06640906 -0.22957146 -0.10767286 0.06325133 0.1376998
-0.48768246 0.09652687 -0.19174072 -0.17309728 0.28881204 -0.13664065 0.016481848 -0.13593562
0.029419163 -0.18848199 -0.24767894 0.1392746 0.23135537 -0.028647665 -0.26057354 -0.032171957
00000000: f2ec 753e e0ce 14be f0d2 9cbe 255d 8d3e
00000010: 1228 f6bd 137e 0d3b 013c 5cbe b252 4dbe
00000020: 47ad 12bd dd9c cb3d 3647 60b9 5351 743c
00000030: 94ad 0fbe 1c6b 24bd f13a a13e 40d7 d73e
00000040: b56a 0d3e 80fe 8d3e 12fe 9c3e 7174 733e
00000050: 0eaa 1b3b c4b2 733e ca91 94be 28c1 d53e
00000060: 30c3 433e df69 75bd d1fd 4c3d c156 053c
00000070: 697f 2b3e a244 543e 2436 033c 7e15 6e3e
00000080: 0d42 123e 284b 4d3e 791d 5cbe ff19 d4bd
00000090: 2285 a3bd f79b 8abd a722 b13c d265 9ebe
000000a0: e77f 71be 4f9e 4ebd fabf 073e 48e3 aabe
000000b0: 6e53 79be 84ee 9d3e de96 bfbe bb39 9b3e
000000c0: 6a83 afbc ebff d5bc 90cb 773e 6169 343e
000000d0: 1961 69be 5c20 38bd 93f3 683e 8f99 52be
000000e0: a101 5cbe e0e3 633c a84a 90be 00f1 88be
000000f0: 8269 88be 0c98 77be 1c3a cfbd ea7c 91be
00000100: 8b74 7c3e 6e2f 103e 8dfd 823e 0f83 9cbe
00000110: 31b0 263e 632e 243e 5a2b 88be 00e0 b4be
00000120: 0e67 64be f061 4bbd 40f0 1fbc 8f17 ae3e
00000130: feb4 8ebe dc99 14be 2c20 84bd 9bcd 98be
00000140: c11c 95be f0dc d2bc 4e74 923e bbcc 883e
00000150: aaa4 81be 4cc8 5bba cc95 593e 3bf1 74be
00000160: f3e0 f3bc ecc2 3c3e d71d aabe e8e0 92bd
00000170: c173 9a3e e09c 81bd 4402 aabe db20 b3be
00000180: e989 8bbd 9629 1fbe 03d8 5a3e e8bf 91be
00000190: 05b6 993c a322 863e 11b8 883e 974f 413d
000001a0: 462a 913e 5497 97be 65d6 5b3e 7844 9abe
000001b0: 2363 1ebe f9b3 503e d13b 02be 826c 29be
000001c0: 6dbc 7cbe d354 993e 0a22 7f3e 29eb 2abd
000001d0: 6eb6 9abe bd1a 2d3d 9d77 65bc e323 4dbb
000001e0: 8d31 b6bc 9f04 f7bc 653a bcbe aa1a e2bd
000001f0: c55c 65be 3a0f d13c 1db5 663e ee0a d93c
00000200: c4e4 2dbe 2636 96be c80b 833d ac72 b1be
00000210: ba84 0f3e 762e df3c b36f 6a3c 27b0 3dbd
00000220: 09f7 87be b5f9 7cbd 407c 363d 45e0 d8be
00000230: c86a 2b3e 111f 3dbe be14 8bbd c3d8 a4be
00000240: 81bf 5abe d8e6 6dbe a877 f9bc 4185 2b3e
00000250: b18b 433e 8b02 2ebe 441e 81bd f0e7 253e
00000260: 525a 533e 5fe7 343e d4a7 19be 82ba b53b
00000270: 6118 883d f4c7 a53d 12b7 3abd 021a 34be
00000280: a301 323d 9f91 23be 8dcf 5e3d 8f7e 303e
00000290: 8c5d b43d 13fb 833e 577f 18be 97b9 953e
000002a0: af7c e63d f33d 8dbd 613e 893d 1738 51be
000002b0: d6d2 dc3d 9255 78be 6ed4 c3bd fdc3 783e
000002c0: 777c 923e 9351 98bd 31c0 01bc dfa2 933e
000002d0: 1189 46be 421f e3bd 7c5d 83be fdb9 0d3c
000002e0: 7e29 b23e 4013 953e 9363 6cbe 4b8e 833e
000002f0: f0e3 03be 92de 0fbd a38e 35be 8967 0bbf
00000300: 0ad1 46be 0629 55be 59d9 2c3e ecae 653d
00000310: a834 343e a803 c6be 320d 423e 1448 d1bd
00000320: e630 70bd 5e7d 4cbe 0ac6 cfbc 4f6e 633e
00000330: 5336 513e c02d fbbd 7056 083e ce23 323e
00000340: 178b b63e a9fb eabd 8692 e4bd b8b0 29be
00000350: c567 98be 6867 e3bd 5686 343e 2208 82be
00000360: 1d14 5a3e 176b a73c 3b8c 45be 5a5d 893e
00000370: 9725 ff3d 0abd c0be 207e 28be 20c9 d53e
00000380: f921 0f3e a184 2f3e e067 d73b 8c46 08be
00000390: 51b0 16be baed 8c3d 4f42 953b 1c0c 83be
000003a0: 7ed2 983e 85d7 553e 408f 583d 7901 88bd
000003b0: c814 6bbe 9783 dcbd ea89 813d 2d01 0d3e
000003c0: 84b1 f9be e1af c53d ae57 44be 6a40 31be
000003d0: 2cdf 933e 87eb 0bbe f104 873c b532 0bbe
000003e0: 7500 f13c 6c01 41be 8c9f 7dbe 009e 0e3e
000003f0: 6ce8 6c3e 82ae eabc e569 85be bec6 03bd

linear1.bias f4 [256]
-0.08752402 -0.38366705 -0.2829204 0.094890125 -0.29129767 0.33346018 -0.08883398 -0.024387628
-0.26046178 -0.1460806 0.16706677 -0.046924353 0.2891897 -0.4111083 -0.18839248 -0.3279688
0.048295654 -0.3888593 -0.30278176 0.24153729 -0.2839813 0.33476165 -0.16185291 0.03650668
-0.08646382 -0.12616678 0.11117546 0.012119319 -0.07323381 -0.15377125 -0.04648593 0.41817123
0.23778616 0.17493704 0.06708273 -0.1198654 -0.21787313 -0.28277352 0.12620266 0.27985126
0.28049076 0.18290904 -0.19564714 0.11613455 -0.15217035 0.2739791 0.1482353 0.2719796
0.20766541 0.19679262 0.20248605 -0.27725077 0.28101388 0.08177168 0.19876212 -0.18379974
0.2488007 -0.15494266 0.057284713 0.059614222 -0.11729486 0.23562928 0.19631372 0.2957999
-0.27076656 -0.07887661 0.010984215 -0.16544127 -0.2279988 0.132699 0.019783735 -0.26349077
-0.41075101 0.36060467 0.086762615 -0.029441522 0.19504398 0.33211353 0.23739228 -0.22111034
-0.10567383 0.32296053 0.09997634 -0.17267394 0.06358469 -0.15862694 -0.29106325 -0.3552137
-0.22110009 -0.15409242 -0.35009417 0.22090557 0.0065941643 -0.17850944 -0.42858577 -0.110809445
-0.4117159 0.28648832 -0.19055745 -0.1115786 0.19157235 0.13141353 -0.074333504 0.17578492
-0.115751766 -0.13650903 -0.36793116 0.20447421 0.15226698 0.0944104 0.32705835 0.10122606
-0.27266115 -0.41962638 0.14674076 -0.26690483 0.106286176 -0.2577987 0.11351244 0.13566844
-0.24306993 0.2096871 -0.29806632 0.3002746 -0.20762824 0.337541 -0.44176865 0.29966614
0.017815173 0.01271289 0.24129121 0.06823363 0.060954057 -0.12286012 0.2893445 -0.039874777
-0.14809446 -0.2534223 0.29903626 0.23295341 0.21644445 -0.1877043 0.3410814 0.229661
-0.025192523 0.2744894 -0.015127492 -0.44302493 -0.23715247 0.039518774 -0.24880412 -0.02170924
0.1580337 -0.3285704 -0.1594484 0.25015652 0.009212792 -0.24750863 0.1003823 0.13353981
-0.0080522895 0.2349937 -0.322699 0.051493254 -0.08475651 0.054802254 0.2068712 -0.32195404
0.17448425 -0.28104958 -0.1337886 0.21288863 0.031130748 0.17610762 -0.3353377 0.056179162
-0.29795697 -0.0003509636 -0.2597825 0.03520025 -0.11141552 -0.33369976 -0.30000785 -0.21797276
0.19352432 0.30321798 0.076391 -0.31781974 -0.14138769 0.17515105 -0.51154596 0.24743026
0.18697372 0.07365162 -0.13059166 -0.20437434 0.091703765 -0.29255897 0.01810661 -0.07491037
-0.06422341 0.3098553 0.000793891 0.18697248 0.3669515 -0.41387182 0.11293279 0.14304726
0.19756474 -0.13349004 -0.2443933 -0.37986645 -0.21454011 0.17357162 -0.28360972 -0.0143785775
-0.12847826 -0.075611405 0.24172531 0.16754602 0.26085675 -0.11749115 0.23597108 0.22306783
0.18733622 0.28332534 0.27224725 -0.0798085 0.13139728 0.07571047 -0.16548976 0.28968427
0.08014412 0.06728122 -0.10664628 0.049061514 0.2211872 -0.1616228 -0.059267614 -0.40177405
0.19833964 0.019929018 -0.30821922 0.1531726 -0.29708055 -0.28242552 0.29419777 -0.00014221128
0.06085819 -0.11316976 -0.32052872 -0.1171145 -0.18617824 -0.45063663 0.13399479 0.19838604
00000000: cb3f b3bd 0270 c4be f1da 90be c155 c23d
00000010: f824 95be 4bbb aa3e 97ee b5bd 90c8 c7bc
00000020: 3f5b 85be 2796 15be 8d13 2b3e c033 40bd
00000030: ac10 943e c97c d2be f5e9 40be 87eb a7be
00000040: aad1 453d 9118 c7be 3606 9bbe 8d55 773e
00000050: ff65 91be e165 ab3e c5bc 25be 0788 153d
00000060: f113 b1bd dd31 01be f6af e33d 1c90 463c
00000070: 9cfb 95bd 3676 1dbe 0868 3ebd 8a1a d63e
00000080: 377e 733e b222 333e ac62 893d fe7b f5bd
00000090: 221a 5fbe b1c7 90be 453b 013e aa48 8f3e
000000a0: 7c9c 8f3e 824c 3b3e b957 48be f3d7 ed3d
000000b0: 8bd2 1bbe fd46 8c3e ffca 173e e940 8b3e
000000c0: 3ea6 543e 0184 493e 8158 4f3e d0f3 8dbe
000000d0: 0de1 8f3e e977 a73d 4c88 4b3e 0036 3cbe
000000e0: 9cc5 7e3e 4aa9 1ebe 60a3 6a3d 0b2e 743d
000000f0: 4a38 f0bd cd48 713e 7706 493e 1673 973e
00000100: eaa1 8abe 0f8a a1bd 23f7 333c 7069 29be
00000110: 8478 69be 3fe2 073e 8011 a23c 43e8 86be
00000120: f54d d2be 2da1 b83e 99b0 b13d 592f f1bc
00000130: 9cb9 473e c90a aa3e f616 733e c06a 62be
00000140: 856b d8bd 155b a53e 65c0 cc3d 70d1 30be
00000150: b138 823d 1a6f 22be 3e06 95be 92de b5be
00000160: 1068 62be 67ca 1dbe 8b3f b3be 1235 623e
00000170: dc13 d83b 2ecb 36be 986f dbbe 10f0 e2bd
00000180: 6dcc d2be 99ae 923e 7e21 43be 5283 e4bd
00000190: 8b2b 443e 4591 063e 2a3c 98bd f600 343e
000001a0: 430f edbd 06c9 0bbe 7961 bcbe b061 513e
000001b0: e0eb 1b3e 3d5a c13d 3174 a73e 9c4f cf3d
000001c0: 3e9a 8bbe 45d9 d6be 3643 163e c0a7 88be
000001d0: 91ac d93d 31fe 83be 3679 e83d abec 0a3e
000001e0: 53e7 78be 37b8 563e 269c 98be 98bd 993e
000001f0: 7f9c 54be 2dd2 ac3e 802f e2be d76d 993e
00000200: 20f1 913c ba49 503c 0b15 773e 13be 8b3d
00000210: f6aa 793d 169e fbbd f624 943e bc53 23bd
00000220: 13a6 17be 91c0 81be 481b 993e 578b 6e3e
00000230: 9da3 5d3e 8e35 40be 39a2 ae3e 412c 6b3e
00000240: 8d60 cebc e089 8c3e 4dd9 77bc 2ad4 e2be
00000250: 19d8 72be 70de 213d 82c6 7ebe 93d7 b1bc
00000260: 96d3 213e 613a a8be 7146 23be 8414 803e
00000270: 40f1 163c e772 7dbe 3c95 cd3d a9be 083e
00000280: c0ed 03bc 30a2 703e ce38 a5be 97ea 523d
00000290: d294 adbd 5478 603d 0bd6 533e 29d7 a4be
000002a0: 00ac 323e bbe5 8fbe e1ff 08be 7aff 593e
000002b0: e905 ff3c 8e55 343e 62b1 abbe 1f1c 663d
000002c0: d18d 98be 8901 b8b9 3602 85be 232e 103d
000002d0: d22d e4bd b2da aabe a19a 99be 4034 5fbe
000002e0: 3d2b 463e 633f 9b3e e272 9c3d 45b9 a2be
000002f0: efc7 10be cc5a 333e adf4 02bf 5c5e 7d3e
00000300: 0a76 3f3e a9d6 963d d2b9 05be 8247 51be
00000310: 2fcf bb3d 4aca 95be 5054 943c 9c6a 99bd
00000320: 9087 83bd 5ba5 9e3e 201d 503a b775 3f3e
00000330: 11e1 bb3e 02e7 d3be 4e49 e73d fb7a 123e
00000340: 694e 4a3e 9db1 08be 3d42 7abe db7d c2be
00000350: 67b0 5bbe c2bc 313e 4b35 91be 2094 6bbc
00000360: ce8f 03be 27da 9abd d786 773e 2f91 2b3e
00000370: 048f 853e 339f f0bd 67a2 713e e56b 643e
00000380: 11d5 3f3e 0510 913e fe63 8b3e a472 a3bd
00000390: 028d 063e 170e 9b3d 2676 29be 7f51 943e
000003a0: 9a22 a43d bcca 893d 5d69 dabd baf4 483d
000003b0: e67e 623e 7380 25be 99c2 72bd 54b5 cdbe
000003c0: 8c19 4b3e 2e42 a33c e9ce 9dbe 47d9 1c3e
000003d0: f11a 98be 149a 90be 17a1 963e 8d1e 15b9
000003e0: 7046 793d 8cc5 e7bd 571c a4be bad9 efbd
000003f0: 82a5 3ebe d8b9 e6be ee35 093e b625 4b3e

linear2.weight f4 [2, 256]
-0.050949015 -0.04608214 0.038426697 -0.0043928223 -0.054045536 0.106292516 0.038355805 -0.056391567
-0.0047478615 -0.022869289 -0.01213825 -0.07803675 0.028626766 0.040178973 0.016474085 0.39823717
0.010945416 -0.0013473415 -0.024680376 -0.04206001 -0.028733457 -0.04789775 -0.016621452 -0.16701667
0.02602794 -0.030834595 0.043110564 0.012607642 -0.0021995166 0.0020610057 0.16613181 0.09947567
0.022980116 -0.0527479 -0.025783472 -0.03689695 -0.064739466 0.05565705 0.05423386 0.024955003
-0.028076159 0.040765576 -0.016202567 -0.036921818 0.05869036 -0.0099343285 0.0908645 0.038251147
0.03543167 -0.072716564 -0.12444233 -0.0043286085 0.14118491 0.07286568 0.010369024 0.032532655
-0.004442692 0.05278824 0.0320617 0.07413895 -0.07996793 0.0020328485 0.024082324 0.10924147
-0.054956876 0.0665674 0.01859361 0.0069512445 -0.019392954 -0.019536505 0.050767973 -0.17056519
0.49743086 0.41746864 0.003228926 0.021333288 0.118301675 0.039862335 0.02709286 -0.07992558
0.0012282922 -0.02116467 0.030806767 0.024265902 0.027126241 0.11429172 -0.0070298226 0.037209798
-0.054009527 -0.02731989 -0.0019864363 -0.023073506 -0.041088596 -0.007737972 -0.015185202 0.077646434
-0.0022514237 -0.06803824 0.010555744 -0.005397516 0.005861353 -0.034505744 0.16395694 0.021679223
-0.030663894 0.3951294 -0.019918451 0.036021926 0.30591753 0.32337677 -0.032904506 0.025964921
0.055954568 0.020057071 0.010104971 0.005582021 0.32474524 0.0016028826 -0.0019898165 -0.030422097
-0.02460063 -0.002618984 -0.034199085 0.20869386 -0.04994333 -0.020692302 0.007373288 -0.032790087
0.044142425 -0.002937001 0.0745273 0.024185205 -0.06073486 0.09855909 -0.004287039 0.2343526
-0.12548845 0.01899788 -0.12504172 0.07275199 0.015344015 0.17904466 0.03522384 -0.2019457
0.04083045 0.14504412 -0.017327543 -0.14657128 0.0031228065 -0.057843283 0.014028488 -0.17250666
-0.018472694 -0.037779916 -0.062358737 -0.055108175 -0.03412039 -0.018712066 -0.0070757717 0.0023581397
-0.05764395 0.039255913 -0.011344981 0.32559115 0.15882371 0.20730601 -0.09492532 0.004212898
0.1363687 -0.0413523 -0.22759749 -0.01009009 0.038260803 -0.086821854 0.010301706 -0.03988897
-0.0034506395 0.041495148 -0.020637646 -0.025786208 0.00086142967 -0.027325768 0.025936216 0.02809489
-0.018629497 0.43689653 0.049389616 -0.045498677 -0.00054111675 0.028648049 -0.0026822947 -0.024565678
0.055105202 0.06693116 -0.11533359 0.00041192022 -0.049775604 -0.033089265 -0.06243863 0.048950702
0.0029381595 0.20398599 0.14577214 0.015782446 0.1644029 -0.04400616 0.027414149 -0.04075457
0.08827143 -0.0004178662 0.011698723 0.021764003 0.17740922 0.026568942 -0.06215898 0.042769022
0.019900545 0.06211004 0.031716637 0.48469493 -0.024197763 -0.01795308 0.08560041 -0.0065613976
0.02579249 -0.0096724555 -0.0334494 0.070247084 -0.039358933 -0.008783024 -0.10258656 -0.03697238
0.18883596 0.033059396 -0.009610155 -0.087276496 -0.032759927 -0.00036033275 0.049555562 0.05636239
0.110307075 0.08090653 0.03903088 0.15354685 -0.25970957 -0.06504097 0.02082541 -0.02315748
-0.021621987 -0.009197933 0.13433851 0.052468937 0.010798626 0.035396803 0.004125529 0.0034504407
00000000: eaaf 50bd a0c0 3cbd 5065 1d3d aaf1 8fbb
00000010: da5e 5dbd e4af d93d fa1a 1d3d d8fa 66bd
00000020: f393 9bbb 6058 bbbc 83df 46bc bbd1 9fbd
00000030: ae82 ea3c b592 243d a9f4 863c bee5 cb3e
00000040: 6754 333c 4799 b0ba 802e cabc 1e47 2cbd
00000050: 6d62 ebbc 6e30 44bd b629 88bc 6b06 2bbe
00000060: 8c38 d53c d598 fcbc b494 303d 4990 4e3c
00000070: c425 10bb f011 073b 751e 2a3e e6b9 cb3d
00000080: cc40 bc3c 2f0e 58bd dc37 d3bc 4221 17bd
00000090: 2096 84bd a6f8 633d 5324 5e3d 6f6e cc3c
000000a0: f9ff e5bc cef9 263d 3fbb 84bc 553b 17bd
000000b0: 4e65 703d 98c3 22bc 2b17 ba3d 3cad 1c3d
000000c0: cc20 113d 6cec 94bd 9fdb febd 00d7 8dbb
000000d0: c792 103e 9a3a 953d d7e2 293c f640 053d
000000e0: 0094 91bb 7b38 583d 2153 033d 29d6 973d
000000f0: 3ac6 a3bd 8a39 053b 4b48 c53c feb9 df3d
00000100: 761a 61bd 7d54 883d a051 983c 44c7 e33b
00000110: f9dd 9ebc 050b a0bc 14f2 4f3d a4a8 2ebe
00000120: 42af fe3e 73be d53e 649c 533b 26c3 ae3c
00000130: 2648 f23d b046 233d d8f1 dd3c 06b0 a3bd
00000140: a6fe a03a 8861 adbc 795e fc3c 49c9 c63c
00000150: da37 de3c c711 ea3d 6d5a e6bb 4d69 183d
00000160: 1839 5dbd f6cd dfbc df2e 02bb a604 bdbc
00000170: 844c 28bd d08e fdbb 5acb 78bc 1805 9f3d
00000180: 9f8c 13bb a257 8bbd 00f2 2c3c a5dd b0bb
00000190: 9810 c03b e555 0dbd 54e4 273e a098 b13c
000001a0: d932 fbbc 674e ca3e 052c a3bc ba8b 133d
000001b0: 39a1 9c3e a491 a53e e0c6 06bd 63b4 d43c
000001c0: 9e30 653d ba4e a43c 528f 253c 63e9 b63b
000001d0: 0245 a63e d117 d23a 9567 02bb c337 f9bc
000001e0: 4387 c9bc 43a3 2bbb 5714 0cbd d8b3 553e
000001f0: 6191 4cbd e782 a9bc 9f9b f13b e64e 06bd
00000200: b0ce 343d b37a 40bb c5a1 983d 0d20 c63c
00000210: 1ec5 78bd 59d9 c93d 4a7a 8cbb 21fa 6f3e
00000220: 0b80 00be 71a1 9b3c f00a 00be fffe 943d
00000230: 7765 7b3c 7c57 373e e046 103d dbca 4ebe
00000240: d43d 273d 7286 143e 7ef2 8dbc c816 16be
00000250: 00a8 4c3b 14ed 6cbd bed7 653c 96a5 30be
00000260: 0c54 97bc 1dbf 1abd e06b 7fbd 1cb9 61bd
00000270: d2c1 0bbd 0c4a 99bc e0db e7bb 058b 1a3b
00000280: 101c 6cbd cfca 203d 4de0 39bc e2b3 a63e
00000290: afa2 223e 0748 543e 3568 c2bd 5a0c 8a3b
000002a0: 3da4 0b3e 0861 29bd 510f 69be e850 25bc
000002b0: 5cb7 1c3d a8cf b1bd 7dc8 283c 9e62 23bd
000002c0: 2024 62bb d1f6 293d 4810 a9bc 993d d3bc
000002d0: 91d1 613a 4ada dfbc 3078 d43c 4127 e63c
000002e0: e39c 98bc e7b0 df3e c44c 4a3d d25c 3abd
000002f0: bbd9 0dba 50af ea3c 70c9 2fbb f63d c9bc
00000300: feb5 613d 3413 893d 0434 ecbd fff6 d739
00000310: 81e1 4bbd 9c88 07bd a6bf 7fbd 8880 483d
00000320: 238e 403b b4e1 503e 4b45 153e 304a 813c
00000330: 3c59 283e ce3f 34bd a393 e03c 44ee 26bd
00000340: a7c7 b43d 0d15 dbb9 00ac 3f3c 6c4a b23c
00000350: c3aa 353e 1ca7 d93c 6a9a 7ebd 922e 2f3d
00000360: 7806 a33c 1967 7e3d 4ee9 013d ef29 f83e
00000370: 633a c6bc 5612 93bc 454f af3d fe00 d7bb
00000380: c64a d33c 3879 1ebc 3d02 09bd b4dd 8f3d
00000390: d536 21bd ace6 0fbc e718 d2bd 5a70 17bd
000003a0: 375e 413e 4a69 073d e973 1dbc 05be b2bd
000003b0: 462f 06bd 0beb bcb9 c6fa 4a3d 40dc 663d
000003c0: ade8 e13d 53b2 a53d d8de 1f3d 633b 1d3e
000003d0: a7f8 84be 3334 85bd 0d9a aa3c c1b4 bdbc
000003e0: 9820 b1bc edb2 16bc 0990 093e abe9 563d
000003f0: b8ec 303c 3dfc 103d 722f 873b ca20 623b

linear2.bias f4 [2]
0.027122572 -0.042741172
00000000: 2830 de3c 5e11 2fbd
