model/good.pth (torch, 2496 bytes, 4 tensors)

linear1.weight f4 [16, 7]
000000 b5 1a d8 be 21 06 b6 3d 3e 5b 63 3d f9 41 9f be
       -0.42207876 0.08887888 0.055506937 -0.3110502
000010 5a f3 12 be 07 0b 2f 3e 8a 62 82 bb 46 dc a5 be
       -0.14350644 0.1709405 -0.003979032 -0.32394618
000020 ba b3 d1 be 56 98 97 3e 59 58 1d 3e d8 b7 81 be
       -0.40957433 0.2960841 0.15365733 -0.25335574
000030 12 d0 b6 be 65 56 4d 3d 68 16 a1 be 48 75 eb 3d
       -0.3570562 0.05013122 -0.31462407 0.11496979
000040 b5 06 44 be 4e 60 d3 be 6e 48 3c 3e 19 a6 6a bd
       -0.19143184 -0.41284412 0.18387005 -0.05728731
000050 ec ab 45 bd 73 ac 75 3d 7a fa 2d be 9e ad 5a 3f
       -0.04825966 0.059978914 -0.1699008 0.8542117
000060 15 2b fe 3d e6 f1 aa 3d d1 fb d0 bb a9 6c 46 bf
       0.12410561 0.0834692 -0.006377675 -0.7750955
000070 45 43 24 3d e6 c9 54 bd bc 82 2d bf 5f 3b 9f be
       0.040103216 -0.051950358 -0.6777761 -0.31099984
000080 bb cf 32 3e ff 83 26 3e e0 08 23 bf da aa 1e 3c
       0.17462055 0.1626129 -0.6368542 0.009684289
000090 6b c9 a5 be f7 d5 c2 be b8 56 e6 3d 4f 2f bd bd
       -0.32380232 -0.38053867 0.11247009 -0.09237539
0000a0 26 5e 0f bf 82 4d 5d be bb b9 f5 3d d7 8d c0 be
       -0.56003034 -0.21611598 0.11998316 -0.37608215
0000b0 07 13 ea be 86 50 23 3d e4 d8 72 bd c2 fc 8d be
       -0.45717642 0.039871715 -0.059288874 -0.277319
0000c0 ab a3 c5 be 23 23 99 be c4 f1 75 bd 99 e7 80 be
       -0.3860143 -0.2990962 -0.06004502 -0.25176695
0000d0 cf dc 07 be 9d 48 8c be 40 be d7 3d 85 5e 7d 3e
       -0.13267826 -0.2739915 0.10534334 0.24743088
0000e0 62 bc 15 3d d7 40 19 3e 69 69 12 bf 94 ed e2 3d
       0.03655661 0.1496614 -0.57192093 0.11080471
0000f0 64 61 b0 bd 5d 63 84 3e f5 a1 5c 3f 82 5b 1b bc
       -0.08612326 0.25857058 0.86184627 -0.009482266
000100 89 a4 1a bf cb 30 3d be 64 39 20 bd 37 24 69 bd
       -0.6040731 -0.18475644 -0.039117232 -0.056919303
000110 24 df cd 3a e8 1e 90 3f 18 65 d1 3d 72 fb a8 be
       0.001570676 1.1259432 0.1022436 -0.33004338
000120 58 d2 74 bd ec 9e b6 bd 2c 12 82 bd d8 ba 45 bd
       -0.059770912 -0.08917031 -0.06351122 -0.04827389
000130 6f 67 68 be 80 d6 b4 be a9 46 0a be 50 87 88 be
       -0.22695707 -0.353199 -0.13503517 -0.26665735
000140 15 48 6e be 03 cd a6 be 55 a1 72 3d f9 27 1d 3e
       -0.23269685 -0.32578287 0.05923589 0.1534728
000150 52 ff 0c 3e 61 c6 91 bc 79 bb f5 bd dd 32 a0 bf
       0.13769272 -0.01779479 -0.11998648 -1.2515522
000160 46 e9 40 bd 92 4f 6d 3d bc e7 ec 3a 41 9e d7 be
       -0.047097467 0.057937212 0.0018074433 -0.42112926
000170 ba e7 92 3d 05 0b f9 be ad b3 b2 bd 6a 53 f3 3d
       0.071731046 -0.4864122 -0.08725677 0.11881144
000180 1c f4 12 bf 52 8f 9a 3e 6e 35 d0 bd 05 7e 34 be
       -0.5740373 0.3018747 -0.10166441 -0.17626198
000190 f9 c0 13 bf 5e c8 95 3d 65 98 af be af 01 c8 3e
       -0.5771633 0.07313608 -0.34295955 0.39063784
0001a0 52 f5 5d 3f b0 c9 91 be cc 69 10 be b9 3e 77 3c
       0.86702454 -0.28474188 -0.14102858 0.015090638
0001b0 60 2a 58 3c be 2f bd 3d be 19 39 be b9 d7 83 be
       0.013193697 0.09237622 -0.18076226 -0.2575052

linear1.bias f4 [16]
000000 4e 7e 82 bd 25 8c 26 be d0 bf d8 be 82 40 16 be
       -0.06371747 -0.16264398 -0.4233384 -0.14673045
000010 88 b6 c6 bd b2 c7 ef be 35 3a ca 3c d3 f3 6e 3e
       -0.09702784 -0.46832043 0.024685958 0.23335199
000020 01 84 69 3e 94 05 93 be 99 ba 8b be e6 de d9 be
       0.22804262 -0.28715193 -0.272908 -0.4255287
000030 b0 f0 5c 3e 06 1e 5c 3e 3c f7 fc ba d9 a7 e3 be
       0.2157619 0.21495828 -0.0019299756 -0.44463995

linear2.weight f4 [2, 16]
000000 19 b1 e4 bd 61 42 bf 3c 5b 63 4d be e0 63 32 be
       -0.11166591 0.023347082 -0.20057432 -0.17420912
000010 d5 dd 74 be 57 d5 ad 3c 25 2c d3 3c 76 61 32 3e
       -0.23912747 0.021219892 0.025777886 0.17419991
000020 cd 2e a0 3e e4 83 bc be 80 47 3f be e4 4b 2f bc
       0.31285706 -0.36819375 -0.18679619 -0.010699246
000030 94 5c 1d 3e 33 03 3d 3e a5 a4 96 be 4e 75 e6 3c
       0.15367347 0.18458252 -0.2942249 0.028132107
000040 b3 34 af bd 55 44 03 bd 5c ac 18 3d c7 ff 43 be
       -0.085549735 -0.03204759 0.03727375 -0.1914054
000050 b3 a2 80 be ed 90 68 3d 3a fa 44 3d 01 eb 21 3e
       -0.2512413 0.056778837 0.048090197 0.15812303
000060 7e 58 a1 3e a0 8f 9d be 04 46 c6 bd c4 15 77 3e
       0.31512827 -0.3077364 -0.09681323 0.24129397
000070 01 dd bc 3d 37 04 43 3e 49 c6 94 be c1 b5 88 bc
       0.09221841 0.19044577 -0.2905753 -0.01668823

linear2.bias f4 [2]
000000 d5 49 60 3f 88 f5 b9 3e
       0.8761266 0.36320138
