model/max_9.pth (torch, 3072 bytes, 4 tensors)

linear1.weight f4 [28, 7]
0	0xbe71353b	-0.23555462
1	0xbe2b1630	-0.16707683
2	0xbeaf238e	-0.34206814
3	0xbebdedd5	-0.37095514
4	0x3e069968	0.13144457
5	0xbe1372d0	-0.14399266
6	0x3e10b60c	0.14131945
7	0xbdd95ac2	-0.10613014
8	0xbe9367e8	-0.28790212
9	0x3eb2ab2a	0.34896213
10	0x3e06f17a	0.13178053
11	0xbec1704c	-0.37780988
12	0xbeec3215	-0.4613196
13	0xbe2af6a7	-0.16695653
14	0xbeb64618	-0.35600352
15	0xbe6a3089	-0.22870077
16	0x3dad4b20	0.084615946
17	0xbeb34d57	-0.35019943
18	0x3eb1df9d	0.34740916
19	0xbdbc92e0	-0.09207702
20	0xbe841c74	-0.25802958
21	0xbe5610f6	-0.20904908
22	0xbddb369b	-0.107037745
23	0x3f1c88a7	0.61146015
24	0x3e84a3ec	0.25906312
25	0xbe02c810	-0.1277163
26	0x3ea0e45f	0.31424233
27	0x3d052694	0.032507494
28	0x3bed0b40	0.007234007
29	0xbeb1b30b	-0.3470691
30	0x3dd7b0c4	0.10531762
31	0xbe81426b	-0.25245985
32	0xbe8382db	-0.25685772
33	0xbe6423c4	-0.22279269
34	0x3e17aafa	0.14811316
35	0x3b641019	0.0034799634
36	0xbe41a107	-0.18909083
37	0xbce23327	-0.027612282
38	0xbe570816	-0.20999178
39	0x3dae37ce	0.08506738
40	0xbe06086c	-0.1308915
41	0xbdc31654	-0.09525743
42	0xbe953293	-0.29140148
43	0xbe448f62	-0.19195321
44	0xbe8961ef	-0.2683253
45	0xbdc7aadc	-0.09749386
46	0xbf12faa6	-0.5741371
47	0xbe6c44df	-0.23073147
48	0x3df728d0	0.12068331
49	0xbe361a9c	-0.17783588
50	0xbcd289a0	-0.02570039
51	0x3e4ee432	0.20204237
52	0xbe6bc7f5	-0.23025496
53	0xbe3c0ab9	-0.18363465
54	0x3e82a42b	0.25515875
55	0xbcf034d0	-0.029322058
56	0x3de47ce8	0.111566365
57	0x3ea6c743	0.325739
58	0x3f048a82	0.51773846
59	0x3b9d4fc1	0.004800767
60	0xbdea8656	-0.11451404
61	0x3e606f0c	0.21917361
62	0xbf7a1d8f	-0.9770135
63	0xbeb42236	-0.3518235
64	0xbd9598bc	-0.073045224
65	0xbe25dbde	-0.16197154
66	0xbdf09c1c	-0.117485255
67	0x3e3fa5c9	0.18715586
68	0xbec4595d	-0.3834943
69	0xbdfe3b88	-0.124136984
70	0x3e376a1b	0.1791157
71	0xbfb408da	-1.4065201
72	0x3ee9fe7a	0.45701963
73	0x3e968985	0.29401794
74	0xbf3ba6bf	-0.7330131
75	0x3f185268	0.5950074
76	0x3efeec06	0.49789447
77	0xbf64c505	-0.8936313
78	0xbf499137	-0.78737205
79	0xbf4b9112	-0.79518235
80	0xbe939527	-0.28824732
81	0xbe920258	-0.28517413
82	0xbf195b58	-0.59905005
83	0x3ef950b1	0.48694375
84	0xbf0c03a4	-0.54693055
85	0xbd8c46e3	-0.06849458
86	0xbf31a0b8	-0.6938586
87	0xbee4298e	-0.44562954
88	0xbdbaa418	-0.0911333
89	0x3e53954a	0.20662418
90	0x3f07c2b9	0.530315
91	0xbeb78562	-0.3584395
92	0xbe9177d7	-0.28411743
93	0xbe963e56	-0.29344434
94	0xbe9d56c6	-0.30730265
95	0x3dfc2014	0.12310806
96	0x3e369f7a	0.17834273
97	0xbe33f97e	-0.17575642
98	0xbf0f4545	-0.5596507
99	0x3e961547	0.29313108
100	0x3f1da588	0.61580706
101	0xbde0e71f	-0.10981583
102	0xbda82d90	-0.08211815
103	0x3d88a6e3	0.06672456
104	0xbf9e0178	-1.2344198
105	0xbdfe783e	-0.12425278
106	0xbe8779f1	-0.2646022
107	0xbe0c3ab0	-0.13694263
108	0x3e1c711f	0.15277527
109	0xbe8c86a7	-0.27446482
110	0xbd725576	-0.059163533
111	0xbee5d0fd	-0.44886008
112	0xc0144ec8	-2.3173084
113	0xbe2b5f0d	-0.16735478
114	0x3f6c969a	0.924173
115	0xbbb5f01a	-0.005552304
116	0x3cf6edb5	0.030142644
117	0x3e178c81	0.14799692
118	0xbee087fd	-0.4385375
119	0xbdc51c04	-0.09624484
120	0xbd5b8a66	-0.053598784
121	0x3f86bbfd	1.052612
122	0x3eab4ec8	0.33458543
123	0xbe668a11	-0.22513606
124	0x3e06738e	0.13130018
125	0xbf884d6f	-1.0648631
126	0xbe1e32d5	-0.15449078
127	0xbeb0999b	-0.34492192
128	0x3e526eb2	0.2055004
129	0xbe477eb9	-0.19481935
130	0x3d052e70	0.03251499
131	0x3e8661bd	0.26246443
132	0xbe4bf917	-0.19919239
133	0xbf18decd	-0.59714967
134	0x3e122769	0.14272846
135	0x3e8db20f	0.2767491
136	0xbe339253	-0.17536287
137	0xbe36efb4	-0.17864877
138	0xbe1b887a	-0.1518878
139	0xbf1cb1a0	-0.61208534
140	0xbd419c47	-0.04726818
141	0xbf061ab4	-0.52384496
142	0xbc12d19e	-0.008961109
143	0x3dd17765	0.10227851
144	0xbe203f67	-0.15649186
145	0xbeba41f8	-0.36378455
146	0xbdaa71df	-0.083225004
147	0xbd333dc1	-0.043760065
148	0x3cd0761b	0.025446942
149	0xbdf94223	-0.12170818
150	0xbed00cdb	-0.40634808
151	0xbd4fa17d	-0.050691117
152	0xbf57cc0b	-0.8429572
153	0x3dba8704	0.091077834
154	0xbe267de9	-0.16258968
155	0xbf1f1f04	-0.621567
156	0xbecc40f2	-0.398933
157	0xbd384ca8	-0.04499498
158	0xbd34eee0	-0.04417312
159	0x3d4e6c57	0.05039629
160	0x3f973668	1.1813478
161	0xbefd0d4b	-0.49424204
162	0xbd06ea61	-0.032938365
163	0xbd009ce4	-0.031399623
164	0xbe180438	-0.1484536
165	0x3de36f52	0.11105217
166	0xbeddead9	-0.43343237
167	0xbd2ec77c	-0.042670712
168	0xbdd40205	-0.10351948
169	0xbed71ea5	-0.42015567
170	0xbe513992	-0.20432118
171	0x3e3469b6	0.1761845
172	0xbe64500c	-0.2229616
173	0x3e4337b0	0.19064212
174	0xbdd67579	-0.10471625
175	0x3db3d91f	0.08781647
176	0x3daa60ee	0.08319269
177	0xbd9b7694	-0.07590976
178	0xbe33b0a7	-0.17547856
179	0xbf0d269f	-0.55137056
180	0xbf07f5a3	-0.53109187
181	0xbe900db0	-0.28135443
182	0xbe9b59bd	-0.30341902
183	0x3d4943af	0.049136814
184	0xbe8ff00c	-0.2811283
185	0x3d325793	0.04354055
186	0xbebcbee9	-0.36864403
187	0xbeb02589	-0.34403637
188	0xbc34b756	-0.011030039
189	0x3d8cc167	0.06872826
190	0xbebfb6b2	-0.37444073
191	0xbdc77276	-0.097386286
192	0xbe948aa5	-0.29012027
193	0x3cf14418	0.029451415
194	0xbebfe9a4	-0.3748294
195	0xbc46e4ea	-0.012139538

linear1.bias f4 [28]
0	0x3e53e34f	0.2069218
1	0xbeea216a	-0.45728618
2	0xbe581481	-0.21101572
3	0x3e50a699	0.20376052
4	0xbebdb300	-0.3705063
5	0xbeb25cfa	-0.3483656
6	0xbdd764ad	-0.10517249
7	0xbe6fb1c3	-0.23407654
8	0xbe7871c7	-0.24262153
9	0xbe674d04	-0.22587973
10	0xbfcd8ab9	-1.605796
11	0xbf1d1794	-0.613641
12	0xbeaad930	-0.33368826
13	0xbd8fb874	-0.070176035
14	0x3eb48f60	0.35265636
15	0xbe9356ff	-0.2877731
16	0xbecb8b93	-0.39754924
17	0xbf600f3d	-0.8752325
18	0xbe839b1c	-0.25704277
19	0xbe56d2dd	-0.20978875
20	0xbe53fd6f	-0.20702146
21	0xbe22b995	-0.15891106
22	0x3c9b93b8	0.018991336
23	0xbe85c019	-0.2612312
24	0xbec1c3b6	-0.37844628
25	0xbe056362	-0.13026193
26	0x3e8d1a19	0.27558973
27	0xbeb9d2cb	-0.36293635

linear2.weight f4 [2, 28]
0	0x3e65076f	0.22366117
1	0x3c756909	0.014978656
2	0xbdcf301c	-0.10116598
3	0x3e57e4df	0.21083401
4	0x3da9c1b6	0.082889006
5	0xbca8ca8f	-0.0206044
6	0x3c4aadb3	0.012370515
7	0xbddb76d0	-0.10716021
8	0xbe435895	-0.1907676
9	0xbe22b624	-0.15889794
10	0xbe7c7d7a	-0.2465724
11	0xbd0ca335	-0.034335334
12	0x3f3b9cd7	0.73286194
13	0xbe3137b4	-0.17306405
14	0x3ef9a3fc	0.48757923
15	0xbd959ed4	-0.07305685
16	0xbe886d4a	-0.2664588
17	0xbeb0f1e9	-0.34559563
18	0x3dbe70f2	0.09298886
19	0x3e9ac5e5	0.30229107
20	0x3cefd454	0.02927605
21	0xbe6da78e	-0.23208448
22	0xbe42cb03	-0.19022755
23	0xbd9040e3	-0.07043626
24	0x3db105f0	0.086437106
25	0x3c1b310d	0.009472144
26	0xbd6d8750	-0.057990372
27	0xbca42666	-0.020037841
28	0x3e851133	0.25989684
29	0xbcf8f8d1	-0.030392082
30	0xbde8c580	-0.11365795
31	0x3e56e2b2	0.20984915
32	0xbdd69736	-0.1047806
33	0xba3c8b72	-0.000719241
34	0xbdd6081f	-0.10450768
35	0x3e202bb1	0.15641667
36	0xbe73206e	-0.2374284
37	0xbe323b4d	-0.17405434
38	0xbe624fb7	-0.22100721
39	0xbd9b5b4a	-0.075857714
40	0x3f1f7230	0.6228361
41	0xbe3e79e6	-0.18601188
42	0x3f094c48	0.5363202
43	0x3c7ea35f	0.01554188
44	0xbe904b57	-0.2818248
45	0xbeb2e1a2	-0.3493777
46	0x3df635c2	0.12021972
47	0x3e3e386a	0.18576208
48	0xbd93e889	-0.07222087
49	0xbe23f5a1	-0.16011669
50	0xbdf83b3d	-0.12120674
51	0xbe061df6	-0.13097367
52	0xbd10127d	-0.03517388
53	0xbd0e855d	-0.034795154
54	0xbe191ab3	-0.14951591
55	0xbd9e6b3e	-0.077352986

linear2.bias f4 [2]
0	0xbf18773e	-0.5955695
1	0xbf1985be	-0.599697
