model/max_49.pth (torch, 4148 bytes, 6 tensors)

linear1.weight f4 [16, 9]
0	0xbeca45d8	-0.39506412
1	0xbe8a9037	-0.27063152
2	0x3e478e4f	0.1948788
3	0x3bb7e71f	0.0056122686
4	0xbd926d03	-0.071496986
5	0xbeca9d97	-0.39573357
6	0x3d151372	0.036395498
7	0xbe9d7359	-0.30752066
8	0xbe632f4b	-0.2218601
9	0xbea9aebb	-0.3314112
10	0xbe8a245e	-0.2698087
11	0x3c30d660	0.0107932985
12	0xbe088d58	-0.13335168
13	0xbcaec9d0	-0.021336466
14	0xbe831743	-0.25603685
15	0xbdc2f006	-0.09518437
16	0xbe8b64c3	-0.27225313
17	0xbe5d426b	-0.21607368
18	0xbe637c3a	-0.22215357
19	0xbdcbdefb	-0.099546395
20	0xbe043842	-0.12912086
21	0xbe60bacc	-0.21946257
22	0xbe5d06d6	-0.21584639
23	0x3db79753	0.0896441
24	0x3d37dfe3	0.04489125
25	0xbe98f8c0	-0.2987728
26	0xbeb9c55e	-0.36283392
27	0xbeb15b41	-0.34639934
28	0x3de552bc	0.11197421
29	0xbd688e1e	-0.05677616
30	0xbdbee086	-0.09320168
31	0xbe4a3a20	-0.19748735
32	0xbe200d06	-0.15629968
33	0xbcbee937	-0.023304565
34	0xbd66189e	-0.05617582
35	0x3e649716	0.2232326
36	0xbc0a613f	-0.008446037
37	0xbdd8c963	-0.105852865
38	0xbc96b904	-0.01839877
39	0xbe830512	-0.25589806
40	0xbd9776d5	-0.07395712
41	0xbd1a8b73	-0.037730645
42	0xbe520056	-0.2050794
43	0x3e309db5	0.1724766
44	0xbdc65ac6	-0.096852824
45	0xbc232f86	-0.009960061
46	0x3ec61ed0	0.38695383
47	0xbea490a5	-0.32141605
48	0xbd47e762	-0.04880465
49	0x3e970a11	0.29499868
50	0xbea2acf8	-0.3177259
51	0x3c280c4c	0.010256838
52	0x3e4ef8b7	0.20212065
53	0x3f790382	0.9727098
54	0xbe0573d0	-0.1303246
55	0x3e35d040	0.17755222
56	0xbea614be	-0.324377
57	0xbd9a3510	-0.07529652
58	0xbeca4006	-0.3950197
59	0x3e4f421b	0.20240061
60	0xbe348fcc	-0.17632979
61	0xbeaef982	-0.34174734
62	0xbed701f2	-0.41993672
63	0x3d878172	0.066164866
64	0x3ede89c8	0.43464494
65	0x3eeffc65	0.4687225
66	0xbcef4989	-0.029209869
67	0xbd17d609	-0.037069354
68	0x3dcb602c	0.09930453
69	0xbf7d8034	-0.9902375
70	0xbfbc45ea	-1.4708836
71	0xbeae2b60	-0.34017467
72	0x3ecb7d88	0.3974421
73	0xbe79fefc	-0.24413675
74	0x3ec5e164	0.38648522
75	0xbed30ed7	-0.4122226
76	0xbdc9daaa	-0.0985616
77	0xbe3778aa	-0.17917123
78	0xbe8d217a	-0.27564603
79	0xbeb77c43	-0.35836992
80	0xbe2bd823	-0.16781668
81	0xbe1adc94	-0.15123206
82	0xbe5d7a0b	-0.21628587
83	0x3e963d92	0.2934385
84	0xbe42d54d	-0.1902668
85	0xbe8a38e7	-0.26996538
86	0xbe9e66df	-0.3093786
87	0x3d7c7ee1	0.06164444
88	0x3d743053	0.059616398
89	0xbe812f2e	-0.25231308
90	0xbc9e336f	-0.019311635
91	0xbc13331e	-0.008984355
92	0xbe668319	-0.22510947
93	0xbe43c180	-0.19116783
94	0xbe770f64	-0.24126965
95	0x3d5bf906	0.053704284
96	0xbe43d1a4	-0.1912294
97	0x3d2621b2	0.040559478
98	0xbe64dc97	-0.22349773
99	0xbf237787	-0.6385426
100	0xbd8ca9d4	-0.0686833
101	0xbe742f9d	-0.23846288
102	0xbe939768	-0.2882645
103	0xbec7edbb	-0.3904856
104	0xbeb26608	-0.3484347
105	0x3dbc2a64	0.09187773
106	0xbd3260f2	-0.043549486
107	0x3e5df21f	0.21674393
108	0xc0cb6633	-6.3562255
109	0x3ecda56c	0.4016527
110	0x3cdf53bf	0.027261613
111	0xbd57751c	-0.05260192
112	0x3cdf8a41	0.027287604
113	0xbdd089a1	-0.10182501
114	0xbebcd901	-0.3688431
115	0x3f318f08	0.69358873
116	0x3f01f530	0.5076475
117	0xbfacfe68	-1.3515139
118	0x3e827203	0.2547761
119	0xbe9686fd	-0.29399863
120	0x3d04e7c8	0.032447606
121	0x3f13d70b	0.57750005
122	0xbf11ab9c	-0.5690248
123	0x3cacd556	0.02109782
124	0xbe4acb0e	-0.19804022
125	0x3f2827b8	0.65685606
126	0xbcc03f17	-0.023467584
127	0xbf3c5a73	-0.73575515
128	0xbef4c608	-0.47807336
129	0xbc2913c2	-0.010319652
130	0xbd1ffdcc	-0.0390604
131	0x3c232172	0.009956704
132	0x3fa09b2d	1.2547356
133	0x3fc4ae69	1.5365726
134	0xbf4df3c6	-0.80450094
135	0xbeb82e37	-0.3597276
136	0x3da5a76a	0.08088572
137	0xbd5eddac	-0.05441062
138	0xbe75fc46	-0.24022016
139	0xbe8e3bc9	-0.27779987
140	0xbe999244	-0.29994404
141	0x3cfb303e	0.030662652
142	0xbe57c389	-0.21070684
143	0xbda3bebe	-0.079953656

linear1.bias f4 [16]
0	0xbec3e010	-0.38256884
1	0x3e1cadf0	0.15300727
2	0x3e126bda	0.14298955
3	0x3dcbb066	0.09945755
4	0xbe59c18a	-0.21265236
5	0x3f7ac51a	0.97957003
6	0x3e10decf	0.14147495
7	0x3e636772	0.2220743
8	0xbe7fe68b	-0.24990289
9	0xbc95b405	-0.018274317
10	0xbe9a380d	-0.30120888
11	0x3c93255a	0.017962147
12	0x3f2561ef	0.6460256
13	0x3f663846	0.89929616
14	0xbf846527	-1.0343369
15	0xbe27b932	-0.1637924

linear3.weight f4 [16, 16]
0	0x3e7a7a1a	0.2446064
1	0xbcdae2c0	-0.026719451
2	0xbe3383d8	-0.17530763
3	0xbe04ba2d	-0.12961645
4	0x3e114900	0.14188004
5	0xbdb9e9ff	-0.09077834
6	0x3d41a068	0.047272116
7	0xbc6089d6	-0.013704738
8	0xbe0dcb01	-0.13846971
9	0xbdfb6620	-0.12275338
10	0x3df2fd03	0.118646644
11	0xbe521da2	-0.20519117
12	0xbe161198	-0.14655149
13	0xbec43cb8	-0.38327575
14	0xbe2e0bbf	-0.16996668
15	0xbe9257d7	-0.2858264
16	0x3d089c24	0.033352032
17	0xbd77bd50	-0.060483277
18	0x3e53df77	0.20690714
19	0x3d82ded0	0.06390154
20	0xbe592717	-0.21206318
21	0xbedd625f	-0.43239114
22	0xbd64e2e7	-0.055880453
23	0x3d04bc76	0.032406293
24	0xbe223cca	-0.15843502
25	0xbd533951	-0.051568333
26	0xbe5330bc	-0.2062406
27	0xbe3c5ab2	-0.18393973
28	0xbecb03bd	-0.3965129
29	0x3e7740c8	0.24145806
30	0x3cfdd5c8	0.030985728
31	0xbd14ba1b	-0.036310297
32	0xbd1224fc	-0.035679802
33	0xbdccd5a4	-0.10001686
34	0x3d5a51dd	0.053300727
35	0xbe63ecdb	-0.22258322
36	0x3d503f23	0.050841462
37	0x3e8fb29d	0.2806596
38	0x3dfc4487	0.12317758
39	0x3f40aace	0.7526063
40	0x3e1f04a6	0.15529117
41	0xbe2ee81a	-0.17080727
42	0xbc2ba918	-0.010477327
43	0xbdca587a	-0.09880157
44	0xbf670b94	-0.9025204
45	0x3d7f8dae	0.062390976
46	0x3f08f3e6	0.5349716
47	0xbb6085f7	-0.0034259537
48	0x3d14de7b	0.036344986
49	0xbe31172e	-0.17293999
50	0xbdea3703	-0.11436274
51	0x3d10d7a7	0.035361912
52	0xbd97ab78	-0.07405752
53	0xbe36fa99	-0.17869033
54	0x3e961616	0.29313725
55	0xbe6fd657	-0.23421608
56	0x3ee3d182	0.4449578
57	0xbddd2294	-0.10797611
58	0x3e969052	0.29406983
59	0xbe349154	-0.17633563
60	0x3eb6db00	0.3571396
61	0xbd339d44	-0.043851152
62	0xbe8928eb	-0.2678903
63	0x3df02103	0.117250465
64	0xbe0b459e	-0.13600776
65	0xbd619490	-0.05507332
66	0x3e0dbd9d	0.13841863
67	0x3cdcf772	0.02697346
68	0x3e7ad15a	0.24493924
69	0xbf31d0de	-0.6945933
70	0x3e1924f9	0.1495551
71	0xbd7bbc54	-0.0614589
72	0x3cc42303	0.023942476
73	0x3e14eee8	0.1454426
74	0xbe392b85	-0.18083008
75	0xbe3e0eb2	-0.18560293
76	0x3e525430	0.20539927
77	0xbee779bd	-0.45210066
78	0xbb3e6244	-0.002905027
79	0xbd9ce483	-0.07660773
80	0xbe2e2f38	-0.170102
81	0xbdd5caf8	-0.10439104
82	0x3e080f74	0.13287145
83	0xbdf6ecd3	-0.120568894
84	0xbd8c2760	-0.06843448
85	0xbf7107f5	-0.94152766
86	0xbe1c0707	-0.15237056
87	0xbc4de7da	-0.012567485
88	0xbdc13c19	-0.09435291
89	0x3e1b49fc	0.15164942
90	0x3e8ae388	0.27126718
91	0x3e801277	0.25014088
92	0xbb0ca022	-0.0021457751
93	0xbd9d21b4	-0.07672444
94	0xbc6cd49d	-0.014454988
95	0x3e07e1b9	0.132697
96	0xbe6de8cc	-0.23233336
97	0xbe16689a	-0.1468834
98	0xbdbab5bc	-0.09116694
99	0x3c1faa20	0.009745151
100	0x3e38d79e	0.18051001
101	0xbf1d7b85	-0.615166
102	0x3ce87a80	0.028378725
103	0xbd85bb66	-0.06529884
104	0x3c922610	0.017840415
105	0xbda54d31	-0.08071364
106	0x3d907378	0.07053274
107	0xbb93d88d	-0.004511899
108	0xbe1f440e	-0.15553305
109	0x3e0a4c82	0.13505748
110	0xbd0bf395	-0.034167845
111	0x3e1f53c0	0.15559292
112	0x3d039538	0.032124728
113	0x3c93cff0	0.018043488
114	0xbe04a4a2	-0.12953427
115	0xbdc31dda	-0.09527178
116	0x3d7c773d	0.061637152
117	0xbe4d3503	-0.20039754
118	0x3dd37da0	0.103266954
119	0x3ddae47b	0.106881104
120	0x3dd61660	0.104534864
121	0x3e122210	0.14270806
122	0x3e4acf7f	0.19805716
123	0xbe64b802	-0.22335818
124	0xbf8aa710	-1.0832233
125	0xbef60c49	-0.48056248
126	0xbedd8899	-0.43268278
127	0x3eafceee	0.34337562
128	0x3bf205ed	0.0073859603
129	0xbd939aa0	-0.07207227
130	0x3d28f861	0.041252498
131	0xbdb34579	-0.08753485
132	0x3d8ef986	0.069811866
133	0x3d310285	0.043215293
134	0xbe0a88a4	-0.13528687
135	0xbe6d3a52	-0.23166779
136	0x3e124e3d	0.14287658
137	0x3d786428	0.06064239
138	0x3dafb521	0.085794695
139	0x3dd9fe20	0.106441736
140	0x3e59aca1	0.21257259
141	0x3e900774	0.28130686
142	0xbf4e56ce	-0.80601203
143	0xbe3e2555	-0.18568929
144	0xbe56c628	-0.20974028
145	0x3e3f3ca8	0.18675482
146	0x3e686070	0.22693038
147	0xbd7ce4b3	-0.061741542
148	0xbdf62dfb	-0.12020489
149	0xbe5be531	-0.21474148
150	0x3d391aea	0.045191683
151	0xbcd68009	-0.026184099
152	0xbee093de	-0.43862814
153	0x3e581b32	0.21104124
154	0x3d81b425	0.06333188
155	0x3e3f1363	0.18659739
156	0x3e20195c	0.15634674
157	0xbe4f1a43	-0.20224862
158	0xbd4279f4	-0.047479585
159	0x3e07885b	0.13235609
160	0xbd3bacc2	-0.04581905
161	0xb98fb800	-0.00027412176
162	0xbe3e8ebd	-0.18609138
163	0xbdca6e8d	-0.09884367
164	0x3d454b87	0.04816773
165	0xbe7b01f1	-0.2451246
166	0xbe0970bc	-0.13421911
167	0x3e1e996c	0.15488213
168	0x3e8e0b25	0.27742878
169	0x3da0d06f	0.078522556
170	0x3cb57892	0.022152219
171	0xbe5678ba	-0.20944491
172	0xbf95a971	-1.1692334
173	0xbfbac8c5	-1.459252
174	0x3e433bc7	0.19065772
175	0xbe5fa352	-0.21839646
176	0x3d61245a	0.05496631
177	0x3d92b0b4	0.0716261
178	0xbc293f6b	-0.010330061
179	0x3ddd27ca	0.10798605
180	0x3e04c481	0.12965585
181	0xbe6d58ac	-0.23178357
182	0x3c77792c	0.015104573
183	0xbcc57f2b	-0.02410849
184	0xbd84c093	-0.06482043
185	0x3d8b6efc	0.06808278
186	0xbe042a23	-0.12906699
187	0x3dce5d68	0.100764096
188	0xbcf8bfff	-0.030364988
189	0xbf1b3364	-0.6062529
190	0xbe7c1f0d	-0.2462122
191	0xbd1a40b3	-0.03765936
192	0x3e7e1716	0.24813494
193	0x3dee6c68	0.116417706
194	0xbe2d9444	-0.1695109
195	0x3e32f61b	0.17476694
196	0x3cb85648	0.02250208
197	0xbef16ac7	-0.47151777
198	0xbd84dd0f	-0.06487476
199	0xbc46221d	-0.012093094
200	0xbe935036	-0.28772134
201	0xbd8d2828	-0.06892425
202	0x3e232204	0.15930945
203	0xbd05c448	-0.03265789
204	0xbd190f30	-0.037368
205	0x3d701319	0.058611963
206	0xbe615db6	-0.22008404
207	0xbe1120d0	-0.14172673
208	0x3d97e9e0	0.07417655
209	0x3e729f30	0.23693538
210	0xbd8ed84d	-0.0697485
211	0x3dd0d2c8	0.10196453
212	0xbe881653	-0.26579532
213	0x3e5d015d	0.21582551
214	0x3b1034b8	0.002200408
215	0x3e7948f6	0.24344239
216	0x3d951402	0.07279207
217	0xbe490bce	-0.1963341
218	0x3dcf51e9	0.10123045
219	0xbd9b322e	-0.075779304
220	0x3e3fa649	0.18715777
221	0x3dd82fce	0.10555993
222	0xc025e978	-2.5923748
223	0xbccb9adb	-0.024854114
224	0x3d895916	0.06706445
225	0xbe1ec672	-0.15505388
226	0x3e208008	0.1567384
227	0x3e3b5d9b	0.18297426
228	0xbd617bc6	-0.05504968
229	0x3e5638f6	0.20920166
230	0x3e1a2aeb	0.15055434
231	0xbe057a7e	-0.13035008
232	0xbe62ab7f	-0.22135733
233	0xbe4c8e6d	-0.19976206
234	0x3da042e4	0.078252584
235	0x3e216305	0.15760429
236	0xbf52cd7a	-0.8234478
237	0xbd772612	-0.06033904
238	0xbec2b1a2	-0.38026148
239	0x3e095c10	0.13414025
240	0x3e54c316	0.20777544
241	0x3e612f9a	0.21990815
242	0x3d510920	0.051034093
243	0xbda82afe	-0.08211325
244	0x3df84f40	0.12124491
245	0x3ebb975a	0.3663891
246	0xbe61062e	-0.21975014
247	0xbe2e8b5c	-0.17045349
248	0x3cedda9b	0.029034903
249	0xbe302282	-0.17200664
250	0x3e780224	0.24219567
251	0x3df8cf1b	0.12148877
252	0x3f596f52	0.84935486
253	0xbe347839	-0.17623986
254	0x3cd09e00	0.025465965
255	0xbe9ee4b3	-0.3103386

linear3.bias f4 [16]
0	0xbe98b241	-0.29823497
1	0xbfe8a733	-1.8176025
2	0xc032d60a	-2.794314
3	0x40100a67	2.250635
4	0xbe66ca00	-0.22537994
5	0xbef33d90	-0.47507906
6	0xbef78434	-0.4834305
7	0xbf3fb8eb	-0.7489154
8	0x3fcdca58	1.6077375
9	0xbef9f6ba	-0.4882105
10	0xbfd45b22	-1.6590312
11	0xbe6f0548	-0.23341858
12	0xbd4c1c58	-0.04983172
13	0xc0064d6e	-2.098476
14	0x406b1cc5	3.673631
15	0x40648c53	3.5710647

linear2.weight f4 [2, 16]
0	0xbcae0fc7	-0.021247758
1	0xbcbad6c7	-0.022807492
2	0xbe4d1f07	-0.20031367
3	0xbccf4f22	-0.025306288
4	0x3dd5992a	0.10429604
5	0x3e235792	0.15951374
6	0x3e1b7554	0.15181476
7	0xbee2f198	-0.44324946
8	0x3f31b866	0.69421995
9	0xbcf8d16d	-0.0303733
10	0xbe266a9a	-0.16251603
11	0xbdbe0510	-0.09278309
12	0xbd97d008	-0.07412726
13	0xbdd5fab2	-0.10448207
14	0x3e65f329	0.2245604
15	0x3e9a620b	0.30152926
16	0x3d8288a2	0.06373717
17	0x3cc11c0b	0.023572942
18	0xbde8ff2c	-0.11376795
19	0x3e2c6f88	0.16839421
20	0x3d9d9338	0.076940954
21	0x3ed1c3f8	0.40969825
22	0x3ea7fbf6	0.32809418
23	0xbf18d12a	-0.5969416
24	0x3f413250	0.75467396
25	0x3da03e93	0.07824435
26	0xbe240a4f	-0.16019557
27	0xbde1f48d	-0.110329725
28	0xbd931149	-0.07181031
29	0xbe8f38ac	-0.27972925
30	0x3ebfe82b	0.37481818
31	0x3e913b3b	0.28365502

linear2.bias f4 [2]
0	0x403400f3	2.812558
1	0xbe3dbe6f	-0.18529676
