model/max_6.pth (torch, 2496 bytes, 4 tensors)

linear1.weight f4 [16, 7]
00000000: 418b b5be c051 2a3d d65f d73e 3cf7 bfbe
00000010: da89 0abe 1f6e 9bbd e1d0 d6bf 3398 e7be
00000020: 21c5 81be 0aa6 22bf 70d3 c9be e145 32be
00000030: 80a9 aebe 529e 273e b68b 76be abbc 30be
00000040: 2e66 94be 3822 94be df5b d8be 30b8 babe
00000050: 5cd5 363e 8bd8 3abe c66f a33e 89cc a63d
00000060: 4516 d3be 970f 1ebe e082 83be 407e 74bd
00000070: f998 bbbe 80e8 7dbe 643f 33be 561c 68be
00000080: 7c06 b3be 9bef 54be 6a29 7fbe 80f5 b1bd
00000090: 78ad e3bd 0a64 663e 582a 9cbd d7b4 04be
000000a0: d8c4 ecbd 37ad 4dbe c247 aa3a 3c64 c13d
000000b0: 08e9 9f3b ba78 cabd 0c6e 7abe e646 5fbd
000000c0: e07b 0bbd de03 83bf b48e 463d b5b0 f3be
000000d0: 3c52 e93d 8d56 d4be a5cd 0d3c 3017 91be
000000e0: a8b1 c1be 5361 e2be fa08 dabe f2d1 103c
000000f0: 1e24 b7ba c501 873d 3041 393d fd7e 89bd
00000100: e581 e1be f08d 02bf 16aa 36bd 31bd 63be
00000110: fa57 873d 88b5 853f 0bbc 59be 103f 76be
00000120: 0a63 84be 2e25 abbe 4589 4abe ed75 02bf
00000130: d255 093e f702 bfbd e428 a4be d44c 7fbd
00000140: 241b e6bd 5ffa d93d 20b1 283e c7e3 edbd
00000150: 20c5 b3be 3b27 1d3e 53ea d0be cb81 08bf
00000160: 6a27 17be 3934 c3be 8100 313e d612 0f3d
00000170: 5e3c 53be bd5a ccbe dc19 02be 176a cabd
00000180: 7ab7 94be 71ac 2e3c b961 113d a44c c43e
00000190: 71d0 223f a53f 4ebd f7f0 6f3e 95e4 10be
000001a0: 7c4f 9cbf 5492 d6be 790c 55be c05a 00bf
000001b0: dab4 52be 2540 e1bd ebe4 aa3b 1548 003e
-0.35457805 0.04158187 0.42065305 -0.37493312 -0.13529149 -0.07589363 -1.6782495 -0.45233306
-0.2534571 -0.63534606 -0.39419127 -0.17409469 -0.34113693 0.16368988 -0.24076733 -0.17259471
-0.28984207 -0.28932357 -0.42257592 -0.3646865 0.17854828 -0.18246667 0.31921214 0.08144481
-0.41227928 -0.15435635 -0.25685787 -0.059690714 -0.36640146 -0.24795723 -0.1750465 -0.2266706
-0.34965885 -0.20794527 -0.24918142 -0.086894035 -0.11117071 0.224991 -0.07625264 -0.1295961
-0.115609825 -0.20085607 0.0012991356 0.09442946 0.0048800744 -0.09886308 -0.24456042 -0.054510973
-0.034053683 -1.0235555 0.048475936 -0.47595754 0.11392638 -0.41472283 0.0086549865 -0.28338003
-0.37830853 -0.44214877 -0.42584974 0.008839117 -0.0013972556 0.065921344 0.045228183 -0.06713674
-0.44044414 -0.5099783 -0.0445958 -0.2224014 0.06608577 1.0446024 -0.21263139 -0.24047494
-0.2585681 -0.33426803 -0.19778927 -0.5096119 0.13411644 -0.093267374 -0.32062447 -0.06232913
-0.112356454 0.106434576 0.16473818 -0.11615711 -0.35111332 0.15346996 -0.40803775 -0.5332305
-0.14761129 -0.3812578 0.17285348 0.034930073 -0.20628497 -0.39912978 -0.12705177 -0.09883516
-0.29046232 0.01066123 0.035493586 0.38339722 0.63599306 -0.050353665 0.23431765 -0.14149697
-1.2211757 -0.41908514 -0.20805539 -0.50138474 -0.20576802 -0.10998563 0.0052152774 0.12527497

linear1.bias f4 [16]
00000000: ec1b 18bf 5aab 6bbe 0bc3 313c 4cbc 1abe
00000010: 48ed 9abe 0024 ba3a 5263 02bd b00e b9be
00000020: c4d5 71be db58 71bf 55ef 6bbe e2f0 443e
00000030: 70c8 99bd 035e 0abf 2d40 263f 015f 89be
-0.59417605 -0.23014584 0.0108497245 -0.15110892 -0.30259156 0.0014201403 -0.031833 -0.36144018
-0.23616701 -0.9427621 -0.23040517 0.19232515 -0.075089335 -0.540497 0.64941674 -0.26830295

linear2.weight f4 [2, 16]
00000000: fa63 f13e 80e5 df3e 2f97 963d aede 6ebe
00000010: a268 183e a8ed dd3d 3e58 b93d 947c 7fbe
00000020: eb5c 13be 76cd 7dbe b6ef d6bc 4c36 5cbe
00000030: d2fc 553e 8e48 4a3d f143 63be e466 e0bc
00000040: e015 213f 567a e53e b702 b03d c128 04be
00000050: 74e9 adbd d098 6dbd 1c3f d7bc 9077 57be
00000060: c9ad 64be e487 44be 3622 223d 4e97 593c
00000070: b844 7d3e 7b03 033c 34e3 90be 76ab efbc
0.4714659 0.43729782 0.07353055 -0.23327133 0.14883664 0.10836345 0.09050034 -0.24949867
-0.14390914 -0.24785408 -0.02623735 -0.21505088 0.20897225 0.0493856 -0.22193886 -0.027392812
0.62924004 0.44819897 0.08594268 -0.12906171 -0.08491793 -0.05800706 -0.02627521 -0.21041703
-0.22331919 -0.19192463 0.039583407 0.013280703 0.24733245 0.007996435 -0.28298342 -0.029256564

linear2.bias f4 [2]
00000000: 0d56 3e40 51fd 3a40
2.9740021 2.9217112
