model/test3.pth/test3.pth3.pth (torch, 2728 bytes, 4 tensors)

linear1.weight f4 [16, 7]
0	0xbe118b9d	-0.14213414
1	0x3de70ab8	0.11281341
2	0x3ef61ff3	0.4807125
3	0xbe867562	-0.2626143
4	0xbcde9bf3	-0.027173972
5	0x3d941020	0.07229638
6	0xbfcc089a	-1.5940125
7	0xbddf921a	-0.109165385
8	0xbc2f7d1f	-0.010710984
9	0xbee849d5	-0.4536883
10	0xbde21ba9	-0.11040432
11	0x3da2aa7f	0.07942676
12	0xbdcf5b76	-0.10124867
13	0x3e944239	0.28956774
14	0xbe768bb6	-0.24076733
15	0xbe30bcab	-0.17259471
16	0xbe94662e	-0.28984207
17	0xbe942238	-0.28932357
18	0xbed85bdf	-0.42257592
19	0xbebab830	-0.3646865
20	0x3e36d55c	0.17854828
21	0xbe3ad88b	-0.18246667
22	0x3ea36fc6	0.31921214
23	0x3da6cc89	0.08144481
24	0xbed31645	-0.41227928
25	0xbe1e0f97	-0.15435635
26	0xbe8382e0	-0.25685787
27	0xbd747e40	-0.059690714
28	0xbebb98f9	-0.36640146
29	0xbe7de880	-0.24795723
30	0xbe333f64	-0.1750465
31	0xbe681c56	-0.2266706
32	0xbeb3067c	-0.34965885
33	0xbe54ef9b	-0.20794527
34	0xbe7f296a	-0.24918142
35	0xbdb1f580	-0.086894035
36	0xbde3ad78	-0.11117071
37	0x3e66640a	0.224991
38	0xbd9c2a58	-0.07625264
39	0xbe04b4d7	-0.1295961
40	0xbdecc4d8	-0.115609825
41	0xbe4dad37	-0.20085607
42	0x3aaa47c2	0.0012991356
43	0x3dc1643c	0.09442946
44	0x3b9fe908	0.0048800744
45	0xbdca78ba	-0.09886308
46	0xbe7a6e0c	-0.24456042
47	0xbd5f46e6	-0.054510973
48	0xbd0b7be0	-0.034053683
49	0xbf8303de	-1.0235555
50	0x3d468eb4	0.048475936
51	0xbef3b0b5	-0.47595754
52	0x3de9523c	0.11392638
53	0xbed4568d	-0.41472283
54	0x3c0dcda5	0.0086549865
55	0xbe911730	-0.28338003
56	0xbec1b1a8	-0.37830853
57	0xbee26153	-0.44214877
58	0xbeda08fa	-0.42584974
59	0x3c10d1f2	0.008839117
60	0xbab7241e	-0.0013972556
61	0x3d8701c5	0.065921344
62	0x3d394130	0.045228183
63	0xbdb79cc1	-0.08965445
64	0xbebf13e8	-0.37319875
65	0xbf2711b5	-0.65261394
66	0xbc3b0841	-0.011415542
67	0xbe11a6dd	-0.1422381
68	0xbc0d8df3	-0.0086398
69	0x3f7c1b9c	0.9847963
70	0xbe59bc0b	-0.21263139
71	0xbe763f10	-0.24047494
72	0xbe84630a	-0.2585681
73	0xbeab252e	-0.33426803
74	0xbe4a8945	-0.19778927
75	0xbf0275ed	-0.5096119
76	0x3e0955d2	0.13411644
77	0xbdbf02f7	-0.093267374
78	0xbea428e4	-0.32062447
79	0xbd7f4cd4	-0.06232913
80	0xbde61b24	-0.112356454
81	0x3dd9fa5f	0.106434576
82	0x3e28b120	0.16473818
83	0xbdede3c7	-0.11615711
84	0xbeb3c520	-0.35111332
85	0x3e1d273b	0.15346996
86	0xbed0ea53	-0.40803775
87	0xbf0881cb	-0.5332305
88	0xbe17276a	-0.14761129
89	0xbec33439	-0.3812578
90	0x3e310081	0.17285348
91	0x3d0f12d6	0.034930073
92	0xbe533c5e	-0.20628497
93	0xbecc5abd	-0.39912978
94	0xbe0219dc	-0.12705177
95	0xbdca6a17	-0.09883516
96	0xbe94b77a	-0.29046232
97	0x3c2eac71	0.01066123
98	0x3d2daa52	0.04239876
99	0x3e91d90e	0.28485912
100	0x3f4001a0	0.7500248
101	0x3d1c45f4	0.03815265
102	0x3dfdc498	0.12391013
103	0xbdf0eecc	-0.11764297
104	0xbf9bb1ed	-1.2163674
105	0xbed69254	-0.41908514
106	0xbe550c79	-0.20805539
107	0xbf005ac0	-0.50138474
108	0xbe52b4da	-0.20576802
109	0xbde14025	-0.10998563
110	0x3baae4eb	0.0052152774
111	0x3e004815	0.12527497

linear1.bias f4 [16]
0	0xbf02f925	-0.51161414
1	0x3cb17ace	0.021665003
2	0x3c31c30b	0.0108497245
3	0xbe1abc4c	-0.15110892
4	0xbe9aed48	-0.30259156
5	0x3aba2400	0.0014201403
6	0xbd026352	-0.031833
7	0xbeb90eb0	-0.36144018
8	0xbe71d5c4	-0.23616701
9	0xbf4053ab	-0.7512767
10	0xbe6bef55	-0.23040517
11	0x3e44f0e2	0.19232515
12	0xbd99c870	-0.075089335
13	0xbf0a5e03	-0.540497
14	0x3eeff824	0.46869004
15	0xbe895f01	-0.26830295

linear2.weight f4 [2, 16]
0	0x3ebce6eb	0.36894926
1	0x3ebeb853	0.37250003
2	0x3d96972f	0.07353055
3	0xbe6edeae	-0.23327133
4	0x3e1868a2	0.14883664
5	0x3dddeda8	0.10836345
6	0x3db9583e	0.09050034
7	0xbe7f7c94	-0.24949867
8	0xbe135ceb	-0.14390914
9	0xbe83bdee	-0.25730842
10	0xbcd6efb6	-0.02623735
11	0xbe5c364c	-0.21505088
12	0x3e55fcd2	0.20897225
13	0x3d4a488e	0.0493856
14	0xbea09d52	-0.31370026
15	0xbce066e4	-0.027392812
16	0x3ec4f659	0.38469198
17	0x3ece6ac4	0.4031583
18	0x3db002b7	0.08594268
19	0xbe0428c1	-0.12906171
20	0xbdade974	-0.08491793
21	0xbd6d98d0	-0.05800706
22	0xbcd73f1c	-0.02627521
23	0xbe577790	-0.21041703
24	0xbe64adc9	-0.22331919
25	0xbe302588	-0.17201817
26	0x3d222236	0.039583407
27	0x3c59974e	0.013280703
28	0x3e7d44b8	0.24733245
29	0x3c03037b	0.007996435
30	0xbeb246cc	-0.3481964
31	0xbcefab76	-0.029256564

linear2.bias f4 [2]
0	0x401152ba	2.2706742
1	0x4010c219	2.2618468
