model/test3.pth/test3.pth1.pth (torch, 2728 bytes, 4 tensors)

linear1.weight f4 [16, 7]
000000 36 b0 c3 3c 70 20 97 bc 6d 94 cd 3e 16 12 a6 bd
       0.023887735 -0.018448085 0.40152302 -0.08108918
000010 3a 51 f1 bd 0f be e4 3b dc 27 40 bf a8 50 a9 be
       -0.11783071 0.0069806646 -0.7506082 -0.33069348
000020 3b 14 52 3c 2c 08 ec be d4 6d 27 be 47 72 dc 3d
       0.012822206 -0.46099985 -0.1635049 0.10763984
000030 1d ed 98 bd 4b 40 29 3e 0f 7b 8a bd 27 20 60 bd
       -0.07467101 0.16528432 -0.06761753 -0.054718163
000040 53 5a 3d be d6 89 1c be 39 fa 9b be e3 19 84 be
       -0.18491487 -0.15286955 -0.30464342 -0.25801
000050 f6 39 91 3e 8b d8 3a be c6 6f a3 3e 89 cc a6 3d
       0.28364533 -0.18246667 0.31921214 0.08144481
000060 45 16 d3 be 97 0f 1e be e0 82 83 be 40 7e 74 bd
       -0.41227928 -0.15435635 -0.25685787 -0.059690714
000070 f9 98 bb be 80 e8 7d be 64 3f 33 be 56 1c 68 be
       -0.36640146 -0.24795723 -0.1750465 -0.2266706
000080 7c 06 b3 be 9b ef 54 be 6a 29 7f be 80 f5 b1 bd
       -0.34965885 -0.20794527 -0.24918142 -0.086894035
000090 78 ad e3 bd 0a 64 66 3e 58 2a 9c bd d7 b4 04 be
       -0.11117071 0.224991 -0.07625264 -0.1295961
0000a0 d8 c4 ec bd 37 ad 4d be c2 47 aa 3a 3c 64 c1 3d
       -0.115609825 -0.20085607 0.0012991356 0.09442946
0000b0 08 e9 9f 3b ba 78 ca bd 0c 6e 7a be e6 46 5f bd
       0.0048800744 -0.09886308 -0.24456042 -0.054510973
0000c0 e0 7b 0b bd de 03 83 bf b4 8e 46 3d b5 b0 f3 be
       -0.034053683 -1.0235555 0.048475936 -0.47595754
0000d0 3c 52 e9 3d 8d 56 d4 be a5 cd 0d 3c 30 17 91 be
       0.11392638 -0.41472283 0.0086549865 -0.28338003
0000e0 b0 47 aa be 66 e7 ca be 0d 8f c2 be 16 e5 5f 3d
       -0.33257818 -0.39629668 -0.37999764 0.054661833
0000f0 66 16 36 3d 86 e9 e4 3d f7 94 ba 3d 85 b1 2c be
       0.044454955 0.111773536 0.09110444 -0.16864593
000100 b4 d3 d8 be fb 9e a6 be c1 a2 78 3d db 90 5d be
       -0.42349017 -0.32543167 0.06070209 -0.21637289
000110 12 ad 41 3e 11 e1 52 3f 78 e1 f7 bd 92 a0 fc bd
       0.18913677 0.82374674 -0.121035516 -0.12335314
000120 ce 04 17 be 9f 92 64 be 5a 24 a5 bd 31 ad cb be
       -0.14747927 -0.22321557 -0.08063574 -0.39780572
000130 4a 2f 85 3e f7 02 bf bd e4 28 a4 be d4 4c 7f bd
       0.2601264 -0.093267374 -0.32062447 -0.06232913
000140 24 1b e6 bd 5f fa d9 3d 20 b1 28 3e c7 e3 ed bd
       -0.112356454 0.106434576 0.16473818 -0.11615711
000150 3d 05 55 be 3e e9 84 3e 33 9d 9b be b0 0c d4 be
       -0.2080278 0.259592 -0.3039337 -0.4141593
000160 15 8a 36 bd 6c 9b 90 be 7d a8 76 3e d6 12 0f 3d
       -0.04456528 -0.28243577 0.2408771 0.034930073
000170 5e 3c 53 be bd 5a cc be dc 19 02 be 17 6a ca bd
       -0.20628497 -0.39912978 -0.12705177 -0.09883516
000180 7a b7 94 be 71 ac 2e 3c fa d9 f7 3c cf 75 6a 3e
       -0.29046232 0.01066123 0.030255307 0.22896503
000190 3a 8e 02 3f 23 0f 84 bb 0b 1b 48 3e b0 a7 f0 bd
       0.5099827 -0.0040301247 0.19541566 -0.11750734
0001a0 21 5b 6d bf 84 58 bf be 1b 24 1a be 31 49 e4 be
       -0.92717177 -0.3737222 -0.15052836 -0.4458709
0001b0 8e 8e 1a be 59 d1 56 bd d6 94 79 3d 13 08 3f 3e
       -0.15093443 -0.052445743 0.060932957 0.18655424

linear1.bias f4 [16]
000000 9a 72 1e bf d2 d2 66 3d c8 5e 06 3e 4c bc 1a be
       -0.6189362 0.056353398 0.13122094 -0.15110892
000010 48 ed 9a be 00 24 ba 3a 52 63 02 bd b0 0e b9 be
       -0.30259156 0.0014201403 -0.031833 -0.36144018
000020 e3 e1 42 be 66 4f 81 bf 50 e2 e4 bd e2 f0 44 3e
       -0.19031481 -1.0102355 -0.11175978 0.19232515
000030 f1 3b e6 3c 03 5e 0a bf 21 68 19 3f 7a 2c 57 be
       0.028104754 -0.540497 0.59924513 -0.2101306

linear2.weight f4 [2, 16]
000000 eb b0 48 3d 18 98 07 3e 46 f2 58 bd ae de 6e be
       0.048996847 0.13241613 -0.052965425 -0.23327133
000010 a2 68 18 3e a8 ed dd 3d 3e 58 b9 3d 94 7c 7f be
       0.14883664 0.10836345 0.09050034 -0.24949867
000020 1b 2e 41 be 0b 14 e1 be 33 ce 2e be 4c 36 5c be
       -0.18865244 -0.43960604 -0.17070846 -0.21505088
000030 d2 42 e8 3d 8e 48 4a 3d 32 a2 8d be 83 60 f9 bd
       0.1134087 0.0493856 -0.27662808 -0.12176611
000040 02 f1 15 3e 24 d7 af 3d 39 1e 8c bd c1 28 04 be
       0.14642718 0.08585957 -0.06841702 -0.12906171
000050 74 e9 ad bd d0 98 6d bd 1c 3f d7 bc 90 77 57 be
       -0.08491793 -0.05800706 -0.02627521 -0.21041703
000060 c9 ad 64 be 75 45 bf be a3 be 39 bc 4e 97 59 3c
       -0.22331919 -0.3735768 -0.011336955 0.013280703
000070 de 2d e6 bd 7b 03 03 3c a0 6e bb be 76 ab ef bc
       -0.11239217 0.007996435 -0.36607838 -0.029256564

linear2.bias f4 [2]
000000 56 32 8d 3f 21 c8 8c 3f
       1.1030986 1.0998574
