model/test3.pth/test3.pth9.pth (torch, 2344 bytes, 4 tensors)

linear1.weight f4 [8, 7]
000000 f5 7d 26 be d3 93 a2 3e 69 b4 bd bd a3 f4 aa be
       -0.16258986 0.31753406 -0.09262926 -0.33389768
000010 1d 9f 81 bc 36 68 93 be 77 cc 50 be 7f 62 87 be
       -0.015822941 -0.28790444 -0.20390497 -0.26442334
000020 d6 6b ed 3e e8 3c 12 3f 32 16 99 3e e8 ab a9 3e
       0.46371335 0.57124186 0.29899746 0.33138967
000030 7e 6a b0 be 20 a3 88 bf d5 0c 80 bd 49 9e fe 3d
       -0.34456247 -1.0674782 -0.062524475 0.12432534
000040 ef 2e 01 bf af 7f ab be 21 eb 2f bc f1 17 13 be
       -0.5046224 -0.33495852 -0.010737211 -0.14364602
000050 88 0c fd bd a0 7c 5d bc ad 76 d2 3e 89 4a ec 3e
       -0.12355906 -0.013518482 0.41106167 0.46150616
000060 3c ac a4 3d 2a 3f 3d 3e db 37 16 be 1a 65 a4 bf
       0.080406636 0.18481126 -0.14669745 -1.2843354
000070 d3 0c cc bd aa 12 8e 3e 38 42 51 3f fe 52 2a 3e
       -0.099633835 0.27748615 0.81741667 0.16633222
000080 d1 cc 36 bd ac cd c3 3c 7a 32 95 bf 50 53 cf 3d
       -0.044628922 0.023901783 -1.1656029 0.101233125
000090 d4 58 97 be a8 35 96 3d b8 82 d4 bd 39 f1 a9 be
       -0.29559958 0.07334453 -0.10376495 -0.3319185
0000a0 1b 90 81 3e c8 1b 40 3d b2 1b 24 be 56 9c 87 be
       0.25305256 0.046901494 -0.1602619 -0.26486462
0000b0 08 9d ca 3d a1 45 6b be 18 85 a6 3d 41 43 33 be
       0.098932326 -0.2297578 0.08130854 -0.17506124
0000c0 56 cd 45 3e ff e1 a1 bd 97 b4 d6 be b9 73 f9 3d
       0.1931661 -0.079044335 -0.41934654 0.121802755
0000d0 5d 8a 65 bd 69 59 8d be 5f fe 91 be 3b 13 5e 3e
       -0.056040157 -0.27607277 -0.28514382 0.21687023

linear1.bias f4 [8]
000000 c0 f4 45 3e 58 ac 25 3f ab c0 83 3e ab e0 a0 be
       0.19331646 0.647161 0.25732931 -0.31421408
000010 85 f8 e5 be 9c 94 10 be e0 46 98 3d fe a9 a5 be
       -0.44916168 -0.1411919 0.07435393 -0.32356256

linear2.weight f4 [2, 8]
000000 e9 7c 7a be d3 96 73 3e ff 93 36 be 78 11 49 be
       -0.24461712 0.23788004 -0.17829894 -0.1963557
000010 bc ed 87 be c0 2e a9 bc 10 a2 21 3d 16 fb c7 3c
       -0.26548564 -0.020652175 0.039461195 0.02441172
000020 c2 c5 96 3e 71 d6 11 3e c6 c1 05 be bd 47 28 be
       0.29447752 0.14241959 -0.130622 -0.16433616
000030 22 5f 52 be 53 66 5c be 21 22 81 3e 8b 46 35 be
       -0.20544103 -0.21523409 0.2522135 -0.17702691

linear2.bias f4 [2]
000000 e3 cd 04 c1 bb bb 86 bd
       -8.300265 -0.065787755
