model/test7/test77.pth (torch, 4158 bytes, 6 tensors)

linear1.weight f4 [16, 9]
000000 d8 45 ca be 37 90 8a be 4f 8e 47 3e 1f e7 b7 3b
       -0.39506412 -0.27063152 0.1948788 0.0056122686
000010 03 6d 92 bd 97 9d ca be 72 13 15 3d 59 73 9d be
       -0.071496986 -0.39573357 0.036395498 -0.30752066
000020 4b 2f 63 be bb ae a9 be 5e 24 8a be 60 d6 30 3c
       -0.2218601 -0.3314112 -0.2698087 0.0107932985
000030 58 8d 08 be d0 c9 ae bc 43 17 83 be 06 f0 c2 bd
       -0.13335168 -0.021336466 -0.25603685 -0.09518437
000040 c3 64 8b be 6b 42 5d be 3a 7c 63 be fb de cb bd
       -0.27225313 -0.21607368 -0.22215357 -0.099546395
000050 42 38 04 be cc ba 60 be d6 06 5d be 53 97 b7 3d
       -0.12912086 -0.21946257 -0.21584639 0.0896441
000060 e3 df 37 3d c0 f8 98 be 5e c5 b9 be 41 5b b1 be
       0.04489125 -0.2987728 -0.36283392 -0.34639934
000070 bc 52 e5 3d 1e 8e 68 bd 86 e0 be bd 20 3a 4a be
       0.11197421 -0.05677616 -0.09320168 -0.19748735
000080 06 0d 20 be 37 e9 be bc 9e 18 66 bd 16 97 64 3e
       -0.15629968 -0.023304565 -0.05617582 0.2232326
000090 3f 61 0a bc 63 c9 d8 bd 04 b9 96 bc 12 05 83 be
       -0.008446037 -0.105852865 -0.01839877 -0.25589806
0000a0 d5 76 97 bd 73 8b 1a bd 56 00 52 be b5 9d 30 3e
       -0.07395712 -0.037730645 -0.2050794 0.1724766
0000b0 c6 5a c6 bd 46 38 1e 3c 37 44 b9 3e 86 f4 ca be
       -0.096852824 0.009656971 0.36184856 -0.39639682
0000c0 4c d1 19 bd 2c ec 97 3e ca c8 a2 be 01 14 d3 bb
       -0.037553117 0.29672372 -0.31793815 -0.0064415936
0000d0 f6 95 0e 3e 6d a4 7a 3f d0 73 05 be 40 d0 35 3e
       0.13924393 0.97907144 -0.1303246 0.17755222
0000e0 be 14 a6 be 10 35 9a bd 06 40 ca be 1b 42 4f 3e
       -0.324377 -0.07529652 -0.3950197 0.20240061
0000f0 cc 8f 34 be 82 f9 ae be f2 01 d7 be aa 19 63 3d
       -0.17632979 -0.34174734 -0.41993672 0.055444397
000100 8a ec e3 3e e0 60 fd 3e c6 3a bb bc be d2 70 bd
       0.44516402 0.49487972 -0.022855174 -0.05879473
000110 16 df 2f 3d cd 5a 7a bf 72 0d b9 bf b2 21 ae be
       0.04293736 -0.977948 -1.4457228 -0.34010082
000120 88 7d cb 3e fc fe 79 be 64 e1 c5 3e d7 0e d3 be
       0.3974421 -0.24413675 0.38648522 -0.4122226
000130 aa da c9 bd aa 78 37 be 7a 21 8d be 43 7c b7 be
       -0.0985616 -0.17917123 -0.27564603 -0.35836992
000140 23 d8 2b be 94 dc 1a be 0b 7a 5d be 92 3d 96 3e
       -0.16781668 -0.15123206 -0.21628587 0.2934385
000150 4d d5 42 be e7 38 8a be df 66 9e be e1 7e 7c 3d
       -0.1902668 -0.26996538 -0.3093786 0.06164444
000160 53 30 74 3d 2e 2f 81 be 6f 33 9e bc 1e 33 13 bc
       0.059616398 -0.25231308 -0.019311635 -0.008984355
000170 19 83 66 be 80 c1 43 be 64 0f 77 be 06 f9 5b 3d
       -0.22510947 -0.19116783 -0.24126965 0.053704284
000180 a4 d1 43 be b2 21 26 3d 97 dc 64 be 87 77 23 bf
       -0.1912294 0.040559478 -0.22349773 -0.6385426
000190 d4 a9 8c bd 9d 2f 74 be 68 97 93 be bb ed c7 be
       -0.0686833 -0.23846288 -0.2882645 -0.3904856
0001a0 08 66 b2 be 64 2a bc 3d f2 60 32 bd 1f f2 5d 3e
       -0.3484347 0.09187773 -0.043549486 0.21674393
0001b0 2f 30 cd c0 fb bb cc 3e 65 38 c7 3c 7a b9 1c bd
       -6.412132 0.39987168 0.024318883 -0.03826282
0001c0 dc af 3f 3d aa 53 50 bd 8e 7e b3 be cd e2 23 3f
       0.046798572 -0.05086104 -0.3505749 0.64017946
0001d0 ed 4c 01 3f 04 20 a9 bf c0 b7 75 3e 1e 88 a8 be
       0.50508004 -1.3212895 0.23995876 -0.3291635
0001e0 21 4d 41 3d 75 e9 11 3f 0c 3b 14 bf 47 58 df 3a
       0.047192696 0.5699685 -0.579026 0.0017039859
0001f0 72 e7 82 be 65 bd 27 3f 6b f4 46 bd e4 73 39 bf
       -0.25567204 0.6552337 -0.04857294 -0.7244246
000200 60 32 ee be 04 71 39 bc ce 46 e9 bc 3d 5c 82 3c
       -0.46522808 -0.011318449 -0.028476145 0.015913123
000210 f2 16 a3 3f 5f 39 c8 3f 35 b3 4b bf 37 2e b8 be
       1.2741377 1.5642508 -0.79570323 -0.3597276
000220 6a a7 a5 3d ac dd 5e bd 46 fc 75 be c9 3b 8e be
       0.08088572 -0.05441062 -0.24022016 -0.27779987
000230 44 92 99 be 3e 30 fb 3c 89 c3 57 be be be a3 bd
       -0.29994404 0.030662652 -0.21070684 -0.079953656

linear1.bias f4 [16]
000000 10 e0 c3 be f0 ad 1c 3e da 6b 12 3e 66 b0 cb 3d
       -0.38256884 0.15300727 0.14298955 0.09945755
000010 8a c1 59 be 00 66 7c 3f cf de 10 3e c5 7a 63 3e
       -0.21265236 0.9859314 0.14147495 0.22214802
000020 8b e6 7f be 05 b4 95 bc 0d 38 9a be 5a 25 93 3c
       -0.24990289 -0.018274317 -0.30120888 0.017962147
000030 b3 b9 24 3f f3 cd 65 3f e2 44 83 bf 32 b9 27 be
       0.64345855 0.8976738 -1.0255396 -0.1637924

linear3.weight f4 [16, 16]
000000 1a 7a 7a 3e c0 e2 da bc d8 83 33 be 2d ba 04 be
       0.2446064 -0.026719451 -0.17530763 -0.12961645
000010 00 49 11 3e ff e9 b9 bd 68 a0 41 3d d6 89 60 bc
       0.14188004 -0.09077834 0.047272116 -0.013704738
000020 01 cb 0d be 20 66 fb bd 03 fd f2 3d a2 1d 52 be
       -0.13846971 -0.12275338 0.118646644 -0.20519117
000030 98 11 16 be b8 3c c4 be bf 0b 2e be d7 57 92 be
       -0.14655149 -0.38327575 -0.16996668 -0.2858264
000040 24 9c 08 3d 50 bd 77 bd 77 df 53 3e d0 de 82 3d
       0.033352032 -0.060483277 0.20690714 0.06390154
000050 17 27 59 be d4 01 e0 be e7 e2 64 bd 76 bc 04 3d
       -0.21206318 -0.43751395 -0.055880453 0.032406293
000060 ca 3c 22 be 51 39 53 bd bc 30 53 be b2 5a 3c be
       -0.15843502 -0.051568333 -0.2062406 -0.18393973
000070 5e 98 dc be 18 09 80 3e 54 32 ea 3c 1b ba 14 bd
       -0.43084997 0.25006938 0.028588451 -0.036310297
000080 fc 24 12 bd a4 d5 cc bd dd 51 5a 3d db ec 63 be
       -0.035679802 -0.10001686 0.053300727 -0.22258322
000090 23 3f 50 3d 9d 0f 87 3e 87 44 fc 3d 6c fe 38 3f
       0.050841462 0.263791 0.12317758 0.72263217
0000a0 a6 04 1f 3e 1a e8 2e be 18 a9 2b bc 7a 58 ca bd
       0.15529117 -0.17080727 -0.010477327 -0.09880157
0000b0 ca 0a 5f bf 1c 24 3f 3d 90 b8 09 3f f7 85 60 bb
       -0.8712584 0.046665296 0.53797245 -0.0034259537
0000c0 7b de 14 3d 2e 17 31 be 03 37 ea bd a7 d7 10 3d
       0.036344986 -0.17293999 -0.11436274 0.035361912
0000d0 78 ab 97 bd 0a cd 11 be 16 16 96 3e f2 48 2c be
       -0.07405752 -0.14238372 0.29313725 -0.16824701
0000e0 82 d1 e3 3e 94 22 dd bd 52 90 96 3e 54 91 34 be
       0.4449578 -0.10797611 0.29406983 -0.17633563
0000f0 09 d5 c8 3e a9 ad d5 bb eb 28 89 be 03 21 f0 3d
       0.39225033 -0.006520946 -0.2678903 0.117250465
000100 9e 45 0b be 90 94 61 bd 9d bd 0d 3e 72 f7 dc 3c
       -0.13600776 -0.05507332 0.13841863 0.02697346
000110 5a d1 7a 3e de d0 31 bf f9 24 19 3e 54 bc 7b bd
       0.24493924 -0.6945933 0.1495551 -0.0614589
000120 03 23 c4 3c e8 ee 14 3e 85 2b 39 be b2 0e 3e be
       0.023942476 0.1454426 -0.18083008 -0.18560293
000130 30 54 52 3e bd 79 e7 be 44 62 3e bb 83 e4 9c bd
       0.20539927 -0.45210066 -0.002905027 -0.07660773
000140 38 2f 2e be f8 ca d5 bd 74 0f 08 3e d3 ec f6 bd
       -0.170102 -0.10439104 0.13287145 -0.120568894
000150 60 27 8c bd f5 07 71 bf 07 07 1c be da e7 4d bc
       -0.06843448 -0.94152766 -0.15237056 -0.012567485
000160 19 3c c1 bd fc 49 1b 3e 88 e3 8a 3e 77 12 80 3e
       -0.09435291 0.15164942 0.27126718 0.25014088
000170 22 a0 0c bb b4 21 9d bd 9d d4 6c bc b9 e1 07 3e
       -0.0021457751 -0.07672444 -0.014454988 0.132697
000180 cc e8 6d be 9a 68 16 be bc b5 ba bd 20 aa 1f 3c
       -0.23233336 -0.1468834 -0.09116694 0.009745151
000190 9e d7 38 3e 85 7b 1d bf 80 7a e8 3c 66 bb 85 bd
       0.18051001 -0.615166 0.028378725 -0.06529884
0001a0 10 26 92 3c 31 4d a5 bd 78 73 90 3d 8d d8 93 bb
       0.017840415 -0.08071364 0.07053274 -0.004511899
0001b0 0e 44 1f be 82 4c 0a 3e 95 f3 0b bd c0 53 1f 3e
       -0.15553305 0.13505748 -0.034167845 0.15559292
0001c0 38 95 03 3d f0 cf 93 3c a2 a4 04 be da 1d c3 bd
       0.032124728 0.018043488 -0.12953427 -0.09527178
0001d0 3d 77 7c 3d d6 1e 57 be a0 7d d3 3d 7f f2 d1 3d
       0.061637152 -0.21007857 0.103266954 0.102513306
0001e0 60 16 d6 3d 10 22 12 3e 7f cf 4a 3e 02 b8 64 be
       0.104534864 0.14270806 0.19805716 -0.22335818
0001f0 10 a7 8a bf e7 27 02 bf 99 88 dd be ee ce af 3e
       -1.0832233 -0.50842136 -0.43268278 0.34337562
000200 ed 05 f2 3b a0 9a 93 bd 61 f8 28 3d 79 45 b3 bd
       0.0073859603 -0.07207227 0.041252498 -0.08753485
000210 86 f9 8e 3d 56 8c 31 3c a4 88 0a be d4 22 7d be
       0.069811866 0.010836681 -0.13528687 -0.24720317
000220 3d 4e 12 3e 28 64 78 3d 21 b5 af 3d 20 fe d9 3d
       0.14287658 0.06064239 0.085794695 0.106441736
000230 70 d9 35 3e cf 23 89 3e 09 03 59 bf 55 25 3e be
       0.17758727 0.26785132 -0.84770256 -0.18568929
000240 28 c6 56 be a8 3c 3f 3e 70 60 68 3e b3 e4 7c bd
       -0.20974028 0.18675482 0.22693038 -0.061741542
000250 fb 2d f6 bd 31 e5 5b be ea 1a 39 3d 09 80 d6 bc
       -0.12020489 -0.21474148 0.045191683 -0.026184099
000260 de 93 e0 be 32 1b 58 3e 25 b4 81 3d 63 13 3f 3e
       -0.43862814 0.21104124 0.06333188 0.18659739
000270 5c 19 20 3e 43 1a 4f be f4 79 42 bd 5b 88 07 3e
       0.15634674 -0.20224862 -0.047479585 0.13235609
000280 c2 ac 3b bd 00 b8 8f b9 bd 8e 3e be 8d 6e ca bd
       -0.04581905 -0.00027412176 -0.18609138 -0.09884367
000290 87 4b 45 3d ad 2c 5e be bc 70 09 be 34 0d 20 3e
       0.04816773 -0.2169673 -0.13421911 0.15630037
0002a0 25 0b 8e 3e 6f d0 a0 3d 92 78 b5 3c ba 78 56 be
       0.27742878 0.078522556 0.022152219 -0.20944491
0002b0 71 a9 95 bf 95 b1 bc bf 13 b1 4c 3e 52 a3 5f be
       -1.1692334 -1.4741694 0.19989423 -0.21839646
0002c0 5a 24 61 3d b4 b0 92 3d 6b 3f 29 bc ca 27 dd 3d
       0.05496631 0.0716261 -0.010330061 0.10798605
0002d0 81 c4 04 3e ac 58 6d be 2c 79 77 3c 2b 7f c5 bc
       0.12965585 -0.23178357 0.015104573 -0.02410849
0002e0 93 c0 84 bd fc 6e 8b 3d 23 2a 04 be 68 5d ce 3d
       -0.06482043 0.06808278 -0.12906699 0.100764096
0002f0 ff bf f8 bc 64 33 1b bf 0d 1f 7c be b3 40 1a bd
       -0.030364988 -0.6062529 -0.2462122 -0.03765936
000300 16 17 7e 3e 68 6c ee 3d 44 94 2d be 1b f6 32 3e
       0.24813494 0.116417706 -0.1695109 0.17476694
000310 48 56 b8 3c c7 6a f1 be 0f dd 84 bd 1d 22 46 bc
       0.02250208 -0.47151777 -0.06487476 -0.012093094
000320 36 50 93 be 28 28 8d bd 04 22 23 3e 48 c4 05 bd
       -0.28772134 -0.06892425 0.15930945 -0.03265789
000330 30 0f 19 bd 19 13 70 3d b6 5d 61 be d0 20 11 be
       -0.037368 0.058611963 -0.22008404 -0.14172673
000340 e0 e9 97 3d 30 9f 72 3e 4d d8 8e bd c8 d2 d0 3d
       0.07417655 0.23693538 -0.0697485 0.10196453
000350 53 16 88 be 6c db 6c 3e b8 34 10 3b 5a da 7c 3e
       -0.26579532 0.23130578 0.002200408 0.2469267
000360 02 14 95 3d ce 0b 49 be e9 51 cf 3d 2e 32 9b bd
       0.07279207 -0.1963341 0.10123045 -0.075779304
000370 51 8f 43 3e 51 42 e5 3d 05 68 24 c0 db 9a cb bc
       0.1909764 0.111942895 -2.5688488 -0.024854114
000380 16 59 89 3d 72 c6 1e be 08 80 20 3e 9b 5d 3b 3e
       0.06706445 -0.15505388 0.1567384 0.18297426
000390 c6 7b 61 bd d9 87 69 3e eb 2a 1a 3e cc 41 bc bd
       -0.05504968 0.22805728 0.15055434 -0.09192237
0003a0 7f ab 62 be 6d 8e 4c be e4 42 a0 3d 05 63 21 3e
       -0.22135733 -0.19976206 0.078252584 0.15760429
0003b0 95 05 58 bf ec b5 69 bd 8c 24 c3 be 10 5c 09 3e
       -0.8438352 -0.05705826 -0.3811382 0.13414025
0003c0 16 c3 54 3e 9a 2f 61 3e 20 09 51 3d fe 2a a8 bd
       0.20777544 0.21990815 0.051034093 -0.08211325
0003d0 40 4f f8 3d fd 62 bc 3e 2e 06 61 be c5 49 13 be
       0.12124491 0.36794272 -0.21975014 -0.1438361
0003e0 9b da ed 3c 82 22 30 be 24 02 78 3e 1b cf f8 3d
       0.029034903 -0.17200664 0.24219567 0.12148877
0003f0 f3 a7 4f 3f 00 52 39 be e7 53 54 3c b3 e4 9e be
       0.81115645 -0.18097687 0.012959457 -0.3103386

linear3.bias f4 [16]
000000 41 b2 98 be 78 25 e9 bf d9 07 36 c0 71 02 12 40
       -0.29823497 -1.821456 -2.844229 2.281399
000010 00 ca 66 be 90 3d f3 be 34 84 f7 be b0 4b 46 bf
       -0.22537994 -0.47507906 -0.4834305 -0.7745924
000020 c8 30 cb 3f ba f6 f9 be 67 9e d3 bf 48 05 6f be
       1.5874262 -0.4882105 -1.6532716 -0.23341858
000030 58 1c 4c bd c0 4f 06 c0 fe c7 6d 40 1f 06 67 40
       -0.04983172 -2.0986176 3.7153316 3.6097486

linear2.weight f4 [2, 16]
000000 c7 0f ae bc 1a 48 b4 bc a6 f1 45 be 6b 43 ae bd
       -0.021247758 -0.022007037 -0.19330463 -0.08508953
000010 2a 99 d5 3d 92 57 23 3e 54 75 1b 3e 66 94 da be
       0.10429604 0.15951374 0.15181476 -0.42691344
000020 94 6b 2d 3f 6d d1 f8 bc d8 45 22 be 10 05 be bd
       0.67742276 -0.0303733 -0.15846956 -0.09278309
000030 08 d0 97 bd 66 7e b0 bd f7 83 8a 3e 42 0c 99 3e
       -0.07412726 -0.086178586 0.27053806 0.29892164
000040 a2 88 82 3d e4 14 b9 3c 2e 5a 09 be f2 62 35 3e
       0.06373717 0.02259297 -0.13413307 0.17713526
000050 38 93 9d 3d f8 c3 d1 3e f6 fb a7 3e 27 9a 19 bf
       0.076940954 0.40969825 0.32809418 -0.6000084
000060 9b b2 3e 3f 93 3e a0 3d 71 ed 31 be 8d f4 e1 bd
       0.7449128 0.07824435 -0.17375733 -0.110329725
000070 49 11 93 bd d5 34 85 be 7f bd c1 3e 95 ef 89 3e
       -0.07181031 -0.2601687 0.37839887 0.269406

linear2.bias f4 [2]
000000 6c e1 36 40 ba 3d 46 be
       2.8575087 -0.19359484
