model/test7/test71.pth (torch, 4158 bytes, 6 tensors)

linear1.weight f4 [16, 9]
00000000: d845 cabe 3790 8abe 4f8e 473e 1fe7 b73b
00000010: 036d 92bd 979d cabe 7213 153d 5973 9dbe
00000020: 4b2f 63be bbae a9be 5e24 8abe 60d6 303c
00000030: 588d 08be d0c9 aebc 4317 83be 06f0 c2bd
00000040: c364 8bbe 6b42 5dbe 3a7c 63be fbde cbbd
00000050: 4238 04be ccba 60be d606 5dbe 5397 b73d
00000060: e3df 373d c0f8 98be 5ec5 b9be 415b b1be
00000070: 9530 133e 83e2 ccbc 32a4 7bbd e6b2 29be
00000080: 4094 40be 17a1 0a3c 84f7 c7bc 278f 823e
00000090: 3f61 0abc 63c9 d8bd 04b9 96bc 1205 83be
000000a0: d576 97bd 738b 1abd 5600 52be b59d 303e
000000b0: c65a c6bd 0ab3 64bd 6727 5b3e ce7f 38be
000000c0: b0c0 b13d 920e f93d be3a 13be 65fa 303d
000000d0: 272e 6f3e 39fb c63e d073 05be 40d0 353e
000000e0: be14 a6be 1035 9abd 0640 cabe 1b42 4f3e
000000f0: cc8f 34be 82f9 aebe f201 d7be 66ec 47bc
00000100: 6a12 9c3e a6e4 b63e 4a70 ed3c 606b e9bd
00000110: b275 0e3e 9086 28bf 280c 87bf 98b3 b6be
00000120: 470e ca3e 437a 27be a92e e33e 64c4 afbe
00000130: 0576 cbbb 79bc bbbd a422 acbe b74c dbbe
00000140: a213 9bbd 94dc 1abe 0b7a 5dbe 923d 963e
00000150: 4dd5 42be e738 8abe df66 9ebe e17e 7c3d
00000160: 5330 743d 2e2f 81be 6f33 9ebc 1e33 13bc
00000170: 1983 66be 80c1 43be 640f 77be 06f9 5b3d
00000180: a4d1 43be b221 263d 97dc 64be 6689 98be
00000190: be6c 833c 33e1 1bbe e7e4 10be a19b 82be
000001a0: 794f 14be ffc8 4a3e 541a 0a3e ca89 a03e
000001b0: da15 b0bf 136f 9d3e fe91 80bd 8589 0bbd
000001c0: d096 223d 39ac 403c 1020 7cbe fa5d 003e
000001d0: 1ac5 e53e ff50 53bf 789c cfbc 2045 113e
000001e0: adf4 ce3d 9fd9 803e 7531 6fbe fd4e 963d
000001f0: 223b a23e 45d3 3ebe ef08 993c b9a9 0abf
00000200: 9506 d2be fe3b 71bd 0ef0 ec3d 95ba 1dbd
00000210: 9aa9 683f a9d1 b83f 384d b4be 9a67 87be
00000220: 3e73 343e 43d7 323d 1de9 18be 5953 46be
00000230: ed6c 79be 894a c33d bbcd 1fbe 4feb 2e3c
-0.39506412 -0.27063152 0.1948788 0.0056122686 -0.071496986 -0.39573357 0.036395498 -0.30752066
-0.2218601 -0.3314112 -0.2698087 0.0107932985 -0.13335168 -0.021336466 -0.25603685 -0.09518437
-0.27225313 -0.21607368 -0.22215357 -0.099546395 -0.12912086 -0.21946257 -0.21584639 0.0896441
0.04489125 -0.2987728 -0.36283392 -0.34639934 0.14374001 -0.025010353 -0.061435886 -0.1657215
-0.18806553 0.008461258 -0.024410017 0.25499842 -0.008446037 -0.105852865 -0.01839877 -0.25589806
-0.07395712 -0.037730645 -0.2050794 0.1724766 -0.096852824 -0.055834807 0.2140175 -0.18017504
0.0867933 0.12160982 -0.14377877 0.043207545 0.2335745 0.38863543 -0.1303246 0.17755222
-0.324377 -0.07529652 -0.3950197 0.20240061 -0.17632979 -0.34174734 -0.41993672 -0.012202358
0.304828 0.3572132 0.028984208 -0.11397433 0.13912085 -0.65830326 -1.0550585 -0.35683894
0.39464018 -0.16355233 0.44371536 -0.34329522 -0.0062091374 -0.09166808 -0.3362018 -0.42831966
-0.07572104 -0.15123206 -0.21628587 0.2934385 -0.1902668 -0.26996538 -0.3093786 0.06164444
0.059616398 -0.25231308 -0.019311635 -0.008984355 -0.22510947 -0.19116783 -0.24126965 0.053704284
-0.1912294 0.040559478 -0.22349773 -0.29792327 0.016043063 -0.15222625 -0.1414982 -0.2550936
-0.14483441 0.19803236 0.13486606 0.31355125 -1.3756669 0.30748805 -0.06277846 -0.034066696
0.039694607 0.011759811 -0.24621606 0.12535849 0.4487694 -0.82545465 -0.025343165 0.14186525
0.10105262 0.25166032 -0.2335871 0.073392846 0.3168574 -0.1863528 0.018681018 -0.54165226
-0.41020647 -0.058895104 0.11569224 -0.038508017 0.9088379 1.4438983 -0.35215163 -0.2644623
0.17622086 0.04366232 -0.14932676 -0.19367732 -0.24357958 0.09535701 -0.15605824 0.010676219

linear1.bias f4 [16]
00000000: 10e0 c3be f0ad 1c3e da6b 123e 685f 063e
00000010: 8ac1 59be 9b7e ca3e cfde 103e bd57 523e
00000020: 2698 21be 05b4 95bc 0d38 9abe 7f0d eb3d
00000030: cf4e 163f 20c8 653d 48fd 14bf 35d6 95bd
-0.38256884 0.15300727 0.14298955 0.13122332 -0.21265236 0.39549717 0.14147495 0.20541282
-0.15780696 -0.018274317 -0.30120888 0.114771836 0.58714 0.056099057 -0.58198977 -0.073162474

linear3.weight f4 [16, 16]
00000000: 1a7a 7a3e c0e2 dabc d883 33be 2dba 04be
00000010: 0049 113e ffe9 b9bd 68a0 413d d689 60bc
00000020: 01cb 0dbe 2066 fbbd 03fd f23d a21d 52be
00000030: 9811 16be b83c c4be bf0b 2ebe d757 92be
00000040: 249c 083d 50bd 77bd 77df 533e d0de 823d
00000050: 1727 59be 56a2 afbd e7e2 64bd 456f a53e
00000060: 3c13 3dbe 5139 53bd bc30 53be f16e 1abd
00000070: bc67 08bf 6acb 743e 1029 923e 79f1 ffbc
00000080: fc24 12bd a4d5 ccbd dd51 5a3d a465 43be
00000090: 233f 503d ff4f 973c 8744 fc3d 4088 003f
000000a0: c5d3 033e 1ae8 2ebe 18a9 2bbc 3666 0fbd
000000b0: fab7 bdbe 7d75 083e c178 bf3e d7b4 52bc
000000c0: 7bde 143d 2e17 31be 0337 eabd 44ad 6b3b
000000d0: 78ab 97bd 6986 613e 1616 963e 8073 d3be
000000e0: 82d1 e33e 9422 ddbd 5290 963e ba08 39be
000000f0: d134 9b3e 1046 9b3d 55f1 28bf 36ae e63d
00000100: 9e45 0bbe 9094 61bd 9dbd 0d3e 72f7 dc3c
00000110: 5ad1 7a3e 1d44 10bf f924 193e 54bc 7bbd
00000120: 0323 c43c e8ee 143e 852b 39be 5716 2ebe
00000130: 3054 523e d0a8 c5be 676e 4f3d 69d8 abbd
00000140: 382f 2ebe f8ca d5bd 740f 083e d3ec f6bd
00000150: 6027 8cbd a850 05bf 0707 1cbe 7d36 0c3a
00000160: 193c c1bd fc49 1b3e 88e3 8a3e 0e25 e13d
00000170: 22a0 0cbb 23b7 a7be 00de 0a3e 619b 0cbd
00000180: cce8 6dbe 9a68 16be bcb5 babd 20aa 1f3c
00000190: 9ed7 383e e55e 80be 807a e83c 829b b1bd
000001a0: 1026 923c 314d a5bd 7873 903d 4e34 bd3b
000001b0: 0e44 1fbe 450a 7d3c e674 673d 54b3 c23b
000001c0: 3895 033d f0cf 933c a2a4 04be da1d c3bd
000001d0: 3d77 7c3d c6d8 5dbd a07d d33d c447 be3e
000001e0: d9fb 883d 1022 123e 7fcf 4a3e 02b8 64be
000001f0: 9aaf f7be c011 17bd b0ca d0be a87a 953e
00000200: ed05 f23b a09a 93bd 61f8 283d e353 f4bd
00000210: 86f9 8e3d e43d 4bbd a488 0abe b08c 6fbe
00000220: 3d4e 123e 2864 783d 21b5 af3d e00f 973d
00000230: f3c7 453e 3384 be3e a8b4 28bf 86ef 2ebe
00000240: 28c6 56be a83c 3f3e 7060 683e b3e4 7cbd
00000250: fb2d f6bd 31e5 5bbe ea1a 393d 0980 d6bc
00000260: de93 e0be 321b 583e 25b4 813d 6313 3f3e
00000270: 5c19 203e 431a 4fbe f479 42bd 5b88 073e
00000280: c2ac 3bbd 00b8 8fb9 bd8e 3ebe 8d6e cabd
00000290: 874b 453d 58c7 6dbe bc70 09be 10d7 793e
000002a0: d931 853e 6fd0 a03d 9278 b53c 9f6b b4bd
000002b0: 4506 0cbf dd2a 8fbe 6baf 8e3e 0181 69be
000002c0: 5a24 613d b4b0 923d 6b3f 29bc ca27 dd3d
000002d0: 81c4 043e ac58 6dbe 2c79 773c 2b7f c5bc
000002e0: 93c0 84bd fc6e 8b3d 232a 04be 685d ce3d
000002f0: ffbf f8bc 6433 1bbf 0d1f 7cbe b340 1abd
00000300: 1617 7e3e 686c ee3d 4494 2dbe 1bf6 323e
00000310: 4856 b83c c76a f1be 0fdd 84bd 1d22 46bc
00000320: 3650 93be 2828 8dbd 0422 233e 48c4 05bd
00000330: 300f 19bd 1913 703d b65d 61be d020 11be
00000340: e0e9 973d 309f 723e 4dd8 8ebd 94f0 083e
00000350: 5316 88be 3921 7f3d b834 103b 94f9 223e
00000360: fb18 2d3c ce0b 49be e951 cf3d 8839 4cbd
00000370: 80a1 bdbd 6efe c4bc 8975 91be 7caa 8bbc
00000380: 1659 893d 72c6 1ebe 0880 203e 68d6 1a3e
00000390: c67b 61bd c32a 023e eb2a 1a3e cf54 70bd
000003a0: 0c55 95be 6d8e 4cbe e442 a03d 6511 863e
000003b0: 53bb 13bd 369c d9bd 314d 023c 3968 143e
000003c0: 16c3 543e 9a2f 613e 2009 513d 6439 e9bd
000003d0: 404f f83d 1c52 923e 2e06 61be a59c d8bd
000003e0: 1fc0 5ebc 8222 30be 2402 783e d08a c93d
000003f0: 7d86 ab3e 0ff6 6dbe 96a8 2fbe 7914 91be
0.2446064 -0.026719451 -0.17530763 -0.12961645 0.14188004 -0.09077834 0.047272116 -0.013704738
-0.13846971 -0.12275338 0.118646644 -0.20519117 -0.14655149 -0.38327575 -0.16996668 -0.2858264
0.033352032 -0.060483277 0.20690714 0.06390154 -0.21206318 -0.08575885 -0.055880453 0.32311454
-0.18464369 -0.051568333 -0.2062406 -0.03770346 -0.53283286 0.23905721 0.28546953 -0.031243073
-0.035679802 -0.10001686 0.053300727 -0.19081742 0.050841462 0.018470762 0.12317758 0.502079
0.12873752 -0.17080727 -0.010477327 -0.035009585 -0.37054425 0.13326068 0.37396815 -0.012860498
0.036344986 -0.17293999 -0.11436274 0.0035961429 -0.07405752 0.2202393 0.29313725 -0.41299057
0.4449578 -0.10797611 0.29406983 -0.18069735 0.30313733 0.07581723 -0.65993243 0.11263697
-0.13600776 -0.05507332 0.13841863 0.02697346 0.24493924 -0.5635393 0.1495551 -0.0614589
0.023942476 0.1454426 -0.18083008 -0.1700071 0.20539927 -0.38605356 0.050642397 -0.08390886
-0.170102 -0.10439104 0.13287145 -0.120568894 -0.06843448 -0.52076197 -0.15237056 0.00053486956
-0.09435291 0.15164942 0.27126718 0.10993396 -0.0021457751 -0.3275691 0.13561249 -0.03432787
-0.23233336 -0.1468834 -0.09116694 0.009745151 0.18051001 -0.250724 0.028378725 -0.08672239
0.017840415 -0.08071364 0.07053274 0.0057740575 -0.15553305 0.015444343 0.056507967 0.0059417877
0.032124728 0.018043488 -0.12953427 -0.09527178 0.061637152 -0.05416181 0.103266954 0.37164128
0.06688661 0.14270806 0.19805716 -0.22335818 -0.4837616 -0.036882162 -0.40779638 0.29195142
0.0073859603 -0.07207227 0.041252498 -0.119300626 0.069811866 -0.04961957 -0.13528687 -0.23393512
0.14287658 0.06064239 0.085794695 0.07376075 0.19314556 0.37210235 -0.6590066 -0.17083558
-0.20974028 0.18675482 0.22693038 -0.061741542 -0.12020489 -0.21474148 0.045191683 -0.026184099
-0.43862814 0.21104124 0.06333188 0.18659739 0.15634674 -0.20224862 -0.047479585 0.13235609
-0.04581905 -0.00027412176 -0.18609138 -0.09884367 0.04816773 -0.23220575 -0.13421911 0.24398446
0.26014593 0.078522556 0.022152219 -0.088095896 -0.54697067 -0.2796239 0.27868208 -0.22803117
0.05496631 0.0716261 -0.010330061 0.10798605 0.12965585 -0.23178357 0.015104573 -0.02410849
-0.06482043 0.06808278 -0.12906699 0.100764096 -0.030364988 -0.6062529 -0.2462122 -0.03765936
0.24813494 0.116417706 -0.1695109 0.17476694 0.02250208 -0.47151777 -0.06487476 -0.012093094
-0.28772134 -0.06892425 0.15930945 -0.03265789 -0.037368 0.058611963 -0.22008404 -0.14172673
0.07417655 0.23693538 -0.0697485 0.13373023 -0.26579532 0.062287543 0.002200408 0.15915519
0.010565038 -0.1963341 0.10123045 -0.049859554 -0.09259319 -0.024047103 -0.28409985 -0.017049067
0.06706445 -0.15505388 0.1567384 0.15120852 -0.05504968 0.12711625 0.15055434 -0.05867463
-0.29166448 -0.19976206 0.078252584 0.26185146 -0.03606732 -0.10625498 0.007952974 0.14492883
0.20777544 0.21990815 0.051034093 -0.113878995 0.12124491 0.2857827 -0.21975014 -0.105767526
-0.01359561 -0.17200664 0.24219567 0.098409295 0.33501044 -0.23238395 -0.17154154 -0.28335932

linear3.bias f4 [16]
00000000: 41b2 98be 207a 16bf 2782 f1be 9e40 663f
00000010: 7f93 19be 871d 8fbe c23f bfbe 90f3 debd
00000020: 7454 9a3e baf6 f9be 8e95 b7be 4805 6fbe
00000030: 581c 4cbd ee35 febe 5f42 403f e892 353f
-0.29823497 -0.587801 -0.4716961 0.8994235 -0.14997672 -0.27952215 -0.3735333 -0.108862996
0.30142558 -0.4882105 -0.3585629 -0.23341858 -0.04983172 -0.4965052 0.75101274 0.70927286

linear2.weight f4 [2, 16]
00000000: c70f aebc 10be 34be cd20 99be b904 a33e
00000010: 98ec 373e 40d5 9d3d b5ea 113d 8005 44be
00000020: 4e22 1a3f 6dd1 f8bc 3538 65be 1005 bebd
00000030: 08d0 97bd 507c cebd c2af 2a3e 3ce3 933e
00000040: a288 823d 84fb 2bbe edb5 88be 0a7c ae3e
00000050: 21cb 823c 6b79 583e a57e 0b3e 55ad 6ebe
00000060: 0875 003f 933e a03d b3e1 3dbe 8df4 e1bd
00000070: 4911 93bd 9b7b 19be 1483 a13e dddb 623e
-0.021247758 -0.17650628 -0.29907838 0.3183954 0.17961347 0.0770669 0.035624225 -0.19142723
0.60208595 -0.0303733 -0.22384723 -0.09278309 -0.07412726 -0.100823045 0.16668609 0.28884304
0.06373717 -0.16795164 -0.26701298 0.3407901 0.015966 0.21140067 0.1362253 -0.23308308
0.50178576 0.07824435 -0.18543129 -0.110329725 -0.07181031 -0.14988558 0.31545317 0.22154184

linear2.bias f4 [2]
00000000: 4166 853f 84da 00bc
1.042183 -0.007864598
