model/test7/test70.pth (torch, 4158 bytes, 6 tensors)

linear1.weight f4 [16, 9]
0	0xbea9c53c	-0.3315829
1	0xbe5412f7	-0.2071036
2	0x3e844e57	0.2584102
3	0x3d8d930d	0.06912813
4	0xbc02be14	-0.0079798885
5	0xbeaa19ae	-0.33222717
6	0x3dcc9ac1	0.099904545
7	0xbe79ddbe	-0.24400994
8	0xbe22244e	-0.15834162
9	0xbea9aebb	-0.3314112
10	0xbe8a245e	-0.2698087
11	0x3c30d660	0.0107932985
12	0xbe088d58	-0.13335168
13	0xbcaec9d0	-0.021336466
14	0xbe831743	-0.25603685
15	0xbdc2f006	-0.09518437
16	0xbe8b64c3	-0.27225313
17	0xbe5d426b	-0.21607368
18	0xbdf4fa6d	-0.119618274
19	0x3b4535c5	0.0030091864
20	0xbcd99f76	-0.026565295
21	0xbdef7c8a	-0.11693676
22	0xbde804f2	-0.11329068
23	0x3e44cff5	0.19219954
24	0x3e1733c9	0.14765848
25	0xbe48ed73	-0.1962183
26	0xbe85445a	-0.2602871
27	0xbea117a9	-0.31463364
28	0x3e33b7cf	0.17550586
29	0x3bdd5cef	0.0067554633
30	0xbcf30eab	-0.02967008
31	0xbe092bac	-0.13395566
32	0xbe200d06	-0.15629968
33	0x3d24c529	0.04022709
34	0xbd6618a1	-0.05617583
35	0x3e92d2be	0.2867641
36	0x3cbf0924	0.023319788
37	0xbd97baf8	-0.07408708
38	0x3c5b016e	0.01336704
39	0xbe6582ef	-0.22413228
40	0xbd2cd0d0	-0.042191327
41	0xbbc374c0	-0.0059648454
42	0xbe728790	-0.23684525
43	0x3e10167e	0.1407108
44	0xbd854c94	-0.06508747
45	0x3e434eb9	0.19072999
46	0x3e6ec97d	0.23319049
47	0x3d749f5d	0.059722293
48	0x3cb33c64	0.021879382
49	0x3ca929d3	0.020649826
50	0xbe24edba	-0.1610631
51	0x3d69fbde	0.057124965
52	0xbccbba1b	-0.024869015
53	0x3e746a79	0.23868741
54	0xbe0573d0	-0.1303246
55	0x3e35d040	0.17755222
56	0xbea614be	-0.324377
57	0xbd9a3510	-0.07529652
58	0xbeca4006	-0.3950197
59	0x3e4f421b	0.20240061
60	0xbe348fcc	-0.17632979
61	0xbeaef982	-0.34174734
62	0xbed701f2	-0.41993672
63	0xbcaf2c8b	-0.021383544
64	0x3e82fdf2	0.2558437
65	0x3e7290bc	0.23688024
66	0x3d2e2086	0.042511486
67	0xbdfa04a7	-0.122079186
68	0x3db40b45	0.08791212
69	0xbf02c12b	-0.51076
70	0xbf0d241b	-0.5513322
71	0xbeab8f53	-0.33507785
72	0x3eae925f	0.34096047
73	0xbcf3b6d3	-0.029750263
74	0x3ee73318	0.4515617
75	0xbe4a2a84	-0.19742781
76	0x3e2805eb	0.16408508
77	0xbccad08e	-0.02475765
78	0xbed6dc1b	-0.41964802
79	0xbf10d1e5	-0.56570274
80	0x3e1100f0	0.14160514
81	0xbe0591eb	-0.13043945
82	0xbe481160	-0.19537878
83	0x3ea0f1e7	0.31434557
84	0xbe2d7696	-0.16939768
85	0xbe7f0928	-0.24905837
86	0xbe93b28a	-0.28847152
87	0x3da92524	0.08259037
88	0x3da4e980	0.08052349
89	0xbe6cf586	-0.23140535
90	0x3c4c0ca9	0.01245419
91	0x3cbaa038	0.022781476
92	0xbe45fbdf	-0.19334362
93	0xbe233a46	-0.15940198
94	0xbe56882a	-0.2095038
95	0x3daf0af5	0.08547012
96	0xbe6458de	-0.22299525
97	0x3c101357	0.0087936735
98	0xbe445560	-0.19173193
99	0xbe44476b	-0.19167869
100	0x3cef8a90	0.029240876
101	0xbdfc3d76	-0.1231641
102	0xbdd997dc	-0.10624668
103	0xbe63aeab	-0.222346
104	0xbd4d73c0	-0.050159216
105	0x3e38b65a	0.18038312
106	0x3e123666	0.14278564
107	0x3ea497d9	0.321471
108	0xbf814e9d	-1.0102116
109	0x3e5c3c6d	0.21507426
110	0xbd4da1da	-0.05020318
111	0xbd9d9c26	-0.076957986
112	0xbd1a767d	-0.037710655
113	0x3d95a0b9	0.07306046
114	0xbea2e2fa	-0.31813794
115	0x3e0d9ef9	0.13830175
116	0x3e96f806	0.29486102
117	0xbe38f7a0	-0.18063211
118	0xbddcf456	-0.10788791
119	0x3c8bc44e	0.017061379
120	0x3e6a943f	0.22908114
121	0x3e75d117	0.24005543
122	0xbe47349c	-0.19453663
123	0x3db40e1a	0.08791752
124	0x3ec9026d	0.39259663
125	0xbe827091	-0.25476506
126	0xbd92d6ae	-0.07169853
127	0xbef0b72a	-0.47014743
128	0xbe9aed11	-0.30258992
129	0xbcb03b0b	-0.021512529
130	0x3df5f91c	0.120104045
131	0xbdc7120d	-0.0972024
132	0x3f5e89f9	0.8692928
133	0x3f883837	1.0642155
134	0xbe90993c	-0.2824191
135	0xbe7250f1	-0.23663689
136	0x3e613cf5	0.2199591
137	0x3dbea93a	0.09309621
138	0xbdeba1d8	-0.115054786
139	0xbe21bb04	-0.15793997
140	0xbe56751b	-0.2094311
141	0x3df2e592	0.11860193
142	0xbe1f3c73	-0.15550403
143	0x3d4cfdd1	0.050046746

linear1.bias f4 [16]
0	0xbea35a95	-0.31905046
1	0x3e1cadf0	0.15300727
2	0x3e7b6de9	0.24553646
3	0x3e26e69f	0.16298912
4	0xbe393a70	-0.18088698
5	0x3e7b713b	0.24554913
6	0x3e10decf	0.14147495
7	0x3e689ff9	0.22717275
8	0x3d73caaf	0.059519466
9	0x3b2c9600	0.0026334524
10	0xbe89f476	-0.2694432
11	0x3dfb45b0	0.12269151
12	0x3eddd0a6	0.4332325
13	0xbc49c27f	-0.012314438
14	0xbf0322d8	-0.5122504
15	0xbd0a6969	-0.033791933

linear3.weight f4 [16, 16]
0	0x3e7a7a1a	0.2446064
1	0xbcdae2c0	-0.026719451
2	0xbe3383d8	-0.17530763
3	0xbe04ba2d	-0.12961645
4	0x3e114900	0.14188004
5	0x3b93ddbc	0.004512517
6	0x3d41a068	0.047272116
7	0x3da6b4af	0.081399314
8	0xbdda8795	-0.106703915
9	0xbdfb6620	-0.12275338
10	0x3df2fd03	0.118646644
11	0xbe521da2	-0.20519117
12	0xbdeb1502	-0.11478616
13	0xbeb3f92f	-0.3515105
14	0xbe2e0bbf	-0.16996668
15	0xbe9257d7	-0.2858264
16	0x3acfecb5	0.0015863391
17	0xbd77bd50	-0.060483277
18	0x3e420b3e	0.18949601
19	0x3d03a0ce	0.032135777
20	0xbe389fde	-0.18029734
21	0x3d6d1d21	0.057889108
22	0xbd64e2e7	-0.055880453
23	0x3ea236a6	0.31682318
24	0xbdc3e5b2	-0.09565295
25	0xbc9e0890	-0.019291192
26	0xbe32a983	-0.17447476
27	0x3b1e8a00	0.002419114
28	0xbeef6259	-0.4675472
29	0xbdd85c12	-0.10564436
30	0x3e90d1d9	0.282851
31	0xbc1f682d	-0.009729427
32	0xbdb53fd9	-0.088500686
33	0xbdccd5a4	-0.10001686
34	0x3d132a84	0.035929218
35	0xbe63ecdd	-0.22258325
36	0x3da92dfd	0.08260725
37	0x3da54e01	0.08071519
38	0x3dfc4487	0.12317758
39	0x3ed70c9d	0.4200181
40	0x3e4b8faa	0.19879022
41	0xbe0ddc4e	-0.13853571
42	0x3cae6533	0.02128849
43	0x3b80dbc0	0.0039324462
44	0xbeae24ba	-0.34012395
45	0xbda51113	-0.08059897
46	0x3ea932ac	0.33046472
47	0x3c10f323	0.008847031
48	0x3d8b7dac	0.068110794
49	0xbe31172e	-0.17293999
50	0xbda9289f	-0.08259701
51	0x3d10d7b0	0.035361946
52	0xbd97ab78	-0.07405752
53	0x3e460841	0.19339086
54	0x3e961616	0.29313725
55	0xbeb057e8	-0.34442067
56	0x3e6899de	0.22714946
57	0xbddd2294	-0.10797611
58	0x3e969052	0.29406983
59	0xbe3908ba	-0.18069735
60	0x3e3f1ff5	0.18664534
61	0x3e559b44	0.2086001
62	0xbf1de406	-0.6167606
63	0x3de48549	0.111582346
64	0xbe0b459e	-0.13600776
65	0xbd619490	-0.05507332
66	0x3e0dbd9d	0.13841863
67	0x3cdcf772	0.02697346
68	0x3e7ad15a	0.24493924
69	0xbef0184c	-0.46893537
70	0x3e1924f9	0.1495551
71	0xbcf33ee7	-0.02969308
72	0x3d642e63	0.0557083
73	0x3e14eee8	0.1454426
74	0xbe392b85	-0.18083008
75	0xbdda6114	-0.106630474
76	0x3e72db6a	0.23716512
77	0xbec9cc48	-0.39413667
78	0x3d9b9502	0.0759678
79	0xbd5593f7	-0.052143063
80	0xbe2e2f38	-0.170102
81	0xbdd5caf8	-0.10439104
82	0x3e080f74	0.13287145
83	0xbdf6ecd3	-0.120568894
84	0xbd8c2760	-0.06843448
85	0xbeedfe85	-0.46483245
86	0xbe1c0707	-0.15237056
87	0x3dd2977f	0.10282802
88	0x3c5c86bb	0.013459857
89	0x3e1b49fc	0.15164942
90	0x3e8ae388	0.27126718
91	0x3d42dbd8	0.04757294
92	0x3d6758e6	0.056481265
93	0xbec1add8	-0.37827945
94	0x3c939da1	0.0180195
95	0xbdb9af2d	-0.09066615
96	0xbe4d6232	-0.2005699
97	0xbe16689a	-0.1468834
98	0xbe27ae2c	-0.16375035
99	0x3c1faa20	0.009745151
100	0x3e38d79e	0.18051001
101	0xbe69055e	-0.22755954
102	0x3ce87a80	0.028378725
103	0xbd611a30	-0.054956615
104	0x3c922610	0.017840415
105	0xbd893ce8	-0.0670107
106	0x3d907378	0.07053274
107	0xbcf3a060	-0.029739559
108	0xbe1f440e	-0.15553305
109	0xbcd72f10	-0.026267558
110	0x3d305be0	0.04305637
111	0xbc3ca680	-0.011514306
112	0x39bc303c	0.00035894092
113	0x3c93cff0	0.018043488
114	0xbe04a4a2	-0.12953427
115	0xbe021620	-0.12703753
116	0x3dbf4a08	0.09340292
117	0x3c2116ee	0.009832127
118	0x3dd37da0	0.103266954
119	0x3ebb5f9c	0.36596382
120	0x3e2b578d	0.16732617
121	0x3e122210	0.14270806
122	0x3e6b56b8	0.229823
123	0xbe64b802	-0.22335818
124	0xbf01256f	-0.50447744
125	0xbd76403d	-0.060119856
126	0xbf04e36a	-0.51909506
127	0x3e957aa8	0.29195142
128	0x3d205d98	0.039151758
129	0xbd939aa0	-0.07207227
130	0x3d958a9c	0.07301828
131	0xbdb3457c	-0.087534875
132	0x3d8ef986	0.069811866
133	0xbdf38ddd	-0.11892293
134	0xbe0a88a4	-0.13528687
135	0xbdd4c77f	-0.10389613
136	0x3e185361	0.14875557
137	0x3d786428	0.06064239
138	0x3dafb521	0.085794695
139	0x3d970fe0	0.07376075
140	0xbd751a01	-0.059839252
141	0x3e5b67d3	0.21426325
142	0xbeace2d9	-0.3376682
143	0xbe3037e5	-0.17208822
144	0xbe56c628	-0.20974028
145	0x3e3f3ca8	0.18675482
146	0x3e847359	0.25869253
147	0xbd7ce4b3	-0.061741542
148	0xbdf62dfb	-0.12020489
149	0xbd94c8c1	-0.07264853
150	0x3d391aea	0.045191683
151	0x3dcd3bf5	0.100212015
152	0xbea60229	-0.32423523
153	0x3e78a1de	0.24280497
154	0x3d81b425	0.06333188
155	0x3e5f9a78	0.21836269
156	0x3e7a47b9	0.24441423
157	0xbd958704	-0.07301143
158	0xbc80ba58	-0.015713856
159	0x3e07885b	0.13235609
160	0xbd9ee4c3	-0.077584766
161	0xb98fb800	-0.00027412176
162	0xbe2fe1d9	-0.17175998
163	0xbdca6e8d	-0.09884367
164	0x3da3b430	0.079933524
165	0xbe272b68	-0.16325152
166	0xbe0970bc	-0.13421911
167	0x3e593a04	0.21213537
168	0x3eb20660	0.3477049
169	0x3de2eb6c	0.110800594
170	0x3d5cd929	0.053918038
171	0xbd46bea8	-0.048521668
172	0xbf0e1914	-0.55507016
173	0x3df5debf	0.12005376
174	0x3e802da7	0.2503483
175	0xbe5bc154	-0.21460468
176	0x3d61245a	0.05496631
177	0x3d92b0b4	0.0716261
178	0xbc293f6b	-0.010330061
179	0x3ddd27ca	0.10798605
180	0x3e254bb8	0.16142166
181	0xbdf44875	-0.119278826
182	0x3c77792c	0.015104573
183	0x3db372dd	0.08762143
184	0xbad067b4	-0.0015900047
185	0x3d8b6efc	0.06808278
186	0xbdc745de	-0.09730123
187	0x3dce5d68	0.100764096
188	0xbd98b499	-0.07456321
189	0xbf062c59	-0.5241142
190	0xbe7c1f0d	-0.2462122
191	0xbd1a40b3	-0.03765936
192	0x3e7e1716	0.24813494
193	0x3dee6c68	0.116417706
194	0xbe2d9444	-0.1695109
195	0x3e32f61b	0.17476694
196	0x3cb85648	0.02250208
197	0xbec1749e	-0.37784284
198	0xbd84dd0f	-0.06487476
199	0x3e0546d4	0.130153
200	0xbe74496d	-0.23856135
201	0xbd8d2828	-0.06892425
202	0x3e232204	0.15930945
203	0xbd05c448	-0.03265789
204	0xbbb79297	-0.0056021917
205	0x3d6ed8cd	0.058312226
206	0xbe40d686	-0.18831834
207	0xbe1120d0	-0.14172673
208	0x3d2db6f4	0.042410806
209	0x3e729f30	0.23693538
210	0xbd8ed84d	-0.0697485
211	0x3dd0d2ba	0.10196443
212	0xbe6fa576	-0.23402962
213	0x3c0d280a	0.008615503
214	0x3b1034b8	0.002200408
215	0x3e52a47a	0.20570555
216	0x3e15d091	0.14630343
217	0xbe490bce	-0.1963341
218	0x3e083029	0.13299622
219	0xbd4c3988	-0.049859554
220	0xbe138cee	-0.14409229
221	0xbcef8e85	-0.029242763
222	0xbe596774	-0.2123087
223	0x3c18f0e9	0.009334781
224	0x3e05baf0	0.13059592
225	0xbe1ec672	-0.15505388
226	0x3e3244b8	0.17409027
227	0x3e1ad668	0.15120852
228	0xbd617bc6	-0.05504968
229	0xbe1fbc8f	-0.15599273
230	0x3e1a2aeb	0.15055434
231	0x3da3db67	0.08000832
232	0xbe404276	-0.18775353
233	0xbe6d993a	-0.23202983
234	0x3da042e4	0.078252584
235	0x3e68ab86	0.22721681
236	0xbe2acd8b	-0.16679971
237	0xbe63f5e6	-0.22261772
238	0x3dfc81b9	0.1232943
239	0x3dfa3662	0.12217404
240	0x3e54c316	0.20777544
241	0x3e612f9a	0.21990815
242	0x3d510920	0.051034093
243	0xbda82b04	-0.082113296
244	0x3df84f40	0.12124491
245	0x3e141434	0.14460832
246	0xbe61062e	-0.21975014
247	0xbe3e8158	-0.18604028
248	0xbdb38891	-0.08766282
249	0xbe302282	-0.17200664
250	0x3e780224	0.24219567
251	0x3dc98ad0	0.098409295
252	0x3e3745fa	0.17897788
253	0xbe59eaec	-0.21281022
254	0xbe176486	-0.1478444
255	0xbe8e2696	-0.27763814

linear3.bias f4 [16]
0	0xbe4fd5a3	-0.2029634
1	0xbe8fbd3f	-0.2807407
2	0xbcf607ac	-0.030032955
3	0x3ec7fd5b	0.39060482
4	0xbefaf9ad	-0.49018613
5	0xbeb6245d	-0.35574618
6	0xbe609372	-0.21931246
7	0x3dd041dc	0.10168812
8	0xbb57de2a	-0.0032938817
9	0xbeb6b64d	-0.3568596
10	0x3c58eb65	0.013239716
11	0xbdb326a6	-0.08747606
12	0x3dc04972	0.093890086
13	0xbd975257	-0.07388752
14	0xbd1bdba7	-0.038051274
15	0xbe17006e	-0.14746258

linear2.weight f4 [2, 16]
0	0xbd592475	-0.053013284
1	0xbe120dd5	-0.14263089
2	0xbe99c025	-0.30029407
3	0x3e8cd074	0.27502787
4	0x3da040a9	0.07824833
5	0x3dd52a11	0.10408414
6	0xbd332248	-0.043733865
7	0xbe28957a	-0.16463271
8	0x3e12fab0	0.14353442
9	0x3da839b5	0.08214132
10	0xbe86d17b	-0.26331696
11	0xbdfeb8ba	-0.124375775
12	0xbd90ee8f	-0.070767514
13	0xbde5c821	-0.11219812
14	0x3e6235c2	0.2209082
15	0x3cf11279	0.029427754
16	0x3dc376cb	0.09544142
17	0xbe3054c5	-0.17219837
18	0xbe7fae7d	-0.24968906
19	0x3e85b0c9	0.2611144
20	0x3c5c75e6	0.013455844
21	0x3de2321d	0.110447146
22	0x3dc7c0b8	0.09753555
23	0xbe37668e	-0.17910215
24	0x3dd74fb3	0.10513248
25	0x3da70521	0.08155275
26	0xbe8f4a04	-0.27986157
27	0xbc9fb95a	-0.019497562
28	0xbe19364e	-0.14962122
29	0xbe1e647a	-0.15468016
30	0x3e37ca93	0.1794837
31	0x3dabc199	0.08386535

linear2.bias f4 [2]
0	0x3ea2c01d	0.31787196
1	0x3de22038	0.110413015
