model/test6/test66.pth (torch, 3518 bytes, 6 tensors)

linear1.weight f4 [12, 7]
0.013680482 -0.3364763 0.3457291 0.08482558 -0.31764522 -0.343614 -0.2179924 -0.028346905
-0.31180158 -0.26755166 -0.19837035 -0.04206255 0.12353777 0.06557491 -0.4083473 -0.23726018
0.1452694 -0.2442016 0.23188457 -0.050288126 -0.17643563 -0.36491653 0.118113644 0.23830764
-0.48540086 0.15460873 -0.4562183 -0.04046827 -2.1514585 0.18064564 -0.17970024 -0.27224588
0.48068652 -0.14770618 0.1468749 0.016539697 -0.37058356 -0.065100476 0.28112364 0.11713542
-0.16372392 0.35254145 -0.8045764 -0.044694707 -0.50733507 0.016331824 -0.26838306 0.43102756
0.7629015 -0.3312399 -0.2544473 0.10019496 -0.059483856 -0.0079860985 0.015922189 -0.19920956
0.24731681 0.35116583 0.40839592 0.06562692 0.26185405 -0.07338805 -0.8113234 0.023074165
-0.5466452 -0.26467004 -0.4172347 -0.354754 -0.21028432 0.17775844 0.34293342 -0.882126
-0.094834544 0.20413953 -0.56611556 0.5977753 1.0443196 0.18739605 0.042771842 -0.71467674
-0.03190727 0.34462866 -0.13056414 0.9714301
00000000: 1a24 603c 9f46 acbe 6803 b13e 09b9 ad3d
00000010: 65a2 a2be 2dee afbe 6639 5fbe c537 e8bc
00000020: 75a4 9fbe 88fc 88be 9921 4bbe c849 2cbd
00000030: 5f01 fd3d 234c 863d e612 d1be 55f4 72be
00000040: 80c1 143e fc0f 7abe 2673 6d3e ecfa 4dbd
00000050: 8bab 34be 57d6 babe 91e5 f13d eb06 743e
00000060: 7686 f8be c051 1e3e 7295 e9be 0fc2 25bd
00000070: 7fb1 09c0 2cfb 383e 5703 38be d063 8bbe
00000080: 8b1c f63e 4a40 17be 6066 163e 427e 873c
00000090: 21bd bdbe 6653 85bd 70ef 8f3e b2e4 ef3d
000000a0: 3ea7 27be 5080 b43e b8f8 4dbf cc11 37bd
000000b0: b6e0 01bf 51ca 853c 8169 89be a5af dc3e
000000c0: 834d 433f 4798 a9be eb46 82be 0433 cd3d
000000d0: 58a5 73bd 20d8 02bc 406f 823c 97fd 4bbe
000000e0: 9e40 7d3e 02cc b33e 4519 d13e 6867 863d
000000f0: bc11 863e 794c 96bd e4b2 4fbf 0806 bd3c
00000100: f1f0 0bbf d582 87be c99f d5be 51a2 b5be
00000110: c654 57be 4f06 363e f894 af3e 02d3 61bf
00000120: 9d38 c2bd f409 513e f3ec 10bf cd07 193f
00000130: 44ac 853f c0e4 3f3e 8731 2f3d 0ef5 36bf
00000140: 33b1 02bd 2b73 b03e 9bb2 05be a5af 783f

linear1.bias f4 [12]
0.2739445 -0.35041982 -0.19898896 -0.4821188 0.49508047 -0.26889342 -0.06954007 0.21564206
0.2688143 -0.3975593 -0.8762098 0.53646266
00000000: 7442 8c3e 3a6a b3be c3c3 4bbe 46d8 f6be
00000010: 307b fd3e 66ac 89be 066b 8ebd 46d1 5c3e
00000020: 07a2 893e e48c cbbe 494f 60bf 9e55 093f

linear3.weight f4 [12, 12]
-0.08523558 0.09048611 0.17576271 0.004955528 -0.12293792 -0.8223443 -1.0401361 -0.23843384
0.1594008 -0.08574328 -0.2625212 0.21280418 -0.24366091 -0.09980019 -0.243323 -0.084098704
-1.2387056 -0.17269327 0.0392523 0.20131418 -0.7875005 0.032384485 0.6833201 -0.3007343
-0.08795585 -0.26094857 -0.26375937 -0.108816266 -0.16547903 -0.093253195 -0.13412277 -0.053473666
-0.00431285 -0.167516 -0.13690282 -0.06855268 -0.14695758 0.08407573 0.045541286 -0.21959454
-0.3689599 0.1014725 0.50204235 0.09004024 -0.4002811 0.0017406474 0.15500621 0.062286075
-0.05228378 0.15109038 -0.28858566 -0.28843525 -0.28700218 -0.2079757 -0.40448987 0.22836834
-0.1808838 0.19307232 -0.048743058 0.002544898 -0.1460551 0.09154534 0.08302647 0.06447304
-0.16014734 -0.37454316 -0.03680833 -0.027105093 -0.055502303 0.25395328 0.22970128 -0.22559763
0.10957071 -0.13757126 -0.01858455 -0.15502478 -0.0834764 0.04293278 -0.003527465 -0.111619815
-0.18353572 -0.21692255 0.052719217 -0.20329666 0.0026149796 -0.02202394 -0.1672339 0.028554859
0.6962021 0.065341264 -0.48629403 0.21926695 0.5658946 0.09952366 -0.33885095 0.048476394
-0.10804178 0.055256844 -0.113537356 -0.2427065 -0.65735286 0.2581316 0.14643423 -0.17668487
-0.009092758 -0.24194086 -0.9021708 0.22432466 -0.23595765 -0.017334444 0.011873783 0.15872556
0.13384314 0.11236158 -0.6013805 0.10133302 0.11800344 0.19962856 -0.5112443 -0.3428903
0.037194744 0.11201171 0.21486968 -0.033701595 -0.03946649 -0.032803282 -0.8668415 -0.24545312
0.5039543 -0.061173007 -0.17430243 -0.24083968 0.22708318 -0.2272433 0.21060616 0.033944696
0.17318435 0.19152328 -0.38190156 0.019855082 0.16875723 -0.013512075 -0.014894021 -0.39598852
00000000: fe8f aebd c850 b93d 24fb 333e fb61 a23b
00000010: e0c6 fbbd 2885 52bf 2e23 85bf 0028 74be
00000020: f739 233e 2c9a afbd 2e69 86be 57e9 593e
00000030: 3f82 79be 0b64 ccbd aa29 79be f13b acbd
00000040: e88d 9ebf 81d6 30be 05c7 203d 4e25 4e3e
00000050: a299 49bf 98a5 043d 11ee 2e3f d9f9 99be
00000060: 3222 b4bd 0d9b 85be 780b 87be 10db debd
00000070: 5673 29be 88fb bebd 7b57 09be 3407 5bbd
00000080: cf52 8dbb 5089 2bbe 4130 0cbe 5965 8cbd
00000090: 0c7c 16be e52f ac3d 8089 3a3d 64dd 60be
000000a0: 50e8 bcbe d0d0 cf3d d985 003f 0467 b83d
000000b0: a5f1 ccbe 6f26 e43a f3b9 1e3e af1f 7f3d
000000c0: 8427 56bd 70b7 1a3e 80c1 93be c9ad 93be
000000d0: f3f1 92be 95f7 54be 4c19 cfbe 64d9 693e
000000e0: 9a39 39be c0b4 453e cda6 47bd 4ec8 263b
000000f0: 788f 15be 207c bb3d c809 aa3d 710a 843d
00000100: aafd 23be 1fc4 bfbe 55c4 16bd 800b debc
00000110: 6256 63bd 2a06 823e d036 6b3e 1103 67be
00000120: 9c66 e03d 7bdf 0cbe a03e 98bc d1be 1ebe
00000130: adf5 aabd 48da 2f3d 0b2d 67bb ee98 e4bd
00000140: caf0 3bbe f220 5ebe 1bf0 573d 002d 50be
00000150: 1460 2b3b 8d6b b4bc 5d3f 2bbe e1eb e93c
00000160: 4d3a 323f a4d1 853d 88fb f8be 8487 603e
00000170: 78de 103f 10d3 cb3d df7d adbe 2f8f 463d
00000180: 0245 ddbd 0055 623d 4686 e8bd 0e88 78be
00000190: 4748 28bf d329 843e dbf2 153e e1ec 34be
000001a0: cbf9 14bc 58bf 77be aaf4 66bf 5db5 653e
000001b0: e29e 71be f700 8ebc 418a 423c f488 223e
000001c0: 2d0e 093e d41d e63d 13f4 19bf b087 cf3d
000001d0: caab f13d 6e6b 4c3e e8e0 02bf 518f afbe
000001e0: 8459 183d 6566 e53d cc06 5c3e af0a 0abd
000001f0: 9da7 21bd bc5c 06bd 53e9 5dbf 1058 7bbe
00000200: 2603 013f 8c90 7abd 567c 32be ad9e 76be
00000210: 7e88 683e 78b2 68be 24a9 573e 9809 0b3d
00000220: 3d57 313e ae1e 443e 9a88 c3be 20a7 a23c
00000230: b2ce 2c3e c061 5dbc 0d06 74bc 02bf cabe

linear3.bias f4 [12]
-0.17593884 -1.6671923 -0.49264795 -0.9929948 0.090943426 -0.11876704 -0.24735269 2.3262303
0.30791467 -0.29357374 -0.25566918 -0.11039479
00000000: 5029 34be 8f66 d5bf 5a3c fcbe e834 7ebf
00000010: 8c40 ba3d 223c f3bd 064a 7dbe f5e0 1440
00000020: fea6 9d3e 4c4f 96be 12e7 82be aa16 e2bd

linear2.weight f4 [2, 12]
-0.3040693 -0.24885824 -0.052194186 -0.30110088 -0.043443043 -0.08769322 -0.05501443 0.2569402
0.22625777 -0.26398954 -0.34721512 -0.2617455 -0.31977567 -0.2629795 -0.07937941 -0.25869402
-0.096938655 0.042526517 -0.05960932 0.23622444 0.15881595 -0.2252582 -0.39645612 -0.2715823
00000000: f9ae 9bbe b2d4 7ebe 92c9 55bd e529 9abe
00000010: 55f1 31bd 8198 b3bd d056 61bd aa8d 833e
00000020: 1eb0 673e a329 87be 2ec6 b1be 8203 86be
00000030: a3b9 a3be 40a5 86be ac91 a2bd 8b73 84be
00000040: c687 c6bd 4930 2e3d e728 74bd d2e4 713e
00000050: a6a0 223e 16aa 66be 4cfc cabe d60c 8bbe

linear2.bias f4 [2]
1.6354228 1.7198285
00000000: 8955 d13f 5723 dc3f
