model/test6/test67.pth (torch, 3518 bytes, 6 tensors)

linear1.weight f4 [12, 7]
0.013680482 -0.3364763 0.3457291 0.08482558 -0.31764522 -0.343614 -0.2179924 -0.028346905
-0.31180158 -0.26755166 -0.19837035 -0.04206255 0.12353777 0.06557491 -0.4083473 -0.23726018
0.1452694 -0.2442016 0.23188457 -0.050288126 -0.17643563 -0.36491653 0.118113644 0.23830764
-0.48540086 0.15460873 -0.4562183 -0.04046827 -2.1655543 0.19784847 -0.21092506 -0.20912652
0.5038412 -0.18641645 0.19044705 -0.102349065 -0.40719113 -0.20718336 0.31420004 0.1367782
-0.12498151 0.35563582 -0.7415145 -0.06311423 -0.62641734 0.08847938 -0.28170595 0.33306164
0.79960585 -0.3312399 -0.2544473 0.10019496 -0.059483856 -0.0079860985 0.015922189 -0.19920956
0.28270522 0.3777124 0.35052344 0.13731168 0.28601637 -0.102034874 -0.75402176 0.023074165
-0.5466452 -0.26467004 -0.4172347 -0.354754 -0.21028432 0.17775844 0.51809883 -0.84400654
-0.008647139 0.32492033 -0.5033082 0.7283374 1.0906931 0.113915995 0.1335858 -0.6711725
-0.08664124 0.4378402 -0.1273933 1.0292091
00000000: 1a24 603c 9f46 acbe 6803 b13e 09b9 ad3d
00000010: 65a2 a2be 2dee afbe 6639 5fbe c537 e8bc
00000020: 75a4 9fbe 88fc 88be 9921 4bbe c849 2cbd
00000030: 5f01 fd3d 234c 863d e612 d1be 55f4 72be
00000040: 80c1 143e fc0f 7abe 2673 6d3e ecfa 4dbd
00000050: 8bab 34be 57d6 babe 91e5 f13d eb06 743e
00000060: 7686 f8be c051 1e3e 7295 e9be 0fc2 25bd
00000070: 7198 0ac0 ca98 4a3e bdfc 57be 4325 56be
00000080: bdfb 003f f4e3 3ebe 8d04 433e 639c d1bd
00000090: 5b7b d0be e027 54be d4de a03e 960f 0c3e
000000a0: 4ef6 ffbd e615 b63e e5d3 3dbf 0942 81bd
000000b0: e35c 20bf ad34 b53d c33b 90be 0e87 aa3e
000000c0: f8b2 4c3f 4798 a9be eb46 82be 0433 cd3d
000000d0: 58a5 73bd 20d8 02bc 406f 823c 97fd 4bbe
000000e0: bdbe 903e 8563 c13e cf77 b33e 6f9b 0c3e
000000f0: bd70 923e a9f7 d0bd 9207 41bf 0806 bd3c
00000100: f1f0 0bbf d582 87be c99f d5be 51a2 b5be
00000110: c654 57be 4f06 363e 20a2 043f d010 58bf
00000120: bbac 0dbc f55b a63e ced8 00bf 5274 3a3f
00000130: d59b 8b3f ca4c e93d b7ca 083e f6d1 2bbf
00000140: f670 b1bd 972c e03e 6473 02be 20bd 833f

linear1.bias f4 [12]
0.2739445 -0.35041982 -0.19898896 -0.4821188 0.55613357 -0.26880637 -0.014344808 0.21564206
0.34437308 -0.3975593 -0.87092125 0.6676607
00000000: 7442 8c3e 3a6a b3be c3c3 4bbe 46d8 f6be
00000010: c55e 0e3f fda0 89be 7c06 6bbc 46d1 5c3e
00000020: ab51 b03e e48c cbbe b2f4 5ebf d0eb 2a3f

linear3.weight f4 [12, 12]
-0.08523558 0.09048611 0.17576271 0.004955528 0.041468985 -0.9025788 -0.7620655 -0.23843384
0.17712742 -0.08574328 -0.27917588 0.31953984 -0.24366091 -0.09980019 -0.243323 -0.084098704
-1.2956239 -0.25295782 0.107854545 0.20131418 -1.136399 0.032384485 0.6485591 -0.3046596
-0.08795585 -0.26094857 -0.26375937 -0.108816266 -0.16547903 -0.093253195 -0.13412277 -0.053473666
-0.00431285 -0.167516 -0.13690282 -0.06855268 -0.14695758 0.08407573 0.045541286 -0.21959454
-0.42743686 0.149572 0.55177385 0.09004024 -0.34326136 0.0017406474 0.094563566 0.058581125
-0.05228378 0.15109038 -0.28858566 -0.28843525 -0.28700218 -0.2079757 -0.40448987 0.22836834
-0.1808838 0.19307232 -0.048743058 0.002544898 -0.1460551 0.09154534 0.08302647 0.06447304
-0.16014734 -0.40630886 -0.03680833 -0.027105093 -0.11903389 0.25395328 0.16616958 -0.28912908
0.10957071 -0.13757126 -0.01858455 -0.15502478 -0.0834764 0.04293278 -0.003527465 -0.111619815
-0.18353572 -0.21692255 0.052719217 -0.20329666 0.0026149796 -0.02202394 -0.1672339 0.028554859
0.67625743 0.07090427 -0.6628148 0.21926695 0.5915545 0.09952366 -0.26640192 0.03396183
-0.10804178 0.055256844 -0.113537356 -0.2427065 -0.34744424 0.25281236 0.29392087 -0.17668487
-0.09453652 -0.24194086 -0.858509 0.27535516 -0.23595765 -0.017334444 0.011873783 0.15872556
-0.087598436 0.10463152 -0.73551446 0.10133302 0.12742858 0.19962856 -0.5285777 -0.3516915
0.037194744 0.11201171 0.21486968 -0.033701595 -0.07821682 -0.032882165 -0.7944252 -0.24545312
0.49341008 -0.061173007 -0.1809649 -0.2011043 0.22708318 -0.2272433 0.21060616 0.033944696
0.0751431 0.18753265 -0.38634124 0.019855082 0.1854446 -0.013512075 0.033847734 -0.49844405
00000000: fe8f aebd c850 b93d 24fb 333e fb61 a23b
00000010: 62db 293d 670f 67bf b916 43bf 0028 74be
00000020: e460 353e 2c9a afbd 24f0 8ebe ba9a a33e
00000030: 3f82 79be 0b64 ccbd aa29 79be f13b acbd
00000040: 01d7 a5bf b083 81be d8e2 dc3d 4e25 4e3e
00000050: 8675 91bf 98a5 043d f807 263f 58fc 9bbe
00000060: 3222 b4bd 0d9b 85be 780b 87be 10db debd
00000070: 5673 29be 88fb bebd 7b57 09be 3407 5bbd
00000080: cf52 8dbb 5089 2bbe 4130 0cbe 5965 8cbd
00000090: 0c7c 16be e52f ac3d 8089 3a3d 64dd 60be
000000a0: 01d9 dabe 6729 193e 0d41 0d3f 0467 b83d
000000b0: f4bf afbe 6f26 e43a 8baa c13d c3f2 6f3d
000000c0: 8427 56bd 70b7 1a3e 80c1 93be c9ad 93be
000000d0: f3f1 92be 95f7 54be 4c19 cfbe 64d9 693e
000000e0: 9a39 39be c0b4 453e cda6 47bd 4ec8 263b
000000f0: 788f 15be 207c bb3d c809 aa3d 710a 843d
00000100: aafd 23be b707 d0be 55c4 16bd 800b debc
00000110: 0ac8 f3bd 2a06 823e 5c28 2a3e ba08 94be
00000120: 9c66 e03d 7bdf 0cbe a03e 98bc d1be 1ebe
00000130: adf5 aabd 48da 2f3d 0b2d 67bb ee98 e4bd
00000140: caf0 3bbe f220 5ebe 1bf0 573d 002d 50be
00000150: 1460 2b3b 8d6b b4bc 5d3f 2bbe e1eb e93c
00000160: 351f 2d3f 4236 913d 3bae 29bf 8487 603e
00000170: 1e70 173f 10d3 cb3d d565 88be 8f1b 0b3d
00000180: 0245 ddbd 0055 623d 4686 e8bd 0e88 78be
00000190: 36e4 b1be 9f70 813e cc7c 963e e1ec 34be
000001a0: 5d9c c1bd 58bf 77be 3fc7 5bbf 5afb 8c3e
000001b0: e29e 71be f700 8ebc 418a 423c f488 223e
000001c0: cf66 b3bd 0d49 d63d ad4a 3cbf b087 cf3d
000001d0: a37c 023e 6e6b 4c3e de50 07bf e910 b4be
000001e0: 8459 183d 6566 e53d cc06 5c3e af0a 0abd
000001f0: 2430 a0bd 73af 06bd 735f 4bbf 1058 7bbe
00000200: 3fa0 fc3e 8c90 7abd dd4e 39be 49ee 4dbe
00000210: 7e88 683e 78b2 68be 24a9 573e 9809 0b3d
00000220: a0e4 993d 8f08 403e 85ce c5be 20a7 a23c
00000230: 30e5 3d3e c061 5dbc eca3 0a3d 0f34 ffbe

linear3.bias f4 [12]
-0.09769392 -2.0203645 -0.49264795 -1.0992712 0.090943426 -0.18229859 -0.24735269 2.5618546
0.33452636 -0.32911506 -0.32826445 -0.21401182
00000000: c013 c8bd a74d 01c0 5a3c fcbe ebb4 8cbf
00000010: 8c40 ba3d 7bac 3abe 064a 7dbe 6df5 2340
00000020: 0a47 ab3e c581 a8be 4712 a8be ea25 5bbe

linear2.weight f4 [2, 12]
-0.35926127 -0.28612804 -0.052194186 -0.2536945 -0.043443043 -0.024161613 -0.05501443 0.22862941
0.123615496 -0.3645884 -0.30871806 -0.25357702 -0.36353335 -0.29599828 -0.07937941 -0.19951057
-0.096938655 0.042526517 -0.05960932 0.20460396 0.13750772 -0.29859585 -0.34864873 -0.21722278
00000000: 18f1 b7be 607f 92be 92c9 55bd 3fe4 81be
00000010: 55f1 31bd 93ee c5bc d056 61bd d41d 6a3e
00000020: 1f2a fd3d 55ab babe 4b10 9ebe d9d4 81be
00000030: 0b21 babe 168d 97be ac91 a2bd 804c 4cbe
00000040: c687 c6bd 4930 2e3d e728 74bd b383 513e
00000050: d3ce 0c3e 8ee1 98be 1682 b2be a66f 5ebe

linear2.bias f4 [2]
1.8516033 1.9999157
00000000: 5601 ed3f 3dfd ff3f
