model/test6/test616.pth (torch, 2448 bytes, 4 tensors)

linear1.weight f4 [12, 7]
-0.027089268 -0.5004717 -0.87939394 -0.019055877 -0.22593391 0.13706958 1.3479904 -0.046905946
-0.061647683 -0.09097252 -0.2849683 0.11769253 0.01492211 -0.052121565 -0.05358378 0.41890493
1.0097963 0.08111218 0.025503121 0.023434121 -1.5492336 -1.4483618 -0.2434707 -0.30531862
-0.3549139 -0.029237049 -0.22663853 0.22140297 -0.38231748 0.058507882 -0.22965948 -0.35667732
-0.09096881 0.14175276 0.10673362 -5.28259 0.09100939 0.691007 0.010296459 0.26804066
-0.1858085 -0.32583037 -0.02645087 -0.22890073 -0.41602045 0.09720778 -0.4371818 -0.33518195
0.043105938 0.4003599 -0.8617067 0.09170217 -0.3012706 -0.17263322 -0.15541779 0.18564728
-0.2259872 -0.21405828 0.2704794 0.075766526 -0.042612616 -0.3861259 -0.43920377 -1.6181926
0.14000544 -0.55194163 -0.008713411 0.32581186 -0.38923544 0.2769111 -0.04072477 -0.1563938
-0.12149921 -0.062198192 -0.57979596 -0.0010584069 0.080972604 -0.27347 -0.1738621 -0.05261159
-0.5756959 -0.13346165 -0.058703743 0.21416903
00000000: 50ea ddbc ea1e 00bf f61f 61bf 121b 9cbc
00000010: 385b 67be f85b 0c3e f38a ac3f 7320 40bd
00000020: 4882 7cbd cd4f babd 5de7 91be c808 f13d
00000030: de7b 743c 6c7d 55bd aa7a 5bbd b57a d63e
00000040: 0141 813f 251e a63d eceb d03c eaf8 bf3c
00000050: 494d c6bf eb63 b9bf 6250 79be b952 9cbe
00000060: 46b7 b5be 8982 efbc ee13 68be 76b7 623e
00000070: 1ebf c3be f6a5 6f3d db2b 6bbe 699e b6be
00000080: db4d babd a327 113e 2897 da3d fa0a a9c0
00000090: 2263 ba3d d6e5 303f 7bb2 283c a03c 893e
000000a0: 9544 3ebe 3dd3 a6be 7faf d8bc f464 6abe
000000b0: a200 d5be df14 c73d 4bd6 dfbe f89c abbe
000000c0: da8f 303d f9fb cc3e cf98 5cbf 59ce bb3d
000000d0: 2440 9abe c3c6 30be d725 1fbe 521a 3e3e
000000e0: 3069 67be 1832 5bbe 477c 8a3e 7b2b 9b3d
000000f0: 918a 2ebd 4bb2 c5be 51df e0be ef20 cfbf
00000100: 965d 0f3e 0c4c 0dbf b2c2 0ebc d0d0 a63e
00000110: de49 c7be 4bc7 8d3e 04cf 26bd b225 20be
00000120: 94d4 f8bd 88c3 7ebd 826d 14bf 3eba 8aba
00000130: f7d4 a53d 4304 8cbe e808 32be 407f 57bd
00000140: ce60 13bf 2caa 08be 5673 70bd 204f 5b3e

linear1.bias f4 [12]
-0.56932086 -0.22564608 -1.2982919 0.1544478 -0.16050136 -0.020842884 -0.25398725 -1.0506809
-0.39887828 1.1831751 0.06291823 -0.8612935
00000000: 03bf 11bf c40f 67be 6e2e a6bf 9027 1e3e
00000010: 785a 24be b2be aabc 9e0a 82be b67c 86bf
00000020: c639 ccbe 4872 973f 46db 803d bb7d 5cbf

linear2.weight f4 [2, 12]
-0.20768763 -0.16782692 -0.15601477 0.59191996 -0.048868652 0.13222943 0.035904057 -0.057202578
0.069521815 0.2986355 0.016440697 0.043331023 -0.18049294 0.04203053 -0.1687828 0.5020065
0.20450678 0.15281871 -0.008618856 -0.12850223 0.031625986 0.27447146 0.001864156 -0.12432897
00000000: 11ac 54be d2da 2bbe 56c2 1fbe 1188 173f
00000010: 7f2a 48bd 2767 073e 2210 133d 404d 6abd
00000020: 7461 8e3d c1e6 983e a4ae 863c df7b 313d
00000030: 24d3 38be 3428 2c3d 66d5 2cbe 7f83 003f
00000040: 3a6a 513e 827c 1c3e 1a36 0dbc 1796 03be
00000050: 408a 013d 8687 8c3e b256 f43a 30a0 febd

linear2.bias f4 [2]
12.142691 11.888823
00000000: 7648 4241 9e38 3e41
