model/test6/test619.pth (torch, 2448 bytes, 4 tensors)

linear1.weight f4 [12, 7]
0	0xbd6657bc	-0.056236014
1	0xbef96db3	-0.48716506
2	0xbf6bb7d2	-0.9207736
3	0xbd83e105	-0.064394034
4	0xbe3c7e14	-0.1840747
5	0x3e1bf2f2	0.15229395
6	0x3fb78d85	1.4340063
7	0xbd402073	-0.046905946
8	0xbd7c8248	-0.061647683
9	0xbdba4fcd	-0.09097252
10	0xbe91e75d	-0.2849683
11	0x3df108c8	0.11769253
12	0x3c747bde	0.01492211
13	0xbd557d6c	-0.052121565
14	0x3d85dc28	0.06536132
15	0x3ee499b0	0.44648504
16	0x3f89fec1	1.078087
17	0x3dd26b7f	0.102744095
18	0xbc22c46a	-0.009934524
19	0xbd921d72	-0.071345225
20	0xbfcc83c0	-1.5977707
21	0xbfb963eb	-1.4483618
22	0xbe795062	-0.2434707
23	0xbe9c52b9	-0.30531862
24	0xbeb5b746	-0.3549139
25	0xbcef8289	-0.029237049
26	0xbe6813ee	-0.22663853
27	0x3e62b776	0.22140297
28	0xbec3bf1e	-0.38231748
29	0x3d6fa5f6	0.058507882
30	0xbe6b2bdb	-0.22965948
31	0xbeb69e69	-0.35667732
32	0xbdba4ddb	-0.09096881
33	0x3e1127a3	0.14175276
34	0x3dda9728	0.10673362
35	0xc0bb1d3d	-5.847319
36	0xbd03d7e2	-0.032188304
37	0x3f192684	0.59824395
38	0xbd90aa67	-0.07063752
39	0x3e3c7b35	0.18406375
40	0xbe34a0ce	-0.17639467
41	0xbee97726	-0.45598716
42	0xbcd8af7f	-0.02645087
43	0xbe6a64f4	-0.22890073
44	0xbed500a2	-0.41602045
45	0x3dc714df	0.09720778
46	0xbedfd64b	-0.4371818
47	0xbeab9cf8	-0.33518195
48	0x3d308fda	0.043105938
49	0x3eccfbf9	0.4003599
50	0xbf5c98cf	-0.8617067
51	0x3dbbce59	0.09170217
52	0xbe9a4024	-0.3012706
53	0xbe30c6c3	-0.17263322
54	0xbe1f25d7	-0.15541779
55	0x3e3e1a52	0.18564728
56	0xbe6774fe	-0.22603223
57	0xbe556af2	-0.20841578
58	0x3e8fcf4c	0.28087842
59	0x3da04dbc	0.07827327
60	0xbd2162df	-0.03940093
61	0xbec428cf	-0.38312384
62	0xbee856b8	-0.4537866
63	0xbfeb1aee	-1.8367593
64	0x3d8fd791	0.07023538
65	0xbec1f8ea	-0.3788522
66	0x3d580dd0	0.052747548
67	0x3e49a2fa	0.19691077
68	0xbe9fb015	-0.31189027
69	0x3eb02bb6	0.3440835
70	0xbd26cf04	-0.04072477
71	0xbe2025b2	-0.1563938
72	0xbdf8d494	-0.12149921
73	0xbd7ec388	-0.062198192
74	0xbf146d82	-0.57979596
75	0xba8aba3e	-0.0010584069
76	0x3da5d4f7	0.080972604
77	0xbe8c0443	-0.27347
78	0xbe3208e8	-0.1738621
79	0xbd577f40	-0.05261159
80	0xbf1360ce	-0.5756959
81	0xbe08aa2c	-0.13346165
82	0xbd707356	-0.058703743
83	0x3e5b4f20	0.21416903

linear1.bias f4 [12]
0	0xbf0ee27a	-0.55814326
1	0xbe670fc4	-0.22564608
2	0xbfae34c6	-1.3609855
3	0x3e1e2790	0.1544478
4	0xbe245a78	-0.16050136
5	0xbe17d04b	-0.14825551
6	0xbe820a9e	-0.25398725
7	0xbf867cb6	-1.0506809
8	0xbeca8cc1	-0.39560512
9	0x3f7773fb	0.9666135
10	0x3d80db46	0.06291823
11	0xbf5c7dbb	-0.8612935

linear2.weight f4 [2, 12]
0	0xbe4ccee7	-0.20000802
1	0xbe2bdad2	-0.16782692
2	0xbe31b491	-0.17354037
3	0x3f178811	0.59191996
4	0xbd482a7f	-0.048868652
5	0x3e00b60d	0.12569447
6	0x3d131022	0.035904057
7	0xbd6a4d40	-0.057202578
8	0x3d6841f4	0.056703523
9	0x3ebfff97	0.37499687
10	0x3c86aea4	0.016440697
11	0x3d317bdf	0.043331023
12	0xbe2e2e6c	-0.17009896
13	0x3d2c2834	0.04203053
14	0xbe314f32	-0.17315367
15	0x3f00837f	0.5020065
16	0x3e516a3a	0.20450678
17	0x3df2592e	0.11833416
18	0xbc0d361a	-0.008618856
19	0xbe039617	-0.12850223
20	0x3d81d38f	0.0633918
21	0x3ec760c2	0.38941008
22	0x3af456b2	0.001864156
23	0xbdfea030	-0.12432897

linear2.bias f4 [2]
0	0x418319c0	16.387573
1	0x417cf4f4	15.809803
