model/test6/test61.pth (torch, 3518 bytes, 6 tensors)

linear1.weight f4 [12, 7]
000000 1a 24 60 3c 9f 46 ac be 68 03 b1 3e 09 b9 ad 3d
       0.013680482 -0.3364763 0.3457291 0.08482558
000010 65 a2 a2 be 2d ee af be 66 39 5f be 3b 4f 4a bc
       -0.31764522 -0.343614 -0.2179924 -0.012347992
000020 50 6c 97 be 61 c4 80 be f6 b4 3a be 41 11 d5 bc
       -0.29574823 -0.25149825 -0.18233094 -0.026009204
000030 fb f0 0e 3e 42 33 a7 3d e6 12 d1 be 55 f4 72 be
       0.13959114 0.081640735 -0.4083473 -0.23726018
000040 80 c1 14 3e fc 0f 7a be 26 73 6d 3e ec fa 4d bd
       0.1452694 -0.2442016 0.23188457 -0.050288126
000050 8b ab 34 be 7a cb c9 be 04 72 1e 3e 2d ef 89 3e
       -0.17643563 -0.39413053 0.15473181 0.2694029
000060 58 54 e1 be 5b 86 3c 3e 7e 05 e9 be f5 15 02 bc
       -0.44009662 0.18410628 -0.45512003 -0.007939805
000070 a6 d7 83 be e4 d8 11 3e bb d2 a8 3e d7 93 b9 be
       -0.25750464 0.14242893 0.32973275 -0.36245605
000080 ac f6 ab 3e 2a 7a 0a 3e d3 26 63 3d 69 66 a6 3a
       0.33586633 0.13523164 0.055456948 0.0012695316
000090 23 c9 b5 be 2d 90 ff bd 80 cd 6d 3e 68 ef 5c 3e
       -0.35505018 -0.12478671 0.23222923 0.21575701
0000a0 d8 08 cb bd d6 db 03 3f b7 a8 74 be 1a 19 b2 bc
       -0.09913796 0.5150732 -0.23892485 -0.021740485
0000b0 e9 9b 01 bf 77 8e 41 3e 57 fc 93 be 79 5a ab 3e
       -0.50628525 0.18902002 -0.28903458 0.33467463
0000c0 93 91 33 3f 47 98 a9 be eb 46 82 be 04 33 cd 3d
       0.70144004 -0.3312399 -0.2544473 0.10019496
0000d0 58 a5 73 bd 20 d8 02 bc 40 6f 82 3c 97 fd 4b be
       -0.059483856 -0.0079860985 0.015922189 -0.19920956
0000e0 5d 4c 09 3f 3e f1 5b 3e cf 1e 0d 3f d0 ce 2d 3d
       0.53632146 0.21478745 0.55125135 0.04243356
0000f0 0e a1 ef 3d 1e db 85 3b 01 6a 24 bf d8 e5 a1 3d
       0.117006406 0.0040849587 -0.6422425 0.07905167
000100 b9 03 fb be 50 49 55 be b3 d2 b8 be 27 c4 98 be
       -0.49026278 -0.20828748 -0.3609825 -0.29837152
000110 6d 98 1d be f3 e6 6f 3e 5b 3e 54 3e 16 90 20 bf
       -0.15390177 0.23427944 0.20726912 -0.6271986
000120 48 b9 3b be fc aa 12 3d bb 80 e7 be b5 f8 9b 3e
       -0.18332398 0.035807595 -0.452154 0.30463186
000130 04 34 60 3f 3f 39 e0 3e cc c7 08 bc bb 60 c0 be
       0.8757937 0.43793675 -0.008348417 -0.375738
000140 20 a6 94 3d 6d 6c 25 3d a1 c6 01 bd f0 08 3f 3f
       0.07258248 0.040386606 -0.031683568 0.7462301

linear1.bias f4 [12]
000000 74 42 8c 3e bd 31 ab be c3 c3 4b be 0c f8 e1 be
       0.2739445 -0.33436385 -0.19898896 -0.44134557
000010 20 95 9e 3b b0 75 0b be 27 35 73 bd 46 d1 5c 3e
       0.0048395544 -0.13619113 -0.059376862 0.21564206
000020 04 9f ef bd bd ae ae be 77 99 e2 be 47 c7 03 3e
       -0.11700252 -0.3411769 -0.4425771 0.12868987

linear3.weight f4 [12, 12]
000000 fe 8f ae bd c8 50 b9 3d 24 fb 33 3e bf 6c 1d 3d
       -0.08523558 0.09048611 0.17576271 0.038433786
000010 99 0f 27 3e 04 b3 bc be f5 50 00 bf 00 28 74 be
       0.16314544 -0.36855328 -0.5012353 -0.23843384
000020 19 77 ee 3e 2c 9a af bd f8 ad 09 bf c6 7c 11 bd
       0.4657524 -0.08574328 -0.5378108 -0.035519384
000030 3f 82 79 be a9 4c a8 bd aa 29 79 be f1 3b ac bd
       -0.24366091 -0.08217747 -0.243323 -0.084098704
000040 ed bc d6 be c1 36 02 3d 99 3c 41 be 4e 25 4e 3e
       -0.41941014 0.0317905 -0.18870772 0.20131418
000050 f8 d7 7a bd 44 9e a6 3d 54 04 40 3f d5 25 d1 bd
       -0.06124112 0.081356555 0.75006604 -0.10212294
000060 32 22 b4 bd 0d 9b 85 be 78 0b 87 be 10 db de bd
       -0.08795585 -0.26094857 -0.26375937 -0.108816266
000070 56 73 29 be 88 fb be bd 7b 57 09 be 34 07 5b bd
       -0.16547903 -0.093253195 -0.13412277 -0.053473666
000080 cf 52 8d bb 50 89 2b be 41 30 0c be 59 65 8c bd
       -0.00431285 -0.167516 -0.13690282 -0.06855268
000090 0c 7c 16 be 06 47 d0 3d 80 89 3a 3d bd 2d fe bd
       -0.14695758 0.10169797 0.045541286 -0.12411068
0000a0 d2 bf 12 be 46 1c 26 3e a4 0a a8 3e 04 67 b8 3d
       -0.14330986 0.16221723 0.32820618 0.09004024
0000b0 2f 07 01 bf 22 b7 4f 3d e6 eb 33 3e b9 6b 56 3d
       -0.50401586 0.05071176 0.17570457 0.052348826
0000c0 84 27 56 bd 70 b7 1a 3e 80 c1 93 be c9 ad 93 be
       -0.05228378 0.15109038 -0.28858566 -0.28843525
0000d0 4e a9 0b be 5f 75 96 bd 04 0a 93 be 64 d9 69 3e
       -0.13638803 -0.073466055 -0.2871858 0.22836834
0000e0 12 b6 11 be c0 b4 45 3e 87 cb b3 3c ad 91 51 3d
       -0.1422961 0.19307232 0.021947635 0.051164318
0000f0 78 8f 15 be 20 7c bb 3d c8 09 aa 3d 71 0a 84 3d
       -0.1460551 0.09154534 0.08302647 0.06447304
000100 aa fd 23 be 14 88 ad be 6f 93 de bd 80 0b de bc
       -0.16014734 -0.33892882 -0.108679645 -0.027105093
000110 91 c0 ca ba 2a 06 82 3e 94 8a 81 3e 7a 31 58 be
       -0.0015468766 0.25395328 0.2530104 -0.21112624
000120 9c 66 e0 3d 7b df 0c be a0 3e 98 bc d1 be 1e be
       0.10957071 -0.13757126 -0.01858455 -0.15502478
000130 ad f5 aa bd 48 da 2f 3d 0b 2d 67 bb ee 98 e4 bd
       -0.0834764 0.04293278 -0.003527465 -0.111619815
000140 ca f0 3b be f2 20 5e be 1b f0 57 3d 00 2d 50 be
       -0.18353572 -0.21692255 0.052719217 -0.20329666
000150 14 60 2b 3b 8d 6b b4 bc 5d 3f 2b be 62 e9 a0 bd
       0.0026149796 -0.02202394 -0.1672339 -0.07857014
000160 43 b7 98 3e 76 38 4f 3d 92 cd ba bd 84 87 60 3e
       0.29827318 0.050590955 -0.09121241 0.21926695
000170 0c ee fa 3d 10 d3 cb 3d 27 e0 51 bf 6f d1 3e 3e
       0.12252435 0.09952366 -0.81982654 0.1863458
000180 02 45 dd bd 00 55 62 3d 46 86 e8 bd 0e 88 78 be
       -0.10804178 0.055256844 -0.113537356 -0.2427065
000190 54 bb 24 be 1c 62 d5 3d b9 ca 5e 3e e1 ec 34 be
       -0.16087085 0.104191035 0.2175702 -0.17668487
0001a0 13 fd 75 bc 58 bf 77 be 22 fa 92 be d7 ac 88 be
       -0.015013951 -0.24194086 -0.2870646 -0.26694366
0001b0 e2 9e 71 be f7 00 8e bc 41 8a 42 3c f4 88 22 3e
       -0.23595765 -0.017334444 0.011873783 0.15872556
0001c0 13 82 df bd 80 bd 49 bd 4d 12 34 be b0 87 cf 3d
       -0.109134816 -0.049252987 -0.17585106 0.10133302
0001d0 79 33 7f 3d 6e 6b 4c 3e a8 41 0d bf cd 90 4f be
       0.062304948 0.19962856 -0.5517831 -0.20270081
0001e0 84 59 18 3d 65 66 e5 3d cc 06 5c 3e 56 ad 09 3d
       0.037194744 0.11201171 0.21486968 0.03361257
0001f0 95 11 a0 bd 55 bc 4c 3d fe b4 c7 be 10 58 7b be
       -0.078158535 0.049984295 -0.39005274 -0.24545312
000200 0f fb 8c 3e 8c 90 7a bd b5 80 10 bf b8 b1 97 be
       0.27535293 -0.061173007 -0.5644639 -0.29627776
000210 7e 88 68 3e 78 b2 68 be 24 a9 57 3e 89 f8 6f 3d
       0.22708318 -0.2272433 0.21060616 0.05858663
000220 ed f9 b5 bd ed 9b 90 3d 71 d7 bb be 20 a7 a2 3c
       -0.0888556 0.070609905 -0.36687806 0.019855082
000230 07 86 8c 3d c0 61 5d bc 31 91 bc be 49 7e 4d be
       0.06861501 -0.013512075 -0.36829522 -0.20067705

linear3.bias f4 [12]
000000 f8 71 fe 3c 2c dd 25 bf 5a 3c fc be 3a b1 fa be
       0.031060204 -0.64790606 -0.49264795 -0.48963338
000010 dd 59 01 3e 12 2a 80 bd 06 4a 7d be 05 6a cb 3e
       0.12631936 -0.06258024 -0.24735269 0.39729324
000020 f1 98 42 be f0 78 60 be 65 68 32 be 5c be 9d 3a
       -0.19003655 -0.21921134 -0.17422636 0.0012034881

linear2.weight f4 [2, 12]
000000 2f e3 b0 be d5 b6 73 be 92 c9 55 bd e0 94 97 be
       -0.34548327 -0.23800214 -0.052194186 -0.2960577
000010 22 fd 23 3c 9a 64 28 be d0 56 61 bd 9b 64 34 3e
       0.010009082 -0.16444626 -0.05501443 0.17616503
000020 01 a3 02 3e 12 51 6d bd 84 00 57 be 32 02 15 be
       0.12757494 -0.057938643 -0.2099629 -0.14551619
000030 50 68 bc be 20 da 77 be ac 91 a2 bd 88 be 94 be
       -0.36798334 -0.24204302 -0.07937941 -0.29051614
000040 6d 52 7d be 89 9d 4f 3e e7 28 74 bd 80 71 32 3e
       -0.24738474 0.20274939 -0.05960932 0.1742611
000050 5d e5 d9 3d aa d4 db bd a4 92 5c be 18 c0 27 be
       0.10639451 -0.10733922 -0.21540314 -0.16381872

linear2.bias f4 [2]
000000 38 7c b3 3e 66 b6 d6 3e
       0.3505571 0.41936034
