model/test6/test63.pth (torch, 3518 bytes, 6 tensors)

linear1.weight f4 [12, 7]
0	0x3c60241a	0.013680482
1	0xbeac469f	-0.3364763
2	0x3eb10368	0.3457291
3	0x3dadb909	0.08482558
4	0xbea2a265	-0.31764522
5	0xbeafee2d	-0.343614
6	0xbe5f3966	-0.2179924
7	0xbc4a4f3b	-0.012347992
8	0xbe976c50	-0.29574823
9	0xbe80c461	-0.25149825
10	0xbe3ab4f6	-0.18233094
11	0xbcd51141	-0.026009204
12	0x3e0ef0fb	0.13959114
13	0x3da73342	0.081640735
14	0xbed112e6	-0.4083473
15	0xbe72f455	-0.23726018
16	0x3e14c180	0.1452694
17	0xbe7a0ffc	-0.2442016
18	0x3e6d7326	0.23188457
19	0xbd4dfaec	-0.050288126
20	0xbe34ab8b	-0.17643563
21	0xbebad657	-0.36491653
22	0x3df1e591	0.118113644
23	0x3e7406eb	0.23830764
24	0xbef88676	-0.48540086
25	0x3e1e51c0	0.15460873
26	0xbee99572	-0.4562183
27	0xbd25c20f	-0.04046827
28	0xbfaa5389	-1.3306743
29	0x3e8e34ed	0.27774754
30	0x3e223e63	0.15844111
31	0xbe9c68db	-0.30548748
32	0x3f01186a	0.5042788
33	0x3c99f3c5	0.018792996
34	0x3d2e9325	0.042620797
35	0x3d176418	0.03696069
36	0xbea0be04	-0.3139497
37	0xbe16248c	-0.14662379
38	0x3e5e1f14	0.21691543
39	0x3e9213ef	0.28530833
40	0xbcb55dd3	-0.022139465
41	0x3f0af663	0.54282206
42	0xbef29b82	-0.47384268
43	0xbcba1b4a	-0.02271809
44	0xbee5a961	-0.44855788
45	0x3d826a91	0.06367982
46	0xbe8127f8	-0.25225806
47	0x3ef2f399	0.47451475
48	0x3f3d4681	0.73935705
49	0xbea99847	-0.3312399
50	0xbe8246eb	-0.2544473
51	0x3dcd3304	0.10019496
52	0xbd73a558	-0.059483856
53	0xbc02d820	-0.0079860985
54	0x3c826f40	0.015922189
55	0xbe4bfd97	-0.19920956
56	0x3e84bf59	0.25927237
57	0x3ea2d428	0.31802487
58	0x3f0b3ab1	0.5438643
59	0x3cf5f052	0.03002182
60	0x3e31e92b	0.17374103
61	0xbdd6e406	-0.10492711
62	0xbf468827	-0.775515
63	0x3da1e5d8	0.07905167
64	0xbefb03b9	-0.49026278
65	0xbe554950	-0.20828748
66	0xbeb8d2b3	-0.3609825
67	0xbe98c427	-0.29837152
68	0xbe1d986d	-0.15390177
69	0x3e6fe6f3	0.23427944
70	0x3ea7da6b	0.32783827
71	0xbf418624	-0.7559531
72	0xbdd32a96	-0.10310857
73	0x3b91e61c	0.00445248
74	0xbf037f25	-0.5136588
75	0x3ee9242e	0.45535415
76	0x3f76448f	0.9619836
77	0x3e971efe	0.29515833
78	0xbd1b137d	-0.037860382
79	0xbf105566	-0.5638031
80	0xbc8726c3	-0.016497975
81	0x3e167af3	0.14695339
82	0xbca0605d	-0.0195772
83	0x3f6155a6	0.88021314

linear1.bias f4 [12]
0	0x3e8c4274	0.2739445
1	0xbeab31bd	-0.33436385
2	0xbe4bc3c3	-0.19898896
3	0xbef6d846	-0.4821188
4	0x3ecca1e3	0.3996726
5	0xbd93209c	-0.07183954
6	0xbdc21ea3	-0.094785
7	0x3e5cd146	0.21564206
8	0x3dc150ae	0.094392166
9	0xbeaeaebd	-0.3411769
10	0xbf308296	-0.6894926
11	0x3e82b110	0.25525713

linear3.weight f4 [12, 12]
0	0xbdae8ffe	-0.08523558
1	0x3db950c8	0.09048611
2	0x3e33fb24	0.17576271
3	0x3ba261fb	0.004955528
4	0xbd49aa92	-0.049234934
5	0xbf139bcb	-0.57659596
6	0xbee2b5b2	-0.44279248
7	0xbe742800	-0.23843384
8	0x3ed33e40	0.4125843
9	0xbdaf9a2c	-0.08574328
10	0xbee69626	-0.4503643
11	0x3d906429	0.07050354
12	0xbe79823f	-0.24366091
13	0xbda84ca9	-0.08217747
14	0xbe7929aa	-0.243323
15	0xbdac3bf1	-0.084098704
16	0xbf2e27d3	-0.68029517
17	0xbd8a2923	-0.067461275
18	0xbe10e8b0	-0.14151263
19	0x3e4e254e	0.20131418
20	0xbe8ce1ae	-0.2751593
21	0x3da69e44	0.081356555
22	0x3f3da324	0.7407706
23	0xbe5be8c5	-0.21475513
24	0xbdb42232	-0.08795585
25	0xbe859b0d	-0.26094857
26	0xbe870b78	-0.26375937
27	0xbddedb10	-0.108816266
28	0xbe297356	-0.16547903
29	0xbdbefb88	-0.093253195
30	0xbe09577b	-0.13412277
31	0xbd5b0734	-0.053473666
32	0xbb8d52cf	-0.00431285
33	0xbe2b8950	-0.167516
34	0xbe0c3041	-0.13690282
35	0xbd8c6559	-0.06855268
36	0xbe167c0c	-0.14695758
37	0x3dd04706	0.10169797
38	0x3d3a8980	0.045541286
39	0xbe60dd64	-0.21959454
40	0x3d1c9ddb	0.03823648
41	0x3da426ee	0.08015238
42	0x3ec71e5c	0.3889035
43	0x3db86704	0.09004024
44	0xbf12900e	-0.5725106
45	0x3d4fb722	0.05071176
46	0x3e7d177f	0.24715994
47	0x3d0a6de5	0.03379621
48	0xbd562784	-0.05228378
49	0x3e1ab770	0.15109038
50	0xbe93c180	-0.28858566
51	0xbe93adc9	-0.28843525
52	0xbe92f1f3	-0.28700218
53	0xbe54f795	-0.2079757
54	0xbecf194c	-0.40448987
55	0x3e69d964	0.22836834
56	0xbe39399a	-0.1808838
57	0x3e45b4c0	0.19307232
58	0xbd47a6cd	-0.048743058
59	0x3b26c84e	0.002544898
60	0xbe158f78	-0.1460551
61	0x3dbb7c20	0.09154534
62	0x3daa09c8	0.08302647
63	0x3d840a71	0.06447304
64	0xbe23fdaa	-0.16014734
65	0xbead8814	-0.33892882
66	0xbdde936f	-0.108679645
67	0xbcde0b80	-0.027105093
68	0xbacac091	-0.0015468766
69	0x3e82062a	0.25395328
70	0x3e818a94	0.2530104
71	0xbe58317a	-0.21112624
72	0x3de0669c	0.10957071
73	0xbe0cdf7b	-0.13757126
74	0xbc983ea0	-0.01858455
75	0xbe1ebed1	-0.15502478
76	0xbdaaf5ad	-0.0834764
77	0x3d2fda48	0.04293278
78	0xbb672d0b	-0.003527465
79	0xbde498ee	-0.111619815
80	0xbe3bf0ca	-0.18353572
81	0xbe5e20f2	-0.21692255
82	0x3d57f01b	0.052719217
83	0xbe502d00	-0.20329666
84	0x3b2b6014	0.0026149796
85	0xbcb46b8d	-0.02202394
86	0xbe2b3f5d	-0.1672339
87	0x3ce9ebe1	0.028554859
88	0x3f2bf98a	0.6717764
89	0x3dd6a21e	0.1048014
90	0xbcfe28f6	-0.031025391
91	0x3e608784	0.21926695
92	0x3e85a750	0.26104212
93	0x3dcbd310	0.09952366
94	0xbee0c574	-0.43900645
95	0x3d4332a2	0.04765571
96	0xbddd4502	-0.10804178
97	0x3d625500	0.055256844
98	0xbde88646	-0.113537356
99	0xbe78880e	-0.2427065
100	0xbeb1a2ed	-0.34694615
101	0x3e6624cd	0.22474976
102	0x3e67f9bb	0.22653858
103	0xbe34ece1	-0.17668487
104	0x3c29a2cf	0.010353758
105	0xbe77bf58	-0.24194086
106	0xbed68837	-0.419008
107	0xbe26c474	-0.16285878
108	0xbe719ee2	-0.23595765
109	0xbc8e00f7	-0.017334444
110	0x3c428a41	0.011873783
111	0x3e2288f4	0.15872556
112	0xbd378565	-0.04480495
113	0xbceefa32	-0.029172037
114	0xbe8f5ebb	-0.2800196
115	0x3dcf87b0	0.10133302
116	0x3e70b7bd	0.2350759
117	0x3e4c6b6e	0.19962856
118	0xbf548fd8	-0.8303199
119	0xbbe8dbcb	-0.0071062795
120	0x3d185984	0.037194744
121	0x3de56665	0.11201171
122	0x3e5c06cc	0.21486968
123	0xbd0a0aaf	-0.033701595
124	0xbd3305ca	-0.043706693
125	0x3cda2a53	0.02663151
126	0xbf139f31	-0.5766478
127	0xbe7b5810	-0.24545312
128	0x3e8fb31d	0.2806634
129	0xbd7a908c	-0.061173007
130	0xbf54c31e	-0.83110225
131	0xbec6b7d6	-0.3881213
132	0x3e68887e	0.22708318
133	0xbe68b278	-0.2272433
134	0x3e57a924	0.21060616
135	0x3d0b0998	0.033944696
136	0xbd5d678b	-0.054053824
137	0x3dffc07a	0.12487884
138	0xbf327a42	-0.697178
139	0x3ca2a720	0.019855082
140	0x3e3b5383	0.18293576
141	0xbc5d61c0	-0.013512075
142	0xbef568b3	-0.47931442
143	0xbe0436c1	-0.12911512

linear3.bias f4 [12]
0	0xbe01a858	-0.12661874
1	0xbf867570	-1.0504589
2	0xbefc3c5a	-0.49264795
3	0xbf72bec2	-0.94822323
4	0x3dba408c	0.090943426
5	0xbd802a12	-0.06258024
6	0xbe7d4a06	-0.24735269
7	0x3fc01c86	1.5008705
8	0xbdd25b84	-0.102713615
9	0xbe650261	-0.22364189
10	0xbe047821	-0.1293645
11	0xbbe451df	-0.0069677676

linear2.weight f4 [2, 12]
0	0xbea6853d	-0.32523528
1	0xbe82f65c	-0.25578582
2	0xbd55c992	-0.052194186
3	0xbeb51047	-0.3536398
4	0xbd31f155	-0.043443043
5	0xbe28649a	-0.16444626
6	0xbd6156d0	-0.05501443
7	0x3e660b7f	0.22465323
8	0x3e1ffaee	0.15623066
9	0xbe1d7c26	-0.1537939
10	0xbeb072b8	-0.34462523
11	0xbe308f88	-0.17242253
12	0xbeac7bae	-0.3368811
13	0xbe78ddb5	-0.24303325
14	0xbda291ac	-0.07937941
15	0xbea94efb	-0.3306807
16	0xbdc687c6	-0.096938655
17	0x3e4f9d89	0.20274939
18	0xbd7428e7	-0.05960932
19	0x3e57e442	0.21083167
20	0x3e10b7ac	0.14132565
21	0xbe52f08c	-0.20599574
22	0xbea8f382	-0.32998282
23	0xbe3c6b88	-0.18400395

linear2.bias f4 [2]
0	0x3f82e5bb	1.0226358
1	0x3f9b4fab	1.2133688
