model/test6/test615.pth (torch, 2448 bytes, 4 tensors)

linear1.weight f4 [12, 7]
0	0xbe05bdac	-0.13060635
1	0xbef23031	-0.47302392
2	0xbf518671	-0.81845766
3	0xbd0a53c0	-0.033771276
4	0xbe5347aa	-0.20632806
5	0x3e2f2c37	0.1710671
6	0x3fa608b0	1.2971401
7	0xbd402073	-0.046905946
8	0xbd7c8248	-0.061647683
9	0xbdba4fcd	-0.09097252
10	0xbe91e75d	-0.2849683
11	0x3df108c8	0.11769253
12	0x3c747bde	0.01492211
13	0xbd557d6c	-0.052121565
14	0xbdb56299	-0.08856697
15	0x3ed28d76	0.4112355
16	0x3f7a4984	0.97768426
17	0x3dbca2f4	0.09210768
18	0x3c928af9	0.017888533
19	0xbc0de51f	-0.008660584
20	0xbfc4412d	-1.533239
21	0xbfb963eb	-1.4483618
22	0xbe795062	-0.2434707
23	0xbe9c52b9	-0.30531862
24	0xbeb5b746	-0.3549139
25	0xbcef8289	-0.029237049
26	0xbe6813ee	-0.22663853
27	0x3e62b776	0.22140297
28	0xbec3bf1e	-0.38231748
29	0x3d6fa5f6	0.058507882
30	0xbe6b2bdb	-0.22965948
31	0xbeb69e69	-0.35667732
32	0xbdba4ddb	-0.09096881
33	0x3e1127a3	0.14175276
34	0x3dda9728	0.10673362
35	0xc0a67775	-5.202082
36	0x3d819349	0.063269205
37	0x3f0b3038	0.5437045
38	0xbbadfc07	-0.005309585
39	0x3e7df456	0.24800238
40	0xbea2b7e5	-0.31780925
41	0xbed3555c	-0.41276062
42	0xbcd8af7f	-0.02645087
43	0xbe6a64f4	-0.22890073
44	0xbed500a2	-0.41602045
45	0x3dc714df	0.09720778
46	0xbedfd64b	-0.4371818
47	0xbeab9cf8	-0.33518195
48	0x3d308fda	0.043105938
49	0x3eccfbf9	0.4003599
50	0xbf5c98cf	-0.8617067
51	0x3dbbce59	0.09170217
52	0xbe9a4024	-0.3012706
53	0xbe30c6c3	-0.17263322
54	0xbe1f25d7	-0.15541779
55	0x3e3e1a52	0.18564728
56	0xbe676930	-0.2259872
57	0xbe5b3218	-0.21405828
58	0x3e8a7c47	0.2704794
59	0x3d9b2b7b	0.075766526
60	0xbd2e8a91	-0.042612616
61	0xbec5b24b	-0.3861259
62	0xbee0df51	-0.43920377
63	0xbfad5b4a	-1.3543484
64	0x3e3a46fd	0.18191142
65	0xbf1523c3	-0.58257693
66	0x3d705e56	0.058683716
67	0x3ec251fb	0.3795317
68	0xbec35984	-0.38154233
69	0x3ea22ac7	0.31673262
70	0xbd26cf04	-0.04072477
71	0xbe2025b2	-0.1563938
72	0xbdf8d494	-0.12149921
73	0xbd7ec388	-0.062198192
74	0xbf146d82	-0.57979596
75	0xba8aba3e	-0.0010584069
76	0x3da5d4f7	0.080972604
77	0xbe8c0443	-0.27347
78	0xbe3208e8	-0.1738621
79	0xbd577f40	-0.05261159
80	0xbf1360ce	-0.5756959
81	0xbe08aa2c	-0.13346165
82	0xbd707356	-0.058703743
83	0x3e5b4f20	0.21416903

linear1.bias f4 [12]
0	0xbf0a7c8c	-0.54096293
1	0xbe670fc4	-0.22564608
2	0xbfa201ee	-1.2656839
3	0x3e1e2790	0.1544478
4	0xbe245a78	-0.16050136
5	0x3d0c6e22	0.03428472
6	0xbe820a9e	-0.25398725
7	0xbf867cb6	-1.0506809
8	0xbecc39c6	-0.39887828
9	0x3fa092db	1.2544817
10	0x3d80db46	0.06291823
11	0xbf5c7dbb	-0.8612935

linear2.weight f4 [2, 12]
0	0xbe419b08	-0.18906796
1	0xbe2bdad2	-0.16782692
2	0xbe2d1936	-0.16904148
3	0x3f178811	0.59191996
4	0xbd482a7f	-0.048868652
5	0x3e4fe5e4	0.2030254
6	0x3d131022	0.035904057
7	0xbd6a4d40	-0.057202578
8	0x3d8e6174	0.069521815
9	0x3e87bd12	0.26511437
10	0x3c86aea4	0.016440697
11	0x3d317bdf	0.043331023
12	0xbe443a49	-0.19162859
13	0x3d2c2834	0.04203053
14	0xbe4885c4	-0.19582278
15	0x3f00837f	0.5020065
16	0x3e516a3a	0.20450678
17	0x3e6055a8	0.21907675
18	0xbc0d361a	-0.008618856
19	0xbe039617	-0.12850223
20	0x3d018a40	0.031625986
21	0x3e7330a2	0.2374902
22	0x3af456b2	0.001864156
23	0xbdfea030	-0.12432897

linear2.bias f4 [2]
0	0x41265b07	10.397223
1	0x41242097	10.2579565
