model/test6/test618.pth (torch, 2448 bytes, 4 tensors)

linear1.weight f4 [12, 7]
-0.022748137 -0.49507707 -0.86794245 -0.050913483 -0.21948364 0.14987767 1.3969913 -0.046905946
-0.061647683 -0.09097252 -0.2849683 0.11769253 0.01492211 -0.052121565 0.07719352 0.39819992
1.0383314 0.07832118 -0.016021447 0.0017879789 -1.605841 -1.4483618 -0.2434707 -0.30531862
-0.3549139 -0.029237049 -0.22663853 0.22140297 -0.38231748 0.058507882 -0.22965948 -0.35667732
-0.09096881 0.14175276 0.10673362 -5.6476955 -0.007237053 0.59854144 -0.055795718 0.18797024
-0.23374984 -0.44915172 -0.02645087 -0.22890073 -0.41602045 0.09720778 -0.4371818 -0.33518195
0.043105938 0.4003599 -0.8617067 0.09170217 -0.3012706 -0.17263322 -0.15541779 0.18564728
-0.2259872 -0.21405828 0.2704794 0.075766526 -0.042612616 -0.3861259 -0.43920377 -1.7845927
0.11179043 -0.39499566 0.04802379 0.2559209 -0.30067757 0.32162523 -0.04072477 -0.1563938
-0.12149921 -0.062198192 -0.57979596 -0.0010584069 0.080972604 -0.27347 -0.1738621 -0.05261159
-0.5756959 -0.13346165 -0.058703743 0.21416903
00000000: 4d5a babc be7a fdbe 7a31 5ebf a88a 50bd
00000010: 52c0 60be 8879 193e 9cd0 b23f 7320 40bd
00000020: 4882 7cbd cd4f babd 5de7 91be c808 f13d
00000030: de7b 743c 6c7d 55bd a317 9e3d dce0 cb3e
00000040: 0be8 843f db66 a03d 693f 83bc 9e5a ea3a
00000050: 338c cdbf eb63 b9bf 6250 79be b952 9cbe
00000060: 46b7 b5be 8982 efbc ee13 68be 76b7 623e
00000070: 1ebf c3be f6a5 6f3d db2b 6bbe 699e b6be
00000080: db4d babd a327 113e 2897 da3d ecb9 b4c0
00000090: cd24 edbb 033a 193f 0d8a 64bd 457b 403e
000000a0: 1e5c 6fbe 37f7 e5be 7faf d8bc f464 6abe
000000b0: a200 d5be df14 c73d 4bd6 dfbe f89c abbe
000000c0: da8f 303d f9fb cc3e cf98 5cbf 59ce bb3d
000000d0: 2440 9abe c3c6 30be d725 1fbe 521a 3e3e
000000e0: 3069 67be 1832 5bbe 477c 8a3e 7b2b 9b3d
000000f0: 918a 2ebd 4bb2 c5be 51df e0be 896d e4bf
00000100: 62f2 e43d df3c cabe 98b4 443d 1008 833e
00000110: 69f2 99be 10ac a43e 04cf 26bd b225 20be
00000120: 94d4 f8bd 88c3 7ebd 826d 14bf 3eba 8aba
00000130: f7d4 a53d 4304 8cbe e808 32be 407f 57bd
00000140: ce60 13bf 2caa 08be 5673 70bd 204f 5b3e

linear1.bias f4 [12]
-0.6000184 -0.22564608 -1.3986008 0.1544478 -0.16050136 -0.11013832 -0.25398725 -1.0506809
-0.39887828 1.0375724 0.06291823 -0.8612935
00000000: ce9a 19bf c40f 67be 5a05 b3bf 9027 1e3e
00000010: 785a 24be 3390 e1bd 9e0a 82be b67c 86bf
00000020: c639 ccbe 2ccf 843f 46db 803d bb7d 5cbf

linear2.weight f4 [2, 12]
-0.18612127 -0.16782692 -0.13498023 0.59191996 -0.048868652 0.11816173 0.035904057 -0.057202578
0.069521815 0.34439465 0.016440697 0.043331023 -0.15526822 0.04203053 -0.15490298 0.5020065
0.20450678 0.13459057 -0.008618856 -0.12850223 0.031625986 0.34451592 0.001864156 -0.12432897
00000000: 9396 3ebe d2da 2bbe 4238 0abe 1188 173f
00000010: 7f2a 48bd c7fe f13d 2210 133d 404d 6abd
00000020: 7461 8e3d 7f54 b03e a4ae 863c df7b 313d
00000030: a2fe 1ebe 3428 2c3d e39e 1ebe 7f83 003f
00000040: 3a6a 513e 1cd2 093e 1a36 0dbc 1796 03be
00000050: 408a 013d 6464 b03e b256 f43a 30a0 febd

linear2.bias f4 [2]
15.324356 14.817756
00000000: 9030 7541 8715 6d41
