model/test6/test62.pth (torch, 3518 bytes, 6 tensors)

linear1.weight f4 [12, 7]
0	0x3c60241a	0.013680482
1	0xbeac469f	-0.3364763
2	0x3eb10368	0.3457291
3	0x3dadb909	0.08482558
4	0xbea2a265	-0.31764522
5	0xbeafee2d	-0.343614
6	0xbe5f3966	-0.2179924
7	0xbc4a4f3b	-0.012347992
8	0xbe976c50	-0.29574823
9	0xbe80c461	-0.25149825
10	0xbe3ab4f6	-0.18233094
11	0xbcd51141	-0.026009204
12	0x3e0ef0fb	0.13959114
13	0x3da73342	0.081640735
14	0xbed112e6	-0.4083473
15	0xbe72f455	-0.23726018
16	0x3e14c180	0.1452694
17	0xbe7a0ffc	-0.2442016
18	0x3e6d7326	0.23188457
19	0xbd4dfaec	-0.050288126
20	0xbe34ab8b	-0.17643563
21	0xbebad657	-0.36491653
22	0x3df1e591	0.118113644
23	0x3e7406eb	0.23830764
24	0xbef88676	-0.48540086
25	0x3e1e51c0	0.15460873
26	0xbee99572	-0.4562183
27	0xbd25c20f	-0.04046827
28	0xbf54a5df	-0.830656
29	0x3e8d5788	0.27605844
30	0x3e9620b2	0.2932182
31	0xbeadc580	-0.33939743
32	0x3ed9dcdd	0.42551318
33	0xbc1905cc	-0.009339761
34	0x3d7857a1	0.060630444
35	0xbc90c108	-0.01767017
36	0xbeba3508	-0.36368585
37	0xbe1cd3dd	-0.15315194
38	0x3e150dca	0.14556041
39	0x3e556697	0.20839916
40	0xbdb5857c	-0.08863351
41	0x3f0e7fed	0.5566395
42	0xbe56f2c5	-0.20991047
43	0xbdd80bc9	-0.10549123
44	0xbf14e6db	-0.5816476
45	0x3de3f5e4	0.11130884
46	0xbea4f8db	-0.32221112
47	0x3ec2157e	0.37907022
48	0x3f2fafff	0.68627924
49	0xbea99847	-0.3312399
50	0xbe8246eb	-0.2544473
51	0x3dcd3304	0.10019496
52	0xbd73a558	-0.059483856
53	0xbc02d820	-0.0079860985
54	0x3c826f40	0.015922189
55	0xbe4bfd97	-0.19920956
56	0x3eaf8e2b	0.34288153
57	0x3e9ada3e	0.3024463
58	0x3f17c7aa	0.5928904
59	0x3d89f986	0.06737046
60	0x3e268237	0.1626061
61	0xbd6a50df	-0.05720603
62	0xbf3e8514	-0.7442181
63	0x3da1e5d8	0.07905167
64	0xbefb03b9	-0.49026278
65	0xbe554950	-0.20828748
66	0xbeb8d2b3	-0.3609825
67	0xbe98c427	-0.29837152
68	0xbe1d986d	-0.15390177
69	0x3e6fe6f3	0.23427944
70	0x3e8f80c4	0.28027928
71	0xbf2c75db	-0.67367333
72	0xbd24dc4b	-0.04024915
73	0xbca56952	-0.020191822
74	0xbef8935a	-0.4854992
75	0x3ee16158	0.4401958
76	0x3f6d1450	0.9260912
77	0x3ee280b5	0.4423882
78	0xbcef9db1	-0.029249998
79	0xbf028c0f	-0.5099496
80	0x3d11895f	0.035531398
81	0x3db36bee	0.0876082
82	0xbd99b619	-0.075054355
83	0x3f4f4d89	0.80977684

linear1.bias f4 [12]
0	0x3e8c4274	0.2739445
1	0xbeab31bd	-0.33436385
2	0xbe4bc3c3	-0.19898896
3	0xbef6d846	-0.4821188
4	0x3e8d4c06	0.27597064
5	0xbe21137b	-0.15730087
6	0xbe13e8e7	-0.14444314
7	0x3e5cd146	0.21564206
8	0x3c918046	0.01776136
9	0xbeaeaebd	-0.3411769
10	0xbf1d5b21	-0.61467177
11	0x3e608d5c	0.21928924

linear3.weight f4 [12, 12]
0	0xbdae8ffe	-0.08523558
1	0x3db950c8	0.09048611
2	0x3e33fb24	0.17576271
3	0x3ba261fb	0.004955528
4	0x3d8400ac	0.06445441
5	0xbedf7e25	-0.43650928
6	0xbed9f31c	-0.4256829
7	0xbe742800	-0.23843384
8	0x3ed5abbb	0.41732582
9	0xbdaf9a2c	-0.08574328
10	0xbefac16f	-0.48975703
11	0xbd97d75f	-0.07414126
12	0xbe79823f	-0.24366091
13	0xbda84ca9	-0.08217747
14	0xbe7929aa	-0.243323
15	0xbdac3bf1	-0.084098704
16	0xbed8f375	-0.42373243
17	0xbd06c5ad	-0.032903362
18	0xbe37b80c	-0.17941302
19	0x3e4e254e	0.20131418
20	0xbe030596	-0.127951
21	0x3da69e44	0.081356555
22	0x3f439372	0.7639686
23	0xbe1f8977	-0.15579782
24	0xbdb42232	-0.08795585
25	0xbe859b0d	-0.26094857
26	0xbe870b78	-0.26375937
27	0xbddedb10	-0.108816266
28	0xbe297356	-0.16547903
29	0xbdbefb88	-0.093253195
30	0xbe09577b	-0.13412277
31	0xbd5b0734	-0.053473666
32	0xbb8d52cf	-0.00431285
33	0xbe2b8950	-0.167516
34	0xbe0c3041	-0.13690282
35	0xbd8c6559	-0.06855268
36	0xbe167c0c	-0.14695758
37	0x3dd04706	0.10169797
38	0x3d3a8980	0.045541286
39	0xbe60dd64	-0.21959454
40	0xbda54cc3	-0.08071282
41	0x3dd72f57	0.10507076
42	0x3ea0b242	0.31386
43	0x3db86704	0.09004024
44	0xbf1b295b	-0.6060998
45	0x3d4fb722	0.05071176
46	0x3e6e82d1	0.2329209
47	0x3cebdbfc	0.02879142
48	0xbd562784	-0.05228378
49	0x3e1ab770	0.15109038
50	0xbe93c180	-0.28858566
51	0xbe93adc9	-0.28843525
52	0xbe92f1f3	-0.28700218
53	0xbe28e1ff	-0.1649246
54	0xbecf194c	-0.40448987
55	0x3e69d964	0.22836834
56	0xbe0b724a	-0.13617817
57	0x3e45b4c0	0.19307232
58	0xbb55ada3	-0.0032604716
59	0x3d46a3fa	0.048496224
60	0xbe158f78	-0.1460551
61	0x3dbb7c20	0.09154534
62	0x3daa09c8	0.08302647
63	0x3d840a71	0.06447304
64	0xbe23fdaa	-0.16014734
65	0xbead8814	-0.33892882
66	0xbdde936f	-0.108679645
67	0xbcde0b80	-0.027105093
68	0xbacac091	-0.0015468766
69	0x3e82062a	0.25395328
70	0x3e818a94	0.2530104
71	0xbe58317a	-0.21112624
72	0x3de0669c	0.10957071
73	0xbe0cdf7b	-0.13757126
74	0xbc983ea0	-0.01858455
75	0xbe1ebed1	-0.15502478
76	0xbdaaf5ad	-0.0834764
77	0x3d2fda48	0.04293278
78	0xbb672d0b	-0.003527465
79	0xbde498ee	-0.111619815
80	0xbe3bf0ca	-0.18353572
81	0xbe5e20f2	-0.21692255
82	0x3d57f01b	0.052719217
83	0xbe502d00	-0.20329666
84	0x3b2b6014	0.0026149796
85	0xbcb46b8d	-0.02202394
86	0xbe2b3f5d	-0.1672339
87	0x3ce9ebe1	0.028554859
88	0x3f188c2e	0.595889
89	0x3d8a4bec	0.06752762
90	0xbdbbcc26	-0.091697976
91	0x3e608784	0.21926695
92	0x3e513bd5	0.2043298
93	0x3dcbd310	0.09952366
94	0xbf2cf6c2	-0.6756402
95	0x3dfdf6be	0.12400578
96	0xbddd4502	-0.10804178
97	0x3d625500	0.055256844
98	0xbde88646	-0.113537356
99	0xbe78880e	-0.2427065
100	0xbe24bb54	-0.16087085
101	0x3dd5621c	0.104191035
102	0x3e5ecab9	0.2175702
103	0xbe34ece1	-0.17668487
104	0xbc75fd13	-0.015013951
105	0xbe77bf58	-0.24194086
106	0xbe92fa22	-0.2870646
107	0xbe88acd7	-0.26694366
108	0xbe719ee2	-0.23595765
109	0xbc8e00f7	-0.017334444
110	0x3c428a41	0.011873783
111	0x3e2288f4	0.15872556
112	0x3d05426b	0.032534044
113	0xbd97b084	-0.074067146
114	0xbe72a6a8	-0.23696387
115	0x3dcf87b0	0.10133302
116	0x3e197c57	0.14988838
117	0x3e4c6b6e	0.19962856
118	0xbf19834a	-0.59965956
119	0xbdaece07	-0.0853539
120	0x3d185984	0.037194744
121	0x3de56665	0.11201171
122	0x3e5c06cc	0.21486968
123	0xbd0a0aaf	-0.033701595
124	0x3cf92596	0.03041343
125	0x3d24a643	0.040197622
126	0xbecf3a02	-0.40473944
127	0xbe7b5810	-0.24545312
128	0x3ea544db	0.32279095
129	0xbd7a908c	-0.061173007
130	0xbf4d118c	-0.801049
131	0xbeb17ffd	-0.3466796
132	0x3e68887e	0.22708318
133	0xbe68b278	-0.2272433
134	0x3e57a924	0.21060616
135	0x3d0b0998	0.033944696
136	0xbadb54e9	-0.0016733679
137	0x3cf2bbda	0.02963059
138	0xbf2f398b	-0.6844718
139	0x3ca2a720	0.019855082
140	0x3d5600b9	0.052246783
141	0xbc5d61c0	-0.013512075
142	0xbed7cbd0	-0.42147684
143	0xbe3213ce	-0.17390367

linear3.bias f4 [12]
0	0xbdd3334e	-0.1031252
1	0xbf616a09	-0.8805242
2	0xbefc3c5a	-0.49264795
3	0xbf5ba6c6	-0.8580135
4	0x3e0cf872	0.1376665
5	0xbd802a12	-0.06258024
6	0xbe7d4a06	-0.24735269
7	0x3f8bdb04	1.0926213
8	0xbe4298f1	-0.19003655
9	0xbe279344	-0.16364771
10	0xbdae582d	-0.08512912
11	0xbd51a411	-0.051181857

linear2.weight f4 [2, 12]
0	0xbe91fc87	-0.28512976
1	0xbe7b327a	-0.24530974
2	0xbd55c992	-0.052194186
3	0xbea153bb	-0.31509194
4	0xbdcd88af	-0.10035836
5	0xbe28649a	-0.16444626
6	0xbd6156d0	-0.05501443
7	0x3e668b54	0.22514087
8	0x3e02a301	0.12757494
9	0xbe19f040	-0.15033054
10	0xbe9486b6	-0.29009026
11	0xbdfd6fbe	-0.12374829
12	0xbea1e42d	-0.31619397
13	0xbe81ef2f	-0.25377795
14	0xbda291ac	-0.07937941
15	0xbe98e4e3	-0.29862127
16	0xbe2ebc7e	-0.17064092
17	0x3e4f9d89	0.20274939
18	0xbd7428e7	-0.05960932
19	0x3e55f4fd	0.20894237
20	0x3dd9e55d	0.10639451
21	0xbe050a5a	-0.1299223
22	0xbe7487da	-0.23879948
23	0xbe2e6e0f	-0.17034172

linear2.bias f4 [2]
0	0x3f3ecfef	0.7453603
1	0x3f6339d7	0.8876013
