model/test6/test621.pth (torch, 2448 bytes, 4 tensors)

linear1.weight f4 [12, 7]
-0.011593918 -0.5007992 -0.90953493 -0.06369356 -0.20783232 0.15694933 1.463828 -0.046905946
-0.061647683 -0.09097252 -0.2849683 0.11769253 0.01492211 -0.052121565 0.12465785 0.44657594
1.080201 0.08019531 0.015551939 -0.031117644 -1.6070583 -1.4483618 -0.2434707 -0.30531862
-0.3549139 -0.029237049 -0.22663853 0.22140297 -0.38231748 0.058507882 -0.22965948 -0.35667732
-0.09096881 0.14175276 0.10673362 -6.2613363 0.03914201 0.6040497 -0.03594457 0.21598022
-0.28414258 -0.40476796 -0.02645087 -0.22890073 -0.41602045 0.09720778 -0.4371818 -0.33518195
0.043105938 0.4003599 -0.8617067 0.09170217 -0.3012706 -0.17263322 -0.15541779 0.18564728
-0.257798 -0.24018162 0.24911264 0.046507455 -0.07116673 -0.35135815 -0.4220209 -1.901005
-0.0068461527 -0.3793312 0.02149762 0.13504978 -0.2671982 0.32632598 -0.04072477 -0.1563938
-0.12149921 -0.062198192 -0.57979596 -0.0010584069 0.080972604 -0.27347 -0.1738621 -0.05261159
-0.5756959 -0.13346165 -0.058703743 0.21416903
00000000: 6bf4 3dbc 6034 00bf 48d7 68bf c571 82bd
00000010: ffd1 54be 53b7 203e b75e bb3f 7320 40bd
00000020: 4882 7cbd cd4f babd 5de7 91be c808 f13d
00000030: de7b 743c 6c7d 55bd 9d4c ff3d 9aa5 e43e
00000040: 0744 8a3f 703d a43d 8fcd 7e3c 6eea febc
00000050: 16b4 cdbf eb63 b9bf 6250 79be b952 9cbe
00000060: 46b7 b5be 8982 efbc ee13 68be 76b7 623e
00000070: 1ebf c3be f6a5 6f3d db2b 6bbe 699e b6be
00000080: db4d babd a327 113e 2897 da3d de5c c8c0
00000090: 5f53 203d 00a3 1a3f 9d3a 13bd eb29 5d3e
000000a0: 237b 91be bf3d cfbe 7faf d8bc f464 6abe
000000b0: a200 d5be df14 c73d 4bd6 dfbe f89c abbe
000000c0: da8f 303d f9fb cc3e cf98 5cbf 59ce bb3d
000000d0: 2440 9abe c3c6 30be d725 1fbe 521a 3e3e
000000e0: 19fe 83be 2cf2 75be 6217 7f3e 9a7e 3e3d
000000f0: ddbf 91bd 37e5 b3be 2013 d8be 2254 f3bf
00000100: b155 e0bb b337 c2be c71b b03c 7d4a 0a3e
00000110: 34ce 88be 3314 a73e 04cf 26bd b225 20be
00000120: 94d4 f8bd 88c3 7ebd 826d 14bf 3eba 8aba
00000130: f7d4 a53d 4304 8cbe e808 32be 407f 57bd
00000140: ce60 13bf 2caa 08be 5673 70bd 204f 5b3e

linear1.bias f4 [12]
-0.6285408 -0.22564608 -1.3930836 0.1544478 -0.16050136 -0.022973437 -0.25398725 -1.0506809
-0.4273708 0.8550172 0.06291823 -0.8612935
00000000: 0de8 20bf c40f 67be 9050 b2bf 9027 1e3e
00000010: 785a 24be ca32 bcbc 9e0a 82be b67c 86bf
00000020: 58d0 dabe 68e2 5a3f 46db 803d bb7d 5cbf

linear2.weight f4 [2, 12]
-0.20264545 -0.16782692 -0.16282281 0.59191996 -0.048868652 0.17255534 0.035904057 -0.057202578
0.024937697 0.33616123 0.016440697 0.043331023 -0.17472105 0.04203053 -0.1610482 0.5020065
0.20450678 0.13878745 -0.008618856 -0.12850223 0.0633918 0.35424903 0.001864156 -0.12432897
00000000: 4a82 4fbe d2da 2bbe 06bb 26be 1188 173f
00000010: 7f2a 48bd 59b2 303e 2210 133d 404d 6abd
00000020: 244a cc3c 531d ac3e a4ae 863c df7b 313d
00000030: 13ea 32be 3428 2c3d d2e9 24be 7f83 003f
00000040: 3a6a 513e 4c1e 0e3e 1a36 0dbc 1796 03be
00000050: 8fd3 813d 2160 b53e b256 f43a 30a0 febd

linear2.bias f4 [2]
18.218576 17.672071
00000000: a5bf 9141 6760 8d41
