model/test6/test622.pth (torch, 2448 bytes, 4 tensors)

linear1.weight f4 [12, 7]
-0.026064059 -0.47790834 -0.9351893 -0.040196612 -0.15899298 0.1840406 1.4463936 -0.046905946
-0.061647683 -0.09097252 -0.2849683 0.11769253 0.01492211 -0.052121565 0.028365342 0.4560607
1.0449705 0.0944526 0.059186075 -0.0695881 -1.6583887 -1.4483618 -0.2434707 -0.30531862
-0.3549139 -0.029237049 -0.22663853 0.22140297 -0.38231748 0.058507882 -0.22965948 -0.35667732
-0.09096881 0.14175276 0.10673362 -6.3970637 0.031549007 0.55208194 -0.06597449 0.25789854
-0.2422851 -0.4637312 -0.02645087 -0.22890073 -0.41602045 0.09720778 -0.4371818 -0.33518195
0.043105938 0.4003599 -0.8617067 0.09170217 -0.3012706 -0.17263322 -0.15541779 0.18564728
-0.257798 -0.24018162 0.24911264 0.046507455 -0.07116673 -0.35135815 -0.4220209 -1.8051785
0.027645182 -0.33598763 0.11201123 0.14217047 -0.2623105 0.32602945 -0.04072477 -0.1563938
-0.12149921 -0.062198192 -0.57979596 -0.0010584069 0.080972604 -0.27347 -0.1738621 -0.05261159
-0.5756959 -0.13346165 -0.058703743 0.21416903
00000000: 4b84 d5bc 67b0 f4be 9168 6fbf 34a5 24bd
00000010: 0ecf 22be 2475 3c3e 6d23 b93f 7320 40bd
00000020: 4882 7cbd cd4f babd 5de7 91be c808 f13d
00000030: de7b 743c 6c7d 55bd 6f5e e83c ca80 e93e
00000040: 98c1 853f 5d70 c13d 196d 723d 3584 8ebd
00000050: 1546 d4bf eb63 b9bf 6250 79be b952 9cbe
00000060: 46b7 b5be 8982 efbc ee13 68be 76b7 623e
00000070: 1ebf c3be f6a5 6f3d db2b 6bbe 699e b6be
00000080: db4d babd a327 113e 2897 da3d bfb4 ccc0
00000090: 8839 013d 3e55 0d3f a21d 87bd 470b 843e
000000a0: 9619 78be 2d6e edbe 7faf d8bc f464 6abe
000000b0: a200 d5be df14 c73d 4bd6 dfbe f89c abbe
000000c0: da8f 303d f9fb cc3e cf98 5cbf 59ce bb3d
000000d0: 2440 9abe c3c6 30be d725 1fbe 521a 3e3e
000000e0: 19fe 83be 2cf2 75be 6217 7f3e 9a7e 3e3d
000000f0: ddbf 91bd 37e5 b3be 2013 d8be 1710 e7bf
00000100: 2678 e23c 9206 acbe 2566 e53d 2395 113e
00000110: 904d 86be 55ed a63e 04cf 26bd b225 20be
00000120: 94d4 f8bd 88c3 7ebd 826d 14bf 3eba 8aba
00000130: f7d4 a53d 4304 8cbe e808 32be 407f 57bd
00000140: ce60 13bf 2caa 08be 5673 70bd 204f 5b3e

linear1.bias f4 [12]
-0.58245105 -0.22564608 -1.3584312 0.1544478 -0.16050136 0.014094904 -0.25398725 -1.0506809
-0.4273708 0.88375 0.06291823 -0.8612935
00000000: 831b 15bf c40f 67be 13e1 adbf 9027 1e3e
00000010: 785a 24be 50ee 663c 9e0a 82be b67c 86bf
00000020: 58d0 dabe 713d 623f 46db 803d bb7d 5cbf

linear2.weight f4 [2, 12]
-0.17333461 -0.16782692 -0.15153003 0.59191996 -0.048868652 0.14178024 0.035904057 -0.057202578
0.024937697 0.30107415 0.016440697 0.043331023 -0.1445569 0.04203053 -0.16669068 0.5020065
0.20450678 0.1350248 -0.008618856 -0.12850223 0.0633918 0.2958643 0.001864156 -0.12432897
00000000: a17e 31be d2da 2bbe b02a 1bbe 1188 173f
00000010: 7f2a 48bd d72e 113e 2210 133d 404d 6abd
00000020: 244a cc3c 6426 9a3e a4ae 863c df7b 313d
00000030: b906 14be 3428 2c3d f6b0 2abe 7f83 003f
00000040: 3a6a 513e f143 0a3e 1a36 0dbc 1796 03be
00000050: 8fd3 813d 877b 973e b256 f43a 30a0 febd

linear2.bias f4 [2]
19.003605 18.130392
00000000: 6207 9841 0b0b 9141
