model/test6/test623.pth (torch, 2448 bytes, 4 tensors)

linear1.weight f4 [12, 7]
00000000: c166 b0bc d829 f8be 035f 7cbf 7bcb 9fbd
00000010: 76e3 41be f8e6 af3d b536 bf3f 7320 40bd
00000020: 4882 7cbd cd4f babd 5de7 91be c808 f13d
00000030: de7b 743c 6c7d 55bd 4953 c83d 2c81 ed3e
00000040: 97ac 843f 6e2e a63d df64 903d 85c6 8cbd
00000050: 9bf3 d7bf eb63 b9bf 6250 79be b952 9cbe
00000060: 46b7 b5be 8982 efbc ee13 68be 76b7 623e
00000070: 1ebf c3be f6a5 6f3d db2b 6bbe 699e b6be
00000080: db4d babd a327 113e 2897 da3d 9092 d1c0
00000090: 4f8e 4a3c 30fc 0d3f 6602 0dbe 293f 593e
000000a0: 3b4c a5be 954e d9be 7faf d8bc f464 6abe
000000b0: a200 d5be df14 c73d 4bd6 dfbe f89c abbe
000000c0: da8f 303d f9fb cc3e cf98 5cbf 59ce bb3d
000000d0: 2440 9abe c3c6 30be d725 1fbe 521a 3e3e
000000e0: 19fe 83be 2cf2 75be 6217 7f3e 9a7e 3e3d
000000f0: ddbf 91bd 37e5 b3be 2013 d8be aa8c febf
00000100: 7352 c33b e8b7 92be 42e5 8b3d 1933 013e
00000110: 364f 50be 7bd3 b03e 04cf 26bd b225 20be
00000120: 94d4 f8bd 88c3 7ebd 826d 14bf 3eba 8aba
00000130: f7d4 a53d 4304 8cbe e808 32be 407f 57bd
00000140: ce60 13bf 2caa 08be 5673 70bd 204f 5b3e
-0.021533372 -0.48469424 -0.98582476 -0.07802483 -0.18934426 0.08588976 1.493857 -0.046905946
-0.061647683 -0.09097252 -0.2849683 0.11769253 0.01492211 -0.052121565 0.097815104 0.46387613
1.036517 0.081143245 0.0705049 -0.06873802 -1.6871217 -1.4483618 -0.2434707 -0.30531862
-0.3549139 -0.029237049 -0.22663853 0.22140297 -0.38231748 0.058507882 -0.22965948 -0.35667732
-0.09096881 0.14175276 0.10673362 -6.549141 0.012363031 0.5546293 -0.13770446 0.212155
-0.32284722 -0.42442766 -0.02645087 -0.22890073 -0.41602045 0.09720778 -0.4371818 -0.33518195
0.043105938 0.4003599 -0.8617067 0.09170217 -0.3012706 -0.17263322 -0.15541779 0.18564728
-0.257798 -0.24018162 0.24911264 0.046507455 -0.07116673 -0.35135815 -0.4220209 -1.9886677
0.0059607564 -0.28655934 0.06830837 0.12617148 -0.20342717 0.34536347 -0.04072477 -0.1563938
-0.12149921 -0.062198192 -0.57979596 -0.0010584069 0.080972604 -0.27347 -0.1738621 -0.05261159
-0.5756959 -0.13346165 -0.058703743 0.21416903

linear1.bias f4 [12]
00000000: 6c83 12bf c40f 67be d118 afbf 9027 1e3e
00000010: 785a 24be dac2 94bc 9e0a 82be b67c 86bf
00000020: 58d0 dabe 0ffd 523f 46db 803d bb7d 5cbf
-0.57231784 -0.22564608 -1.3679448 0.1544478 -0.16050136 -0.018159319 -0.25398725 -1.0506809
-0.4273708 0.82417387 0.06291823 -0.8612935

linear2.weight f4 [2, 12]
00000000: bbf6 42be d2da 2bbe d577 36be 1188 173f
00000010: 7f2a 48bd 90da 043e 2210 133d 404d 6abd
00000020: 244a cc3c 560e bc3e a4ae 863c df7b 313d
00000030: 5a82 25be 3428 2c3d 9a9d 40be 7f83 003f
00000040: 3a6a 513e 2475 0b3e 1a36 0dbc 1796 03be
00000050: 8fd3 813d d206 b93e b256 f43a 30a0 febd
-0.19039433 -0.16782692 -0.1781915 0.59191996 -0.048868652 0.12974 0.035904057 -0.057202578
0.024937697 0.36729687 0.016440697 0.043331023 -0.16163006 0.04203053 -0.1881012 0.5020065
0.20450678 0.13618904 -0.008618856 -0.12850223 0.0633918 0.36138016 0.001864156 -0.12432897

linear2.bias f4 [2]
00000000: 64c8 9a41 4c39 9741
19.347847 18.902977
