model/test6/test610.pth (torch, 3528 bytes, 6 tensors)

linear1.weight f4 [12, 7]
0.013680482 -0.3364763 0.3457291 0.08482558 -0.31764522 -0.343614 -0.2179924 -0.028346905
-0.31180158 -0.26755166 -0.19837035 -0.04206255 0.12353777 0.06557491 -0.4083473 -0.23726018
0.1452694 -0.2442016 0.23188457 -0.050288126 -0.17643563 -0.36491653 0.118113644 0.23830764
-0.48540086 0.15460873 -0.4562183 -0.04046827 -2.328576 0.14940724 -0.40834895 -0.16584736
0.5257811 -0.23441982 0.1950283 -0.33906585 -0.39874405 -0.07339514 0.39037874 0.056854848
-0.18171526 0.2610824 -0.6251349 -0.14385208 -0.69310784 0.025844274 -0.31454086 0.41750202
0.8362836 -0.3312399 -0.2544473 0.10019496 -0.059483856 -0.0079860985 0.015922189 -0.19920956
0.30384073 0.3721727 0.26652646 0.11356226 0.2798412 -0.1932734 -0.83750623 0.023074165
-0.5466452 -0.26467004 -0.4172347 -0.354754 -0.21028432 0.17775844 0.3434011 -0.92623705
0.058204178 0.5439232 -0.6134765 0.8093146 1.1503392 -0.027129406 0.20504597 -0.7923338
-0.020393366 0.49237892 -0.40789002 0.9077361
00000000: 1a24 603c 9f46 acbe 6803 b13e 09b9 ad3d
00000010: 65a2 a2be 2dee afbe 6639 5fbe c537 e8bc
00000020: 75a4 9fbe 88fc 88be 9921 4bbe c849 2cbd
00000030: 5f01 fd3d 234c 863d e612 d1be 55f4 72be
00000040: 80c1 143e fc0f 7abe 2673 6d3e ecfa 4dbd
00000050: 8bab 34be 57d6 babe 91e5 f13d eb06 743e
00000060: 7686 f8be c051 1e3e 7295 e9be 0fc2 25bd
00000070: 6407 15c0 36fe 183e 1d13 d1be e4d3 29be
00000080: 9799 063f c00b 70be 80b5 473e 0a9a adbe
00000090: 2e28 ccbe 3150 96bd b9df c73e a1e0 683d
000000a0: 9113 3abe 98ac 853e d708 20bf f64d 13be
000000b0: 846f 31bf 5fb7 d33c 800b a1be d3c2 d53e
000000c0: af16 563f 4798 a9be eb46 82be 0433 cd3d
000000d0: 58a5 73bd 20d8 02bc 406f 823c 97fd 4bbe
000000e0: 0391 9b3e 6c8d be3e 2876 883e 5593 e83d
000000f0: 5947 8f3e 76e9 45be cf66 56bf 0806 bd3c
00000100: f1f0 0bbf d582 87be c99f d5be 51a2 b5be
00000110: c654 57be 4f06 363e 45d2 af3e df1d 6dbf
00000120: 8167 6e3d 8d3e 0b3f cc0c 1dbf 3e2f 4f3f
00000130: 513e 933f 7d3e debc 92f7 513e 63d6 4abf
00000140: fd0f a7bc 1719 fc3e f6d6 d0be 6561 683f

linear1.bias f4 [12]
0.2739445 -0.35041982 -0.19898896 -0.4821188 0.6239242 -0.36541888 -0.10567737 0.21564206
0.41712976 -0.3975593 -1.0928441 0.8914443
00000000: 7442 8c3e 3a6a b3be c3c3 4bbe 46d8 f6be
00000010: 7fb9 1f3f 2f18 bbbe 616d d8bd 46d1 5c3e
00000020: 0892 d53e e48c cbbe 51e2 8bbf b235 643f

linear3.weight f4 [12, 12]
-0.08523558 0.09048611 0.17576271 0.004955528 0.085769735 -1.4464902 -0.96444345 -0.23843384
-0.091657445 -0.08574328 -0.32201034 0.38250378 -0.24366091 -0.09980019 -0.243323 -0.084098704
-1.6850351 -0.25792277 0.13151678 0.20131418 -1.1011583 0.032384485 0.55750793 -0.28557342
-0.08795585 -0.26094857 -0.26375937 -0.108816266 -0.16547903 -0.093253195 -0.13412277 -0.053473666
-0.00431285 -0.167516 -0.13690282 -0.06855268 -0.14695758 0.08407573 0.045541286 -0.21959454
-0.3280247 0.12285268 0.5874608 0.09004024 -0.53779334 0.0017406474 -0.013719174 0.08403704
-0.05228378 0.15109038 -0.28858566 -0.28843525 -0.28700218 -0.2079757 -0.40448987 0.22836834
-0.1808838 0.19307232 -0.048743058 0.002544898 -0.1460551 0.09154534 0.08302647 0.06447304
-0.21136878 -0.328439 -0.30164224 -0.027105093 -0.41918388 0.25395328 0.28090733 -0.07498833
0.10957071 -0.13757126 -0.01858455 -0.15502478 -0.0834764 0.04293278 -0.003527465 -0.111619815
-0.18353572 -0.21692255 0.052719217 -0.20329666 0.0026149796 -0.02202394 -0.1672339 0.028554859
0.4921501 -0.1731379 -0.7729702 0.21926695 0.6926297 0.09952366 -0.31137508 0.2887797
-0.10804178 0.055256844 -0.113537356 -0.2427065 -0.1119331 0.11734936 0.41596815 -0.17668487
-0.3077449 -0.24194086 -1.0133746 0.13084067 -0.23595765 -0.017334444 0.011873783 0.15872556
-0.094385296 0.09446954 -0.5114435 0.10133302 0.20170513 0.19962856 -0.7511222 -0.072557375
0.037194744 0.11201171 0.21486968 -0.033701595 -0.13900137 -0.03160008 -0.7791224 -0.24545312
0.51186293 -0.061173007 -0.22010979 -0.122422084 0.22708318 -0.2272433 0.21060616 0.033944696
0.06426078 0.37140235 -0.41160017 0.019855082 0.22800909 -0.013512075 0.11238249 -0.67788374
00000000: fe8f aebd c850 b93d 24fb 333e fb61 a23b
00000010: 0ba8 af3d 9726 b9bf c4e5 76bf 0028 74be
00000020: e6b6 bbbd 2c9a afbd 8ade a4be 89d7 c33e
00000030: 3f82 79be 0b64 ccbd aa29 79be f13b acbd
00000040: 3baf d7bf 740e 84be 56ac 063e 4e25 4e3e
00000050: c1f2 8cbf 98a5 043d d7b8 0e3f ae36 92be
00000060: 3222 b4bd 0d9b 85be 780b 87be 10db debd
00000070: 5673 29be 88fb bebd 7b57 09be 3407 5bbd
00000080: cf52 8dbb 5089 2bbe 4130 0cbe 5965 8cbd
00000090: 0c7c 16be e52f ac3d 8089 3a3d 64dd 60be
000000a0: daf2 a7be 309a fb3d d563 163f 0467 b83d
000000b0: d3ac 09bf 6f26 e43a 63c6 60bc 9d1b ac3d
000000c0: 8427 56bd 70b7 1a3e 80c1 93be c9ad 93be
000000d0: f3f1 92be 95f7 54be 4c19 cfbe 64d9 693e
000000e0: 9a39 39be c0b4 453e cda6 47bd 4ec8 263b
000000f0: 788f 15be 207c bb3d c809 aa3d 710a 843d
00000100: 0f71 58be 2829 a8be da70 9abe 800b debc
00000110: 459f d6be 2a06 823e 16d3 8f3e 7b93 99bd
00000120: 9c66 e03d 7bdf 0cbe a03e 98bc d1be 1ebe
00000130: adf5 aabd 48da 2f3d 0b2d 67bb ee98 e4bd
00000140: caf0 3bbe f220 5ebe 1bf0 573d 002d 50be
00000150: 1460 2b3b 8d6b b4bc 5d3f 2bbe e1eb e93c
00000160: 19fb fb3e 104b 31be 60e1 45bf 8487 603e
00000170: 2e50 313f 10d3 cb3d 8e6c 9fbe efda 933e
00000180: 0245 ddbd 0055 623d 4686 e8bd 0e88 78be
00000190: 2e3d e5bd dc54 f03d c7f9 d43e e1ec 34be
000001a0: bd90 9dbe 58bf 77be 42b6 81bf 19fb 053e
000001b0: e29e 71be f700 8ebc 418a 423c f488 223e
000001c0: 144d c1bd 3f79 c13d f6ed 02bf b087 cf3d
000001d0: ca8b 4e3e 6e6b 4c3e 8b49 40bf f698 94bd
000001e0: 8459 183d 6566 e53d cc06 5c3e af0a 0abd
000001f0: 6056 0ebe 166f 01bd 9174 47bf 1058 7bbe
00000200: 7309 033f 8c90 7abd 7664 61be 6eb8 fabd
00000210: 7e88 683e 78b2 68be 24a9 573e 9809 0b3d
00000220: 289b 833d 7328 be3e 42bd d2be 20a7 a23c
00000230: 377b 693e c061 5dbc ca28 e63d ca89 2dbf

linear3.bias f4 [12]
-0.19292516 -2.6653793 -0.49264795 -1.386103 0.090943426 0.081649624 -0.24735269 3.3230295
0.16835123 -0.2981284 -0.61591655 -0.4591501
00000000: 2c8e 45be 9395 2ac0 5a3c fcbe d36b b1bf
00000010: 8c40 ba3d eb37 a73d 064a 7dbe 84ac 5440
00000020: 4464 2c3e 49a4 98be b5ac 1dbf b915 ebbe

linear2.weight f4 [2, 12]
-0.3614926 -0.32865924 -0.052194186 -0.31350192 -0.043443043 0.12977347 -0.05501443 0.24718809
0.35341033 -0.42556965 -0.3062651 -0.2681132 -0.3609315 -0.3662308 -0.07937941 -0.23387255
-0.096938655 0.21709056 -0.05960932 0.22296655 0.33536616 -0.34470943 -0.40190294 -0.24641825
00000000: 8f15 b9be 0646 a8be 92c9 55bd 5383 a0be
00000010: 55f1 31bd 56e3 043e d056 61bd e01e 7d3e
00000020: 33f2 b43e 44e4 d9be c7ce 9cbe 2246 89be
00000030: 03cc b8be 9a82 bbbe ac91 a2bd 497c 6fbe
00000040: c687 c6bd fd4c 5e3e e728 74bd 5851 643e
00000050: 1db5 ab3e c17d b0be 39c6 cdbe 1155 7cbe

linear2.bias f4 [2]
2.3404555 2.0633934
00000000: 06ca 1540 a30e 0440
