model/test2.pth/test2.pth4.pth (torch, 3368 bytes, 4 tensors)

linear1.weight f4 [32, 7]
0	0xbbb2509a	-0.0054417374
1	0xbdcdd46d	-0.100502826
2	0x3e392468	0.18080294
3	0xbedb2d95	-0.42808214
4	0xbe1fecf4	-0.15617734
5	0xbeb4890e	-0.35260814
6	0x3bb0d6c0	0.005396694
7	0xbea31fc1	-0.31860164
8	0xbeb625a7	-0.355756
9	0xbd5a0060	-0.053223014
10	0xbe3838df	-0.17990445
11	0xbaf54200	-0.0018711686
12	0x3eaf03a1	0.34182456
13	0x3dc89088	0.09793192
14	0xbe27b88a	-0.1637899
15	0x3da13492	0.07871355
16	0xbea91b19	-0.33028486
17	0xbef60629	-0.48051575
18	0x3c330c89	0.010928282
19	0xbef39354	-0.4757334
20	0x3e83294a	0.2561744
21	0xbdbd35a4	-0.09238747
22	0xbccbe5a6	-0.024889778
23	0x3e9449f4	0.28962672
24	0xbf357aec	-0.7089069
25	0xbe6464b6	-0.22304043
26	0xbe7590fa	-0.23981085
27	0x3de5ca17	0.11220186
28	0xbe192c87	-0.14958392
29	0xbce07d50	-0.027403504
30	0xbd173300	-0.03691387
31	0xbe3ac6d5	-0.18239911
32	0xbea49330	-0.32143545
33	0x3d97f704	0.07420161
34	0xba421e00	-0.0007404983
35	0xbe7108c7	-0.23538505
36	0xbf065f8d	-0.5248955
37	0xbe52363b	-0.205285
38	0x3dd627f3	0.104568385
39	0xbd65c763	-0.056098353
40	0x3de6e5e1	0.11274315
41	0xbea6534b	-0.32485422
42	0xbd4eec44	-0.05051829
43	0xbe3753d3	-0.1790307
44	0x3e2ff4a2	0.17183164
45	0xbe825efc	-0.25463092
46	0xbeb34ea1	-0.35020927
47	0xbec64a67	-0.3872864
48	0x3e508db6	0.20366558
49	0xbf857686	-1.0426795
50	0xbd8d82d0	-0.06909716
51	0xbee4d3d3	-0.4469286
52	0xbd075376	-0.03303858
53	0x3cdd6d53	0.027029669
54	0xbf252f04	-0.64524865
55	0xbf1b92d9	-0.60770947
56	0x3e07d98d	0.13266583
57	0xbf169580	-0.5882187
58	0x3dd21c6a	0.10259326
59	0xbea08fa3	-0.31359586
60	0x3c35dff4	0.011100758
61	0xbeca67ab	-0.39532217
62	0xbe4d4a11	-0.20047785
63	0xbfae36eb	-1.361051
64	0x3e2c3421	0.1681676
65	0x3e6ebb6c	0.23313683
66	0x3d9340e5	0.07190112
67	0x3d78b31f	0.0607177
68	0xbe658b69	-0.22416462
69	0xbc92077e	-0.017825838
70	0xbc8971d9	-0.01677792
71	0x3d88c49e	0.06678127
72	0xbec7a030	-0.389894
73	0xbc823c93	-0.015898025
74	0xbe05dc1c	-0.13072246
75	0xbe89b612	-0.2689672
76	0xbc4346a4	-0.0119186975
77	0xbd3f0ee0	-0.046645045
78	0x3e968c10	0.29403734
79	0x3f52b00a	0.82299864
80	0x3e058a9b	0.13041155
81	0x3d2b6c35	0.04185124
82	0x3d2e4d82	0.042554386
83	0xbfa35e57	-1.2763165
84	0x3d910021	0.07080103
85	0xbebf88bf	-0.37409016
86	0x3ea50235	0.32228246
87	0xbe298b5e	-0.1655707
88	0xbe87ee97	-0.26549217
89	0x3e38bf9a	0.1804184
90	0x3d66435b	0.05621658
91	0xbd8a7a63	-0.06761625
92	0xbf1a16c6	-0.60191
93	0xbf0b758f	-0.54476255
94	0xbcc441d2	-0.023957167
95	0xbde30454	-0.1108481
96	0x3d06ad33	0.03288002
97	0x3fa1f180	1.2651825
98	0xbf90bbbd	-1.1307293
99	0x3f18ab5f	0.5963649
100	0x3e6e52fd	0.23273845
101	0xbeb5c71a	-0.35503465
102	0x3f01f218	0.5076003
103	0xbe90aa65	-0.28255
104	0xbf83400c	-1.025392
105	0xc050780f	-3.2573278
106	0x3e7c1fc9	0.246215
107	0xbe0f8bf5	-0.14018233
108	0xbe9a7c25	-0.3017284
109	0x3dbf8aff	0.09352683
110	0xbdc1d36e	-0.09464155
111	0xbd64387a	-0.055717923
112	0xbdeaebac	-0.11470732
113	0x3f160c14	0.5861218
114	0xbf348bfc	-0.705261
115	0xbbfc9ecd	-0.00770936
116	0x3ebeffd7	0.37304565
117	0xbec62fb1	-0.3870826
118	0x3e395a96	0.18100962
119	0xbc8fcb80	-0.017553091
120	0xbda081d8	-0.07837266
121	0x3e345ef6	0.1761435
122	0xbd4077b0	-0.046989143
123	0xbeb2541c	-0.34829795
124	0x3e1fd60e	0.15608999
125	0xbe6e038f	-0.23243545
126	0xbeb4a5a6	-0.3528263
127	0x3e1209c6	0.14261541
128	0xbb2edf7b	-0.0026683498
129	0x3d46b68b	0.04851393
130	0xbf006d1f	-0.50166506
131	0x3d62d872	0.0553822
132	0x3d72ba9e	0.059260003
133	0xbef8cfe2	-0.48596102
134	0xbe897737	-0.26848766
135	0xbe188c90	-0.1489737
136	0x3d750ec0	0.05982852
137	0xbd48ebdc	-0.049053058
138	0xbe27147a	-0.16316405
139	0xbdff393b	-0.12462088
140	0xbea5a957	-0.3235576
141	0x3c9adaff	0.018903254
142	0x3db8f62d	0.09031329
143	0xbe412c3b	-0.18864529
144	0xbe0e88f0	-0.13919425
145	0x3e6cf506	0.23140344
146	0xbdde89f2	-0.10866155
147	0xbeb26132	-0.3483978
148	0xbea60426	-0.3242504
149	0xbec72e80	-0.38902664
150	0x3c38bd11	0.011275546
151	0xbd343c60	-0.04400289
152	0xbe5abeef	-0.21361898
153	0xbec05833	-0.3756729
154	0x3d165014	0.036697462
155	0xbdc8f0f9	-0.09811587
156	0xbdfa7f0e	-0.12231265
157	0xbe95d18e	-0.2926144
158	0xbed90133	-0.42383727
159	0xbeb15f4e	-0.34643024
160	0x3e09763d	0.1342401
161	0xbe8eb914	-0.27875578
162	0x3e111ded	0.14171572
163	0xbe73c81e	-0.23806807
164	0xbe4a7efe	-0.19775006
165	0xbe446e7d	-0.19182773
166	0xbdf508cd	-0.11964569
167	0x3e0d9087	0.13824664
168	0xbe2f6815	-0.17129548
169	0xbedf5701	-0.43621066
170	0xbe4bcff7	-0.19903551
171	0xbf00c552	-0.50301087
172	0xbeb738be	-0.35785478
173	0xbe61251e	-0.21986815
174	0x3ef367d9	0.47540167
175	0xbece8ce8	-0.40341878
176	0xbd787eec	-0.060667917
177	0xbe66793f	-0.22507189
178	0x3da6b527	0.08140021
179	0xbef60bcc	-0.48055875
180	0x3de3a224	0.1111491
181	0x3e3584bc	0.17726415
182	0xbe7dff6a	-0.24804464
183	0x3e2595f7	0.16170488
184	0xbe8656d6	-0.26238126
185	0xbe9ff41a	-0.31240922
186	0xbdbf5214	-0.09341827
187	0xbe7b1678	-0.2452029
188	0x3e77e983	0.24210171
189	0xbe7e7198	-0.2484802
190	0x3ceda38d	0.029008651
191	0x3f11d6d7	0.56968445
192	0xbebce73e	-0.36895174
193	0xbdcbb54f	-0.09946691
194	0xbc8b9b69	-0.017041879
195	0xbe243602	-0.16036227
196	0xbbef3fbc	-0.007301299
197	0xbed0765c	-0.407153
198	0x3d7faa6f	0.062418398
199	0xbf59ce25	-0.85080177
200	0xbcd7f670	-0.026362628
201	0xbea39752	-0.31951386
202	0xbe7b092f	-0.24515222
203	0xbe68970d	-0.22713871
204	0xbdc77015	-0.09738175
205	0x3e50c8b4	0.20389062
206	0x3af1c8e4	0.0018446711
207	0xbd909138	-0.07058948
208	0xbee1b9f3	-0.4408718
209	0xbccfdac1	-0.025372865
210	0xbebfa7a7	-0.37432596
211	0xbe01b18f	-0.1266539
212	0xbdce97fb	-0.10087582
213	0xbdd4e689	-0.103955336
214	0xbd71b872	-0.05901379
215	0x3e18275e	0.14858767
216	0x3c01f19b	0.007931138
217	0xbf144c4d	-0.57928926
218	0xbf2fcb04	-0.6866915
219	0xbea90747	-0.33013365
220	0x3dc73690	0.09727204
221	0xbea5d328	-0.32387662
222	0x3d8e2cc2	0.069421306
223	0x3ed12aed	0.40853062

linear1.bias f4 [32]
0	0xbf1197fb	-0.5687253
1	0x3deb7d8c	0.114985555
2	0xbebb8b96	-0.36629933
3	0xbef18158	-0.47168994
4	0xbe952208	-0.29127526
5	0x3d9add66	0.0756176
6	0x3e520e68	0.20513308
7	0xbea3e32c	-0.32009256
8	0xbecc9705	-0.3995897
9	0x3e94ffd4	0.2910143
10	0x3dfb454f	0.12269079
11	0xbf1dc313	-0.61625785
12	0x3e0d1beb	0.13780181
13	0xbed6f359	-0.41982535
14	0x3ea4a24d	0.32155076
15	0x3f111bdc	0.56683135
16	0x3f140bb9	0.5783039
17	0xbdd79bbc	-0.10527751
18	0xbf13545c	-0.575506
19	0xbd8ababe	-0.067738995
20	0xbebec803	-0.37261972
21	0xbe6a0d15	-0.22856553
22	0xbcbc76d1	-0.023005875
23	0xbe251d0a	-0.16124359
24	0xbf21ccaf	-0.6320295
25	0x3cd6f994	0.026242055
26	0x3d44003f	0.047851797
27	0xbd280359	-0.041018818
28	0xbd33bae7	-0.043879416
29	0xbdeeb9b7	-0.11656516
30	0xbd945e89	-0.07244594
31	0xbf1667cc	-0.5875213

linear2.weight f4 [2, 32]
0	0x3d1d1ffb	0.038360577
1	0x3e0c34b9	0.13691987
2	0x3e07c9ff	0.13260649
3	0xbe049fde	-0.1295161
4	0x3e1b98f9	0.15195073
5	0xbc3d129c	-0.011540081
6	0xbd95cfde	-0.07315038
7	0xbe1323b9	-0.14369096
8	0x3ba7d15a	0.005121392
9	0x3e34b21d	0.1764607
10	0x3cd85212	0.026406322
11	0xbe89aaf0	-0.26888227
12	0xbc010bce	-0.00787635
13	0xbe8c1105	-0.27356735
14	0x3e863654	0.26213324
15	0xbef9857c	-0.48734653
16	0x3e5ae0f3	0.21374874
17	0xbca13148	-0.01967682
18	0xbab23a50	-0.0013597701
19	0x3cd45f53	0.02592436
20	0xbc70791a	-0.01467731
21	0x3cd4d60a	0.025980968
22	0xbbb398cd	-0.0054808618
23	0x3d2a1d76	0.041532002
24	0x3b9e4077	0.004829462
25	0x3e3d11d5	0.18463834
26	0xbce41a12	-0.027844463
27	0xbd80f86e	-0.06297384
28	0xbe4b0b6e	-0.19828579
29	0xbdf01b04	-0.11723903
30	0x3cece151	0.028916033
31	0xbd858db8	-0.06521171
32	0x3cec6388	0.028856054
33	0x3c346d30	0.01101236
34	0x3e00c81a	0.12576333
35	0xbdc39f16	-0.095518276
36	0xbd8c73fe	-0.06858061
37	0x3d2ef6af	0.042715725
38	0x3e04235c	0.12904114
39	0x3ba7af59	0.0051173386
40	0x3c9329dc	0.017964296
41	0x3e198f07	0.14995967
42	0x3ce18211	0.02752784
43	0xbe8ce3b3	-0.2751747
44	0xbd478eb2	-0.04872007
45	0xbe7a2151	-0.24426772
46	0x3e74b2b7	0.238963
47	0xbead8aa7	-0.33894846
48	0x3e5ca671	0.21547867
49	0x3d9c1c3e	0.07622574
50	0xbc9d9168	-0.019234374
51	0xbd6d3216	-0.057909094
52	0xbc7b29b0	-0.015329763
53	0x3c62854e	0.013825728
54	0xbc9423a5	-0.018083403
55	0x3d352687	0.044226196
56	0x3c9b8c56	0.018987816
57	0x3dbe798f	0.09300529
58	0xbdad303d	-0.08456466
59	0xbdaf2f0d	-0.08553896
60	0xbe119104	-0.14215475
61	0xbd5cd6db	-0.05391584
62	0x3d293f39	0.04132006
63	0xbd3adc5c	-0.045620307

linear2.bias f4 [2]
0	0x3fcce8ea	1.600858
1	0x3f73f1df	0.9529094
