model/test5/test53.pth (torch, 2504 bytes, 4 tensors)

linear1.weight f4 [16, 7]
0	0x3dafde34	0.08587304
1	0xbde21ae6	-0.11040287
2	0x3a01574e	0.0004933969
3	0xbeb4ba60	-0.35298443
4	0xbebe40a3	-0.3715869
5	0x3db67257	0.08908527
6	0xbb5824a6	-0.0032980829
7	0x3d06829d	0.032839406
8	0x3da7529f	0.081700556
9	0xbdba6249	-0.09100778
10	0xbf040edf	-0.5158519
11	0xbe8fc25f	-0.2807798
12	0xbebe8f88	-0.3721888
13	0xbd79ebd3	-0.061015915
14	0x3add2ffc	0.0016875262
15	0x3afce1fa	0.001929342
16	0xbe1981ae	-0.14990875
17	0xbd144b77	-0.03620478
18	0xbe359f03	-0.1773644
19	0x3e4a9a85	0.19785507
20	0xbe2fdf87	-0.17175113
21	0xbe72eb2e	-0.23722526
22	0x3e0040fe	0.12524793
23	0xbe8badc4	-0.2728101
24	0x3d4a6c68	0.04941979
25	0xbebf9e50	-0.3742547
26	0x3e364d22	0.17802861
27	0xbd8e2450	-0.0694052
28	0x3e587b73	0.21140842
29	0xbed0e2ba	-0.4079798
30	0xbe39fb02	-0.18162158
31	0xbe1722d6	-0.14759383
32	0xbe8fdec6	-0.2809965
33	0xbea27efc	-0.31737506
34	0xbe894120	-0.268075
35	0x3d84f221	0.06491495
36	0xbcb04548	-0.02151741
37	0x3e1a2901	0.15054704
38	0xbe04d019	-0.12970008
39	0xbebe7e93	-0.37205943
40	0xbebf5af7	-0.37374088
41	0xbead774a	-0.33880073
42	0xbd73f1e1	-0.059556846
43	0x3dc48c9e	0.09597133
44	0xbec65651	-0.3873773
45	0xbe1958c2	-0.14975265
46	0x3ca25e48	0.019820347
47	0xbc16df36	-0.009208491
48	0xbede81d9	-0.4345844
49	0x3dc24205	0.094852485
50	0xbda54c57	-0.08071201
51	0xbd9e81f4	-0.0773963
52	0xbe48f6a8	-0.19625342
53	0xbe73d5b3	-0.23811989
54	0xbe0c56bb	-0.1370496
55	0xbcfe680b	-0.03105547
56	0xbe849c66	-0.25900573
57	0x3dd8dca9	0.105889626
58	0x3e372ac9	0.17887415
59	0x3e84d296	0.25941914
60	0x3e03aea0	0.12859583
61	0xbd9a6d96	-0.07540433
62	0xbe9d6bf3	-0.3074642
63	0xbf0425f0	-0.5162039
64	0x3c9e04b6	0.019289356
65	0xbd927025	-0.07150296
66	0x3d4ccea4	0.050001755
67	0x3e7b1106	0.24518213
68	0xbeb3d523	-0.35123548
69	0xbf41f9da	-0.7577187
70	0xbe6ec5d8	-0.23317659
71	0xbe1054bd	-0.14094825
72	0xbeee44d0	-0.46536875
73	0xbe284ca1	-0.16435482
74	0xbe8abd79	-0.2709768
75	0xbe436844	-0.19082743
76	0x3e5ab60c	0.21358508
77	0x3de1c4d9	0.11023874
78	0xbedb24b4	-0.4280144
79	0xbe98c8ea	-0.29840785
80	0xbea4236d	-0.32058278
81	0xbe8c775d	-0.27434817
82	0xba8384a1	-0.0010034033
83	0x3ddf3c53	0.10900178
84	0xbd18d9bd	-0.037317026
85	0x3d359e78	0.04434058
86	0xbe8de855	-0.27716318
87	0xbef090f0	-0.4698558
88	0x3d4f9bf6	0.050685845
89	0xbf03416c	-0.512717
90	0xbec1ed5c	-0.37876403
91	0xbd825520	-0.063638926
92	0x3e8e6eee	0.27819008
93	0x3f139631	0.5765105
94	0x3d98305f	0.07431101
95	0x3d448e7f	0.047987457
96	0xbc3ea4db	-0.011635984
97	0xbf754783	-0.95812243
98	0xbd1164db	-0.035496574
99	0xbeb4beab	-0.35301718
100	0xbdbd5f01	-0.09246636
101	0xbe6af072	-0.22943285
102	0xbea193c4	-0.3155805
103	0xbe3cbe49	-0.18431963
104	0x3e819742	0.25310713
105	0xbdfd2c9f	-0.123620264
106	0xbedef6a0	-0.43547535
107	0xbecd0c67	-0.40048525
108	0x3c9d26b1	0.019183489
109	0xbe30610d	-0.17224522
110	0x3e5f1d71	0.21788575
111	0x3f6d3dfe	0.9267272

linear1.bias f4 [16]
0	0xbed930a3	-0.4241992
1	0xbd5d26f3	-0.053992223
2	0x3e4bd907	0.19907008
3	0x3d0f1e68	0.034941107
4	0xbe75a1be	-0.23987481
5	0xbef940e0	-0.48682308
6	0x3d95e947	0.07319885
7	0xbf1e90c4	-0.61939645
8	0xbe2c69b3	-0.16837196
9	0xbe5d81e6	-0.21631584
10	0x3dfaf652	0.12254013
11	0xbdeab3c0	-0.11460066
12	0xbedaaa4b	-0.42708048
13	0x3eb84d0a	0.35996276
14	0xbe857a15	-0.26069704
15	0xbedc3617	-0.43010017

linear2.weight f4 [2, 16]
0	0x3e3cf16d	0.18451472
1	0x3cdb8682	0.026797537
2	0xbdac2433	-0.08405342
3	0x3de8eed8	0.11373681
4	0x3d63c6cd	0.055609513
5	0xbd16c93d	-0.03681301
6	0xbdfaba43	-0.12242558
7	0xbdf313d7	-0.118690185
8	0x3debd47a	0.11515136
9	0xbe6e70f1	-0.23285271
10	0x3ddbfe24	0.10741833
11	0xbe978f7d	-0.2960166
12	0xbd43ecac	-0.04783313
13	0xbe7580f3	-0.23974971
14	0x3d072ac9	0.032999787
15	0xbe2b1577	-0.16707407
16	0x3d441244	0.047868982
17	0x3d07dbc6	0.033168577
18	0xbda838c6	-0.08213954
19	0xbda94370	-0.08264816
20	0xbc9e6a71	-0.019337865
21	0xbd106111	-0.03524882
22	0xbd6b20ab	-0.0574042
23	0xbd22065b	-0.039556842
24	0x3dce0407	0.10059362
25	0xbe034f79	-0.12823285
26	0x3e8b3fc6	0.27197093
27	0xbc0cdc19	-0.008597397
28	0xbcfbcba8	-0.03073676
29	0xbe692d6c	-0.22771233
30	0xbe00688c	-0.12539881
31	0xbe1d1783	-0.15341

linear2.bias f4 [2]
0	0x3f0e70f4	0.556411
1	0x3f2084cb	0.62702626
