model/test5/test52.pth (torch, 2504 bytes, 4 tensors)

linear1.weight f4 [16, 7]
000000 34 de af 3d e6 1a e2 bd 4e 57 01 3a 60 ba b4 be
       0.08587304 -0.11040287 0.0004933969 -0.35298443
000010 a3 40 be be 57 72 b6 3d a6 24 58 bb 77 98 b1 3d
       -0.3715869 0.08908527 -0.0032980829 0.086716585
000020 d8 54 04 3e 33 49 8e bd 92 a5 0d bf ba cd 68 be
       0.1292299 -0.069475554 -0.55330765 -0.22734728
000030 4f 68 a5 be 6d 33 68 bc fc 2f dd 3a fa e1 fc 3a
       -0.32306144 -0.014172417 0.0016875262 0.001929342
000040 ae 81 19 be 77 4b 14 bd 03 9f 35 be 85 9a 4a 3e
       -0.14990875 -0.03620478 -0.1773644 0.19785507
000050 87 df 2f be 2e eb 72 be fe 40 00 3e c4 ad 8b be
       -0.17175113 -0.23722526 0.12524793 -0.2728101
000060 68 6c 4a 3d 50 9e bf be 22 4d 36 3e 50 24 8e bd
       0.04941979 -0.3742547 0.17802861 -0.0694052
000070 73 7b 58 3e ba e2 d0 be 02 fb 39 be d6 22 17 be
       0.21140842 -0.4079798 -0.18162158 -0.14759383
000080 c6 de 8f be fc 7e a2 be 20 41 89 be 21 f2 84 3d
       -0.2809965 -0.31737506 -0.268075 0.06491495
000090 48 45 b0 bc 01 29 1a 3e 19 d0 04 be 93 7e be be
       -0.02151741 0.15054704 -0.12970008 -0.37205943
0000a0 f7 5a bf be 4a 77 ad be e1 f1 73 bd 9e 8c c4 3d
       -0.37374088 -0.33880073 -0.059556846 0.09597133
0000b0 51 56 c6 be c2 58 19 be 48 5e a2 3c 36 df 16 bc
       -0.3873773 -0.14975265 0.019820347 -0.009208491
0000c0 d9 81 de be 05 42 c2 3d 57 4c a5 bd f4 81 9e bd
       -0.4345844 0.094852485 -0.08071201 -0.0773963
0000d0 a8 f6 48 be b3 d5 73 be bb 56 0c be 0b 68 fe bc
       -0.19625342 -0.23811989 -0.1370496 -0.03105547
0000e0 8a 0f 5f be 9f 9b 8f 3d f7 4e 09 3e c8 48 86 3e
       -0.21783271 0.07012104 0.13409029 0.26227403
0000f0 7b f0 ef 3d 7b 72 91 bd 1a 6e 91 be 5e 7a 11 bf
       0.1171579 -0.071019135 -0.28404313 -0.5682734
000100 93 4e 81 3d ec 58 d4 3c c3 98 ac 3d ca 59 7c 3e
       0.06313815 0.025921308 0.084275745 0.24643627
000110 dd 3b a9 be ca 6c 07 bf d8 c5 6e be bd 54 10 be
       -0.33053485 -0.52900374 -0.23317659 -0.14094825
000120 d0 44 ee be a1 4c 28 be 79 bd 8a be 44 68 43 be
       -0.46536875 -0.16435482 -0.2709768 -0.19082743
000130 0c b6 5a 3e a3 69 11 3e 1c e1 ca be 81 0c a9 be
       0.21358508 0.14200453 -0.3962487 -0.33017352
000140 d5 df 93 be 88 67 78 be 7a 01 fc 3c 60 25 10 3e
       -0.28881708 -0.24258244 0.030762423 0.14076757
000150 bd d9 18 bd 78 9e 35 3d 55 e8 8d be f0 90 f0 be
       -0.037317026 0.04434058 -0.27716318 -0.4698558
000160 f6 9b 4f 3d 6c 41 03 bf 5c ed c1 be 85 d4 cd bd
       0.050685845 -0.512717 -0.37876403 -0.100503005
000170 e5 5f 92 3e 44 ff 09 3f 03 95 b4 3d ff 98 6f 3d
       0.28588787 0.5390513 0.08817484 0.058495518
000180 36 27 fe bc a5 5c 67 bf db 64 11 bd ab be b4 be
       -0.031024557 -0.9037574 -0.035496574 -0.35301718
000190 01 5f bd bd 72 f0 6a be c4 93 a1 be 49 be 3c be
       -0.09246636 -0.22943285 -0.3155805 -0.18431963
0001a0 42 97 81 3e bc d8 c4 bd 18 35 dd be cc 6b cd be
       0.25310713 -0.09611651 -0.4320457 -0.40121305
0001b0 f2 30 45 3d ba 9d 2b be d8 c0 5f 3e 50 a4 5f 3f
       0.04814238 -0.16759387 0.21850908 0.87360096

linear1.bias f4 [16]
000000 a3 30 d9 be 78 7b 48 3a 07 d9 4b 3e 68 1e 0f 3d
       -0.4241992 0.0007647793 0.19907008 0.034941107
000010 be a1 75 be e0 40 f9 be 47 e9 95 3d c4 90 1e bf
       -0.23987481 -0.48682308 0.07319885 -0.61939645
000020 59 9c 50 be 46 b4 4e be 52 f6 fa 3d 79 a5 a9 bd
       -0.20372142 -0.20185956 0.12254013 -0.082835145
000030 4b aa da be 42 2b cf 3e 15 7a 85 be d9 89 d3 be
       -0.42708048 0.4046269 -0.26069704 -0.41316107

linear2.weight f4 [2, 16]
000000 6d f1 3c 3e c1 be 48 3d 33 24 ac bd d8 ee e8 3d
       0.18451472 0.049010042 -0.08405342 0.11373681
000010 cd c6 63 3d 3d c9 16 bd 43 ba fa bd d7 13 f3 bd
       0.055609513 -0.03681301 -0.12242558 -0.118690185
000020 77 0f d1 3d e0 9b 31 be 24 fe db 3d 7d 8f 97 be
       0.10208028 -0.17344618 0.10741833 -0.2960166
000030 ac ec 43 bd a9 f8 6a be c9 2a 07 3d b0 e0 3d be
       -0.04783313 -0.22946419 0.032999787 -0.18542743
000040 44 12 44 3d 87 ce 62 3d c6 38 a8 bd 70 43 a9 bd
       0.047868982 0.05537274 -0.08213954 -0.08264816
000050 71 6a 9e bc 11 61 10 bd ab 20 6b bd 5b 06 22 bd
       -0.019337865 -0.03524882 -0.0574042 -0.039556842
000060 46 48 d5 3d 77 26 db bd c6 3f 8b 3e b9 cb bd 3c
       0.10414176 -0.10700696 0.27197093 0.023168432
000070 a8 cb fb bc 1a 85 6b be 8c 68 00 be e6 4f 24 be
       -0.03073676 -0.22999993 -0.12539881 -0.16046104

linear2.bias f4 [2]
000000 4a 62 e8 3e 60 00 a3 3e
       0.4538749 0.31836224
